model2.pt (torch, 6657 bytes, 7 tensors)

l1.weight f4 [20, 5]
0	0xbe849a13	-0.258988
1	0xbedf3912	-0.4359823
2	0x3e87298b	0.26398882
3	0xbebcc855	-0.3687159
4	0xbe5e8302	-0.21729663
5	0x3cc75d9a	0.024336625
6	0x3ded5d7b	0.115900956
7	0xbd4e29c1	-0.05033279
8	0xc0c0d4c0	-6.0259705
9	0x3fb4e9bd	1.4133831
10	0x3eb9bb2a	0.36275607
11	0x3ea4b797	0.32171318
12	0x3e1a5b2f	0.15073846
13	0xc1072421	-8.446321
14	0xbf6424ee	-0.8911885
15	0xbe5e3c26	-0.21702632
16	0x3e5b14d7	0.21394669
17	0xbf2cce7a	-0.6750256
18	0xc1104232	-9.016161
19	0xbf91cc01	-1.1390382
20	0xbe697e0d	-0.22801991
21	0x3ed0a1c3	0.40748414
22	0x3e823876	0.254337
23	0xc076a6b6	-3.8539252
24	0x3f5886bb	0.8458058
25	0x3ba00af5	0.0048841187
26	0x3e0a35dc	0.13497108
27	0x3e327ed1	0.17431189
28	0xc0acdf67	-5.402271
29	0x3fe48e12	1.7855856
30	0x3e097bac	0.13426083
31	0x3e52530e	0.20539495
32	0x3f33f6af	0.70298284
33	0x409e4ea8	4.9471016
34	0xbfb7c1d7	-1.435603
35	0xbc5356c8	-0.012899108
36	0xbe40d6aa	-0.18831888
37	0x3e9e5b85	0.309292
38	0xbd2d10c8	-0.042252332
39	0x3e66b80f	0.2253115
40	0x3eb0d964	0.34540856
41	0xbe0f7245	-0.14008434
42	0xbd290db5	-0.041272838
43	0x4072b78a	3.7924523
44	0xbfc6f797	-1.5544308
45	0xbe674adb	-0.22587149
46	0xbec2e77d	-0.38067237
47	0xbe3d2781	-0.18472101
48	0xbedea736	-0.43486947
49	0xbe3bbef8	-0.18334568
50	0x3d9e3bd5	0.07726256
51	0x3eddffef	0.43359324
52	0xbf023df6	-0.50875795
53	0x40b76ac2	5.731782
54	0xbff8b333	-1.9429687
55	0xbd8003ec	-0.06250748
56	0x3c9791a4	0.018502064
57	0xbd253130	-0.040330112
58	0xc123cd38	-10.237602
59	0xbfcf0db4	-1.6176057
60	0x3e2f61ab	0.17127101
61	0x3d8eb0c3	0.06967308
62	0xbef10304	-0.47072613
63	0xc024cace	-2.5748782
64	0x3fa9ae49	1.3256313
65	0xbd5bf1d4	-0.053697422
66	0x3ed2907b	0.41125855
67	0x3eb5569f	0.3541765
68	0xc0a9dead	-5.308432
69	0x3f7f3e33	0.99704283
70	0xbdea4a8e	-0.114400014
71	0xbd4f4931	-0.05060691
72	0xbb8b19d4	-0.0042450223
73	0xbe430706	-0.19045648
74	0x3e9967ea	0.29962093
75	0x3ed516c7	0.4161894
76	0xbe40f5fa	-0.18843833
77	0x3f14fde9	0.58199936
78	0xc05c7ab7	-3.44499
79	0x3fbb91a3	1.465382
80	0xbc7d7811	-0.015470521
81	0x3e232fbf	0.15936182
82	0x3f05ee1e	0.52316463
83	0xc0fde3b8	-7.9340477
84	0x3e0991da	0.13434544
85	0x3b11e848	0.0022263695
86	0xbc00b160	-0.0078547895
87	0xbff34261	-1.9004632
88	0xc013e31d	-2.310737
89	0x40445786	3.067842
90	0xbdc21fb0	-0.094787
91	0xbdac84f8	-0.08423799
92	0xbee2bda4	-0.4428531
93	0xbed11506	-0.40836352
94	0x3ebc377e	0.36761087
95	0x3d80ee6d	0.06295476
96	0xbe7437d7	-0.23849426
97	0xbe89814d	-0.2685646
98	0x3dbeef35	0.09322969
99	0xbe232dee	-0.1593549

l1.bias f4 [20]
0	0xbe5d94ef	-0.21638845
1	0xbf8e5df2	-1.112242
2	0xc005136a	-2.07931
3	0x3f2e05e4	0.6797774
4	0x3f90c7c7	1.1310967
5	0xbf92ff1a	-1.1484101
6	0x3f9e0974	1.2346635
7	0x3ecceade	0.4002294
8	0x3f535c88	0.82563066
9	0xbe1d3dc0	-0.15355587
10	0x3fef20ca	1.8681881
11	0x40129def	2.2908895
12	0x3fa433da	1.2828324
13	0xbf40b21e	-0.75271785
14	0x3e4b0755	0.19827016
15	0xbf71889a	-0.9434906
16	0xbfad1a4c	-1.352365
17	0x3f68cad9	0.9093452
18	0x3eb58526	0.35453147
19	0xbe49b155	-0.19696553

l2.weight f4 [20, 20]
0	0xbdfe3f25	-0.124143876
1	0x3e3ec92e	0.18631431
2	0xbda4498c	-0.080218405
3	0xbe06604e	-0.13122675
4	0xbe53cfd8	-0.20684755
5	0xbe634698	-0.22194898
6	0xbc5dd9c7	-0.013540692
7	0x3db976e8	0.09055883
8	0x3da9db75	0.08293811
9	0x3e0147c5	0.12625034
10	0x3dc35f3c	0.09539649
11	0x3cf51600	0.029917717
12	0x3e55356f	0.20821165
13	0xbdc7af7d	-0.097502686
14	0xbd6a5fc5	-0.05722024
15	0xbe2b770c	-0.16744632
16	0x3c94d048	0.018165722
17	0xbdb69806	-0.08915715
18	0x3e4035f6	0.18770584
19	0xbdf879ea	-0.12132628
20	0xbc2bbaff	-0.010481595
21	0xbd9a101e	-0.07522605
22	0x3e0c27f3	0.13687114
23	0x3ef44f92	0.47716957
24	0x3dd1cfec	0.10244736
25	0xbdcba27d	-0.099431016
26	0xbe8bdefe	-0.27318567
27	0x3d9f4fcc	0.07778892
28	0x3dae866c	0.08521733
29	0xbe19b232	-0.15009382
30	0x3c7c61f6	0.015404215
31	0x3fa4262a	1.2824147
32	0x3e8e5024	0.27795517
33	0xbea83ea6	-0.32860297
34	0xbd539a82	-0.051661022
35	0xbef0413f	-0.4692478
36	0x3da06248	0.07831246
37	0x3f971b74	1.1805253
38	0xbc91cf69	-0.017799096
39	0xbe068fe4	-0.13140827
40	0x3e1feb9a	0.15617219
41	0xbdae4d05	-0.08510784
42	0x3e9441c9	0.2895644
43	0x3cad8aac	0.021184288
44	0x3e6a862b	0.22902744
45	0xbe0fdd06	-0.14049158
46	0x3e9077b7	0.28216335
47	0x3e64608c	0.22302455
48	0xbd77f553	-0.060536694
49	0x3d42310c	0.047410056
50	0x3c6ed810	0.0145778805
51	0x3e6c56ef	0.23080038
52	0x3e40bfbf	0.18823145
53	0x3e9a7bcf	0.30172583
54	0xbdef6ad9	-0.116903014
55	0x3e012a14	0.12613708
56	0x3e8e61e6	0.27809066
57	0xbd913872	-0.07090844
58	0xbe29eda0	-0.16594553
59	0x3d8d5f11	0.06902898
60	0xbd4a0896	-0.049324594
61	0x3f04f9ca	0.5194365
62	0xbd07adcc	-0.03312473
63	0x3d545b73	0.051845025
64	0x3dc1ffb8	0.094726026
65	0x3eb697b6	0.3566262
66	0xbda91b98	-0.08257216
67	0x3e5c5700	0.21517563
68	0xbe1b9315	-0.15192826
69	0x3e0415a7	0.12898885
70	0xbec91cdc	-0.3927983
71	0x3dbfa1c8	0.09357029
72	0x3acbb99a	0.0015542984
73	0x3e9b53c3	0.30337343
74	0xbe1cbbcf	-0.15306018
75	0x3eb511b2	0.35365063
76	0xbc50d1ca	-0.01274533
77	0xbf313008	-0.69213915
78	0x3d4dcfa1	0.05024684
79	0x3e3dd2b9	0.18537416
80	0xbe2d1476	-0.16902336
81	0x3ea27135	0.31726995
82	0x3e13c982	0.14432338
83	0x3d77c5e8	0.060491472
84	0x3c139d78	0.009009711
85	0x3eafd324	0.34340775
86	0xbaac9bfa	-0.0013169043
87	0x3dc86198	0.097842395
88	0xbdfbfe85	-0.12304405
89	0xbe4e9af0	-0.20176291
90	0xbd59fbef	-0.05321878
91	0x3e564e16	0.20928225
92	0x3e815d5c	0.2526654
93	0x3de94706	0.113905
94	0x3c9d7acc	0.019223593
95	0xbe3b4baf	-0.1829059
96	0x3e988550	0.2978921
97	0xbe8a9e14	-0.2707373
98	0xbd522bbc	-0.05131124
99	0x3d53c484	0.051701084
100	0xbccbb76c	-0.024867736
101	0xbe0bdc6b	-0.13658302
102	0xbc266f60	-0.01015839
103	0xbda77190	-0.08175957
104	0xbdc55461	-0.096352346
105	0xbe3bcf94	-0.18340904
106	0xbd755d00	-0.059903145
107	0xbe306739	-0.17226876
108	0x3e18824d	0.14893456
109	0xbc14c47c	-0.009080049
110	0xbe49cfff	-0.1970825
111	0xbb8f51da	-0.004373771
112	0xbd88707d	-0.066620804
113	0xbe111de5	-0.1417156
114	0x3e0ddacc	0.13852996
115	0x3d5b4957	0.05353674
116	0x3dd00623	0.101574205
117	0xbe62db1e	-0.22153899
118	0x3e261414	0.16218597
119	0xbdf714c5	-0.12064508
120	0x3dd62bf8	0.10457605
121	0x3d861537	0.06547015
122	0x3c4213c2	0.011845531
123	0xbde7b021	-0.11312891
124	0x3e6d2f2e	0.23162529
125	0xbde905fe	-0.11378096
126	0x3e674ef0	0.22588706
127	0x3e2b541a	0.16731301
128	0x3dddd493	0.10831561
129	0x3d950d97	0.07277983
130	0x3e237d1a	0.15965691
131	0x3dbb0b02	0.09132959
132	0xbdeef74b	-0.11668261
133	0xbd4ac5c9	-0.04950503
134	0x3da2262b	0.07917436
135	0xbe531ea6	-0.2061716
136	0x3e562ee3	0.20916323
137	0x3de36b8e	0.11104499
138	0xbe575eeb	-0.21032302
139	0x3d136011	0.035980288
140	0x3e501389	0.20319952
141	0x3ea2ed95	0.31821886
142	0x3e26af93	0.16277914
143	0xbd6e7c1b	-0.058223825
144	0x3e16d219	0.14728583
145	0x3eb12946	0.34601802
146	0x3d26a219	0.040681932
147	0x3e199341	0.14997579
148	0xbebf4b40	-0.373621
149	0xbd9169da	-0.07100268
150	0xbe71eb71	-0.2362497
151	0x3e2f7557	0.17134605
152	0x3deb17c4	0.11479142
153	0x3c38ed79	0.011287087
154	0xbe098e87	-0.13433276
155	0x3e2e7758	0.17037714
156	0x3e72a8de	0.2369723
157	0xbee504f4	-0.4473034
158	0x3df744c4	0.12073663
159	0xbe40a437	-0.18812643
160	0x3de47dc3	0.111568
161	0xbe1a4502	-0.15065387
162	0xbd89f7ac	-0.06736693
163	0x3dd493ea	0.10379775
164	0x3d976f97	0.07394331
165	0xbc9cb7a5	-0.019130537
166	0xbe3fd3cc	-0.18733138
167	0xbaa9e2a1	-0.0012961217
168	0x3e4c162d	0.19930334
169	0xbdb486a2	-0.08814742
170	0xbe347120	-0.17621279
171	0xbe2d91e4	-0.16950184
172	0x3e2a4629	0.16628326
173	0xbd25a6d5	-0.040442307
174	0xbe288787	-0.1645795
175	0xbe3a2999	-0.18179931
176	0xbe0e29fe	-0.13883206
177	0x3e1a6380	0.15077019
178	0xbd851fb0	-0.065001845
179	0x3d5c05e9	0.053716574
180	0xbe394ac0	-0.18094921
181	0x3f0dbbee	0.5536488
182	0x3e07ac1b	0.13249247
183	0x3e3b503c	0.18292326
184	0x3e8b7ba2	0.27242762
185	0x3e5a57bb	0.21322529
186	0xbe64a636	-0.2232903
187	0x3e48fd05	0.1962777
188	0xbe87d800	-0.26531982
189	0xbceace42	-0.028662805
190	0xbdd08077	-0.10180753
191	0x3e9cf58a	0.3065608
192	0x3cf1759e	0.02947503
193	0x3e1a18e4	0.15048558
194	0xbdc4479b	-0.0958397
195	0x3e623e36	0.22094044
196	0xbdb68648	-0.08912331
197	0xbe08c344	-0.13355738
198	0xbd8b12c9	-0.06790692
199	0x3e016c2c	0.1263892
200	0x3d547608	0.051870376
201	0x3e98cf38	0.29845595
202	0x3db962d3	0.09052052
203	0x3ec3d2e6	0.3824684
204	0x3dcd49f0	0.10023868
205	0x3e9b945f	0.30386636
206	0xbdfa139e	-0.12210773
207	0x3d659510	0.05605036
208	0xbe524c2d	-0.20536871
209	0xbd10cdad	-0.035352398
210	0x3c2a2d47	0.0103867715
211	0x3e69a89d	0.22818227
212	0xb99192bc	-0.0002776588
213	0x3e4a6474	0.19764882
214	0x3c817f8d	0.015807891
215	0x3dd42732	0.103590384
216	0xbdc45f82	-0.09588529
217	0xbe9464d0	-0.28983164
218	0xbd845805	-0.06462101
219	0xbe14548f	-0.14485382
220	0x3df80d41	0.12111903
221	0x3e0bac36	0.13639912
222	0xbddaeb15	-0.106893696
223	0x3e32b765	0.17452772
224	0x3dec8f7d	0.11550806
225	0x3ea8a1dc	0.3293599
226	0xbe07d00b	-0.13262956
227	0xbdcf9f5d	-0.10137818
228	0xbe822cf3	-0.2542492
229	0x3dc32dfd	0.09530256
230	0x3db36149	0.0875879
231	0x3eb37a12	0.3505407
232	0x3e68e727	0.22744428
233	0x3cc57f17	0.024108453
234	0xbe16f577	-0.14742075
235	0x3d09142c	0.033466503
236	0x3e4297f9	0.19003285
237	0xbf79c0b2	-0.97559655
238	0x3dac6b77	0.08418935
239	0x3e501279	0.20319547
240	0x3dcc9019	0.09988422
241	0x3b0d4a30	0.0021559112
242	0xbd3fcb71	-0.046824876
243	0x3e1dbf35	0.15404971
244	0x3c981200	0.01856327
245	0xbd9f9fd6	-0.07794158
246	0xbe5eea29	-0.21769013
247	0x3dba77dc	0.091048926
248	0xbe453e39	-0.19262017
249	0x3d257e9d	0.04040395
250	0x3e597498	0.21235883
251	0xbdea94ee	-0.11454187
252	0x3dac5408	0.08414465
253	0xbe6481f2	-0.22315195
254	0xbe641a13	-0.22275572
255	0x3d49fbc6	0.049312375

l2.bias f4 [20]
0	0x3e3aec95	0.18254311
1	0x3f6462e3	0.8921339
2	0xbea320e4	-0.3186103
3	0xbe5afd3c	-0.21385664
4	0xbe4ee26c	-0.2020356
5	0xbe30df7d	-0.17272754
6	0x3def1d45	0.116755046
7	0xbdbbd9c1	-0.09172393
8	0xbe142fdd	-0.14471383
9	0xbe8bb18e	-0.272839
10	0x3b581cc6	0.0032976135
11	0xbdc6cee6	-0.097074315
12	0xbe0f6191	-0.14002062
13	0x3dd8f84e	0.10594235
14	0x3fafcced	1.3734413
15	0xbf8fe139	-1.1240608
16	0xbd41f79b	-0.047355276
17	0xbf4ec54f	-0.8076982
18	0xc0134ad1	-2.3014414
19	0x3de53c35	0.11193124

l3.weight f4 [20, 20]
0	0xbd99f15f	-0.07516741
1	0x3dad6d56	0.0846812
2	0xbda58596	-0.0808212
3	0xbe63dda5	-0.2225252
4	0xbe5a799c	-0.21335453
5	0x3e6227f9	0.22085561
6	0x3d115daf	0.035489734
7	0x3dec9ab1	0.115529425
8	0x3e1b6846	0.15176496
9	0x3dcd493f	0.10023736
10	0x3d9cc876	0.076554224
11	0xbcb32af9	-0.021871077
12	0xbdc5118e	-0.09622489
13	0xbdf58219	-0.11987705
14	0x3fa1385e	1.2595327
15	0x3d9e1c1b	0.077202044
16	0xbe51502b	-0.20440738
17	0xbe618819	-0.22024573
18	0x3d016364	0.031588927
19	0xbde1fbcd	-0.11034355
20	0xbd81a276	-0.06329815
21	0x3edc87ad	0.43072262
22	0x3e170440	0.14747715
23	0x3e214859	0.15750255
24	0x3dfb066c	0.12257084
25	0x3e4f293d	0.20230575
26	0x3e56ae85	0.20965011
27	0x3d8bc2ee	0.06824289
28	0xbe3da162	-0.18518594
29	0x3e2dbe47	0.16967116
30	0x3e90198d	0.28144494
31	0x3d669e8b	0.056303542
32	0x3df92b9c	0.12166521
33	0x3e4c7e19	0.19969977
34	0x3f64a9d3	0.8932163
35	0x3eaaa82a	0.33331424
36	0x3cd29ea4	0.025710411
37	0x3ef08831	0.46978906
38	0x3f469c03	0.77581805
39	0x3e58f07e	0.2118549
40	0xbd3b4891	-0.0457235
41	0x3f2d3181	0.6765366
42	0x3f0c19a0	0.547266
43	0xbf6f9537	-0.9358706
44	0xbcb4e9fc	-0.022084229
45	0xbcb0ad01	-0.02156687
46	0x3f8349a2	1.0256846
47	0xbf10c51d	-0.5655077
48	0x3e41be05	0.18920143
49	0xbf7b5e2e	-0.9819058
50	0xbedc3e1b	-0.43016133
51	0xbe197cd6	-0.14989027
52	0xbd755c28	-0.05990234
53	0xbe14ad48	-0.14519227
54	0xbf9ef245	-1.2417685
55	0x3eca7684	0.39543545
56	0x3d948a12	0.07252897
57	0xbfe8b0c5	-1.8178946
58	0xbf6503c3	-0.89458865
59	0xbd0fa0c9	-0.035065446
60	0xbe27fb80	-0.16404533
61	0x3f67846b	0.9043643
62	0xbb464c9f	-0.0030258072
63	0x3e768782	0.2407513
64	0x3e124d47	0.14287291
65	0x3de687d6	0.112563774
66	0xbd2b5bd6	-0.04183563
67	0xbdb4d234	-0.088291556
68	0x3dafeaed	0.085897304
69	0x3e4d263b	0.20034115
70	0x3c7be103	0.015373471
71	0x3e199a76	0.15000328
72	0xbe51c577	-0.20485483
73	0xbc3b808d	-0.011444223
74	0x3f50880f	0.8145761
75	0x3e9eb64e	0.30998462
76	0x3d836b0e	0.064169034
77	0x3f2d826b	0.6777713
78	0x3fb55f88	1.4169779
79	0x3e55b4cb	0.20869748
80	0x3e0799f5	0.13242324
81	0x3f182b11	0.59440714
82	0x3dfeaedb	0.12435695
83	0xbd460ca8	-0.048351914
84	0x3e7f6a6a	0.24942937
85	0xbe262b42	-0.16227439
86	0xbc909095	-0.017647067
87	0x3e67c8c8	0.22635186
88	0xbe4cb895	-0.19992287
89	0x3e85e829	0.26153687
90	0x3e71c63d	0.23610778
91	0x3daf53cd	0.085609056
92	0x3e008d37	0.12553869
93	0x3e0a0a83	0.13480572
94	0x3f17ff37	0.593738
95	0x3e6825f9	0.22670735
96	0xbb98b20c	-0.0046598967
97	0x3eb3c964	0.35114586
98	0x3f211dda	0.62936175
99	0xbd50d9c1	-0.050988916
100	0xbe0ada41	-0.1355982
101	0x3f1a4928	0.6026788
102	0x3de22a54	0.1104323
103	0x3d8cba7d	0.06871507
104	0x3e6e7dd7	0.23290192
105	0xbdb03445	-0.086037196
106	0x3e530929	0.20608963
107	0x3c1e5b07	0.009665257
108	0x3d821de8	0.063533604
109	0xbdde8033	-0.10864296
110	0x3e51f4af	0.20503496
111	0x3cfba619	0.03071885
112	0x3d7ca84c	0.061683938
113	0x3d964c5f	0.073387854
114	0x3f68f3d1	0.90997034
115	0x3dcc6736	0.099806234
116	0x3df3ba6a	0.1190079
117	0x3f0f3e68	0.559546
118	0x3f7a6064	0.9780333
119	0x3d3681db	0.044557434
120	0x3e1e6ce4	0.15471226
121	0x3f0d8d7c	0.55294013
122	0x3e2b0051	0.1669934
123	0xbf21ca0a	-0.6319891
124	0x3e1ba56f	0.15199827
125	0xbe272b1d	-0.1632504
126	0x3ee9937f	0.45620343
127	0xbe3245d7	-0.17409454
128	0xbdaf4025	-0.085571565
129	0xbeb5d437	-0.3551347
130	0xbda51d45	-0.08062223
131	0xbe2ab6b5	-0.1667126
132	0x3dbeb8a7	0.093125634
133	0xbe1df3f6	-0.15425095
134	0xbf841081	-1.0317537
135	0xbdb5ed29	-0.08883125
136	0xbe48230c	-0.1954462
137	0xc00bc3d9	-2.1838286
138	0x3f1010c2	0.5627557
139	0x3e519e94	0.20470649
140	0xbcb7136d	-0.02234813
141	0x3f1eff37	0.62108177
142	0x3e7f2400	0.24916077
143	0x3e23bdf4	0.1599043
144	0xbcaa75bf	-0.020808099
145	0x3e2738a6	0.16330203
146	0x3d9085da	0.0705678
147	0x3d6ac01a	0.05731211
148	0x3de42faf	0.111419074
149	0x3e951c7e	0.291233
150	0x3e1b21d4	0.15149623
151	0x3e144c87	0.14482318
152	0xbd8241d0	-0.06360209
153	0xbb5a6311	-0.0033323208
154	0x3f79b760	0.97545433
155	0x3d0450d1	0.032303635
156	0xbd9b96f7	-0.07597154
157	0x3f106791	0.5640803
158	0x3f3c9ebd	0.73679715
159	0x3e4942c7	0.1965438
160	0x3e2ec005	0.17065437
161	0x3ecc16dc	0.3986119
162	0x3ce3bbbf	0.027799485
163	0xbc0a2ca6	-0.008433497
164	0x3dbd9783	0.09257414
165	0xbd456008	-0.048187286
166	0xbe994ec0	-0.29942894
167	0x3d8b6527	0.06806403
168	0xbd071ced	-0.03298657
169	0x3e7bef25	0.24602945
170	0xbdf26e87	-0.11837488
171	0x3e80c542	0.25150496
172	0xbdcd18b4	-0.10014477
173	0xbe141ddf	-0.1446452
174	0xbf6097ca	-0.8773161
175	0xbeeeb4d2	-0.4662233
176	0x3df453fa	0.1193008
177	0x3e55e92e	0.20889732
178	0xbe6724e9	-0.22572674
179	0x3e257893	0.16159277
180	0xbdc8d80c	-0.09806833
181	0x3f5448c6	0.82923543
182	0x3e67abea	0.22624174
183	0xbdb2e604	-0.08735278
184	0x3e811816	0.2521369
185	0xbdaf0b8d	-0.08547125
186	0x3e8602e2	0.26174074
187	0xbd2905de	-0.04126536
188	0xbdb92ef9	-0.090421624
189	0x3e910aeb	0.28328642
190	0x3df26f29	0.11837608
191	0xbd8dc2ea	-0.069219425
192	0xbe437bb0	-0.19090152
193	0xbe5f0b6a	-0.21781698
194	0x3f6679f8	0.9002986
195	0x3ea11777	0.31463215
196	0xbd643e29	-0.055723343
197	0x3f11eeb2	0.57004845
198	0x3f6f7e3c	0.93551993
199	0xbdbd2305	-0.09235195
200	0xbdd4ce75	-0.10390941
201	0xbdcc7dec	-0.09984955
202	0xb9b21acb	-0.00033970768
203	0xbe17d1f4	-0.14826185
204	0xbe55e3b3	-0.20887642
205	0x3c96de5f	0.018416582
206	0x3dd4e4d5	0.10395209
207	0x3dd328b5	0.103104986
208	0xbcdc134c	-0.02686467
209	0x3c0fc2a0	0.00877443
210	0xbde009a8	-0.10939342
211	0x3e1e71b7	0.15473066
212	0xbe045a33	-0.12925033
213	0x3ddd3314	0.10800758
214	0xbd1168cd	-0.035500336
215	0x3da4db1a	0.08049603
216	0x3e2c63f4	0.16835004
217	0xbe1bee8c	-0.15227717
218	0x3da9dbd3	0.08293881
219	0xbd3794ac	-0.04481952
220	0xbe190e4e	-0.14946863
221	0x3e5496d4	0.20760661
222	0x3e6601e3	0.22461657
223	0xbfd0a018	-1.6298857
224	0xbdff2c43	-0.12459614
225	0x3e48621d	0.19568677
226	0x3f0d71c1	0.552517
227	0xbdd30469	-0.103035755
228	0x3da7afa4	0.08187798
229	0x3d33643b	0.04379676
230	0xbe79a5c6	-0.24379644
231	0xbe57ac2f	-0.21061777
232	0xbb8dc59f	-0.004326537
233	0x3e1f6f75	0.15569861
234	0xc0231518	-2.5481625
235	0x3d031351	0.032000843
236	0x3e4d32d0	0.20038915
237	0xbf6e4d0b	-0.9308631
238	0x3f6d6049	0.92725044
239	0x3dc327c4	0.09529069
240	0x3e3dc750	0.18533063
241	0x3f868ec6	1.0512321
242	0xbe1a6144	-0.15076166
243	0x3d9d6aec	0.07686409
244	0x3d04787b	0.03234146
245	0xbe14a44b	-0.14515798
246	0x3e36e182	0.17859462
247	0x3e6d9baf	0.2320392
248	0xbd23910e	-0.039933257
249	0x3e9db7be	0.30804247
250	0x3e51e17e	0.20496175
251	0x3dec42d1	0.11536182
252	0x3e46521a	0.19367257
253	0xbd838dc5	-0.06423525
254	0x3f7772fc	0.9665983
255	0x3ea2a650	0.3176751

l3.bias f4 [20]
0	0xbdd81825	-0.1055148
1	0xbefd7f4a	-0.49511176
2	0x3fb43bb3	1.4080719
3	0xbe992e30	-0.2991805
4	0xbf139a25	-0.5765708
5	0xbeb739fb	-0.35786423
6	0xbf5ad9ca	-0.8548857
7	0xbeab77bc	-0.33489788
8	0x3ec847b7	0.39117214
9	0xbeaf6fae	-0.34264892
10	0x3e0c3d43	0.13695244
11	0xbf8a9881	-1.082779
12	0xbf1ba8a3	-0.60804194
13	0xbe949b8b	-0.2902492
14	0x3dd6f0bc	0.10495135
15	0xbf3081d0	-0.6894808
16	0xbe71b865	-0.23605497
17	0xbdf1c2c5	-0.118047275
18	0xbf45e7bf	-0.7730674
19	0xbf4bce9b	-0.7961213

out.weight f4 [1, 20]
0	0xbe4690ab	-0.19391124
1	0x3e8d65f4	0.27616847
2	0xc00382b7	-2.0548532
3	0x3ec3780f	0.38177535
4	0x3e661f3f	0.22472857
5	0x3e842588	0.25809884
6	0xbf76db9d	-0.96428853
7	0x3e6310db	0.22174399
8	0xbf4634ec	-0.774245
9	0x3e615140	0.2200365
10	0xbd1a20f3	-0.03762908
11	0xbffefc64	-1.9920774
12	0x3ea4493c	0.32087123
13	0xbf0c72c5	-0.54862624
14	0xbdbe95d5	-0.09305922
15	0x3eafa0de	0.3430242
16	0x3e6bc281	0.23023416
17	0xbdd4bba9	-0.10387356
18	0x3ec06db7	0.37583706
19	0x3ea29ab4	0.31758654
