model_14_epochs_100000.pt (torch, 6657 bytes, 7 tensors)

l1.weight f4 [20, 5]
00000000: f948 c3be dea0 8cbe 8cfd 2abe 5818 3ebe
00000010: 719b 92be 1003 76be a29d 81be df52 2fbe
00000020: cfb8 dd3e da9c 85bd b431 c7bd 49b6 ad3e
00000030: 41c9 b6bd a8a8 08c1 d22b 94bd 518b bbbd
00000040: bf6e 063d c25d 81be f597 a7c1 f0c6 f3be
00000050: d9c4 333e 96f0 833d f2ac f3be 0f13 34c0
00000060: ffdd 9e3f f913 0d3e 4c26 dc3d e1e6 06bf
00000070: b557 d940 1260 02c0 e92d a43e ada9 503d
00000080: be68 f83e abff 5ac0 f277 0c40 d609 9139
00000090: 9903 ddbb 8328 79bf 3d70 0fc1 86e1 0340
000000a0: 0988 3abd 9ecc 403d 66ce 1cbd b1b2 8fc1
000000b0: 07cb 8c3e 9ed9 2dbd 4b4f 273e 67e9 90be
000000c0: bb8b 9440 8626 d8bf 9573 8dbd 3355 a3be
000000d0: 3366 b93e 5589 a9be be80 a83d 8d3c 93bd
000000e0: a3ad d73c 332f 98be f292 1ac0 d896 c8bf
000000f0: ca4e 253e dd37 a93d 1f2d 153f 10df a6c1
00000100: 40c3 d5bf 0bbc 6b3e 6fd3 a33d 7cd5 563f
00000110: 20a8 5240 2159 ecbf 6f72 a33d 2b39 933e
00000120: 8704 33bf 8645 bd3f 9617 0d40 eeb9 dd3d
00000130: 81df a23e 3d49 b23e 71b3 26c1 03b3 8d3f
00000140: 6c0e 7dbd fba0 4f3e e75f cebd 045a 8b40
00000150: ddaf 3740 1cef aabe a082 9fbb 50d3 3abe
00000160: e410 acbd 5b87 14be cf46 ccbe 5a2e 7abe
00000170: de89 203e 1676 15bd 34d1 41be 111c 8cbd
00000180: 917d 84be 03df cd3e cf7b dd3d 2720 973e
-0.3814161 -0.27466482 -0.16698283 -0.18563974 -0.28634217 -0.24024606 -0.25315577 -0.17121457
0.4330506 -0.06524058 -0.09726277 0.33928135 -0.08925105 -8.541176 -0.072349206 -0.09157432
0.03282046 -0.25266844 -20.949198 -0.47612715 0.1755556 0.064423725 -0.47592884 -2.8136632
1.2411498 0.1377715 0.10749492 -0.52696043 6.7919564 -2.0371137 0.32066277 0.050943065
0.48517412 -3.4218547 2.194821 0.00027663884 -0.0067448136 -0.9732744 -8.964902 2.0606399
-0.04553989 0.04707014 -0.038282774 -17.962252 0.27498648 -0.042443864 0.16338842 -0.28303072
4.642057 -1.6886756 -0.06906811 -0.3190094 0.36210784 -0.3311259 0.082276806 -0.071892835
0.026327914 -0.2972351 -2.4152188 -1.5671034 0.16143337 0.08262608 0.58271974 -20.858917
-1.670021 0.23020951 0.07999312 0.839195 3.2915115 -1.84647 0.07980811 0.28754553
-0.69928783 1.4786842 2.2045646 0.10826479 0.31811145 0.348215 -10.418809 1.1070255
-0.061781332 0.20276253 -0.10076886 4.354738 2.8701088 -0.3338555 -0.0048678666 -0.18244672
-0.08401659 -0.14504759 -0.39897773 -0.24431744 0.15677592 -0.03648957 -0.18927461 -0.06841291
-0.2587705 0.40209207 0.1081463 0.29516718

l1.bias f4 [20]
00000000: 8a64 7cbe 8b1b ab3e fcf2 b8bf 4281 b240
00000010: b534 95be d295 913f 7bc3 fbbd ee03 b13f
00000020: 4221 0a3e bd19 543f b203 493e b816 3340
00000030: 3c6a 43c0 c816 a23f 1347 c0bd f346 55bf
00000040: c285 8c3f 08f4 903e e187 8fbe a50c 5c3e
-0.24647728 0.3341945 -1.4449153 5.5782785 -0.29141775 1.1373847 -0.12293144 1.3829324
0.1348925 0.82851774 0.19630316 2.7982616 -3.053359 1.2663202 -0.09388556 -0.83311385
1.097832 0.2831118 -0.28033355 0.21489199

l2.weight f4 [20, 20]
00000000: 5079 863d 13c2 083e 3965 833c 749b 46be
00000010: 9ca2 f93d 59cd d5be 33b1 013e 0053 4ebf
00000020: f5cb ad3e 6b3d f7be 5b90 3abe 59d9 a73f
00000030: c478 26be ae73 eabd 00c2 513e d5e3 ed3d
00000040: 1bf3 793e 3bc3 333d d110 0bbe c88d 253e
00000050: df4a 2fbe 6f8c 2dbd 8a3e b7bd 0717 873d
00000060: 23ca 87bc ec1b c6bc 1dab 17bd 4a1a b93d
00000070: c8df 4bbe 0407 743d b070 22bd 4208 453e
00000080: 18de 2d3e 7be3 1ebe ebe8 babd 3954 c2bd
00000090: 04f3 01be c4b0 933d 69c5 123e e5c4 693d
000000a0: 9f2a 07be 12aa 603e 7981 e3bd 0018 19bf
000000b0: 3ac4 d93e 3f9d 393e fed7 bb3d 3d5d 0abf
000000c0: 6a3f ba40 ca75 b4be 76fb 7d3d b2ad 11bf
000000d0: 7be4 6e3e 77e1 cd3d e9ab 9c3e f910 673d
000000e0: 8335 303e 11cd 42be f9f8 563e c07f 5d3d
000000f0: f1ff 07be 2014 98bd 0c48 6c3e 477f bc3f
00000100: 3834 8c3e 243f 22bf cb77 4c3e 964c 47bf
00000110: 7e78 33be cca5 fabd c444 5ebe 1b8f c640
00000120: eb13 7ebe 3673 33be 606c 123e d084 b73d
00000130: fff6 e93c 167f f9bd 849a 48bd c822 ad3d
00000140: 7c4c 9e3d c231 2f3e aac5 b63c 09f2 1ebd
00000150: 57f6 483e 718e 423e f9e9 fabd d5c4 f6bc
00000160: 7eeb 30be 5a1a 86bb 1088 59be 5f5c 02be
00000170: ed4d ddbd a143 163e 9730 afbd cd3f 4fbe
00000180: 5051 aabc 6c5a 123e 797d 16be 1d28 0cbe
00000190: 5c8b 353e 3030 56bd 7602 583e 4baa 903e
000001a0: 7c05 003e bebc c8be de36 3e3e b3bd 2bbe
000001b0: ace2 81bd ad3b bebe ed30 dcbd a5bd 95bf
000001c0: 0c96 9b3e ca41 d8be 265a e1bd 50e0 933e
000001d0: 9196 babd 6890 cebd a744 10be af83 b33d
000001e0: 0d10 8dbc 156b aa3d 7cd5 5f3e 6204 053f
000001f0: 0612 ff3c bb66 ecbe 2bfa 743e 6bc2 e63e
00000200: 33a7 2640 884f e7be 6c8d 513d 665f f23e
00000210: 3a26 313f 9ec7 373e 3acf a4be c81d ae3d
00000220: 1a1c 0fbf 8285 83bd 6b48 a6bc 4f9b 143e
00000230: 8f46 bebc d9d4 b93d 3151 bbbd 30d3 413e
00000240: 63c5 42be 8380 1cbe e2dc 5fbd dde4 28be
00000250: 240d 40be 9d14 093e 8d76 ae3d 72bc 5ebe
00000260: e3b8 95bd 615a e53d e6d3 603e 56c7 0bbe
00000270: b59c 1abe c45f ff3d 2c58 fc3c f0c1 593e
00000280: a4ea a53d 1d20 46be 2afd 223e 2d19 653f
00000290: efdc 813f da33 41bd 6b0a f9bd b7ca c43e
000002a0: f55a 9140 f67a 15bf fe33 14be 68bb 02c0
000002b0: 62f2 c53f 2c4b 6cbf 884c 363e 28dd 85be
000002c0: edb1 20bf aa8a a1bd 9f84 15bd a256 103e
000002d0: 8537 22be 2fbb 403e 99fd 6abe 1abf 513f
000002e0: 8d24 a5be 2010 703f d313 85be 76e6 b23f
000002f0: 0f02 b13f 55b5 7e3f b715 f23d 7741 4b3f
00000300: cde5 aebe 0910 b43e b04a 66be fdc0 013c
00000310: 73ee 1fbf db0e 4dbe e311 55be d3da d5bc
00000320: 5b1f 13be bb91 953d 2329 e13c 8596 e03d
00000330: 7e09 223d fbaa 60be 0aa8 283d 8bc2 273e
00000340: 4b26 d63d d889 ee3c 5c30 61be aa78 b8bd
00000350: 1e51 1abd bf8e 47bd 0101 39be 5f58 49be
00000360: f8b1 233e 69ff 12be 9a94 523e 19ca 82bc
00000370: a77c b33d d7ef 5dbe 414a 033d e272 32be
00000380: 2695 a1bd 8b27 193e 8fc8 98bd 637b 00bd
00000390: 6898 d03d 0309 493e c55e feba 3149 c7bd
000003a0: 9899 aabd ec6e 2cbe 1e9e 34be d224 db3d
000003b0: 9502 90bd 2823 033e c45d c23d 1080 05ba
000003c0: d0f3 353d c3f0 85bc fd98 223e 39fd aa3f
000003d0: 58f9 1cbe 3ef2 053f 6405 c9be 5be5 df3f
000003e0: 4865 c2be e497 ea3e 4abc 60be fc6b 853f
000003f0: 03c5 1f3e bccf ba3e 33a3 d1bd bc84 6cbd
0.06566107 0.13355283 0.016039478 -0.19395238 0.121892184 -0.4175823 0.12665252 -0.805954
0.3394467 -0.48289046 -0.1821913 1.3113204 -0.16257006 -0.114478454 0.20484161 0.11615721
0.24409144 0.04388736 -0.13580634 0.16167367 -0.17118405 -0.042370256 -0.08947475 0.06596189
-0.016575878 -0.024183236 -0.03702842 0.09038217 -0.19909585 0.059577003 -0.03965825 0.19241431
0.16979253 -0.15516464 -0.09126457 -0.094887204 -0.1269036 0.0721145 0.14333118 0.05707254
-0.13199852 0.21939877 -0.11108679 -0.59802246 0.4253252 0.18126391 0.091720566 -0.5404852
5.820241 -0.35246116 0.06200739 -0.56905663 0.23329346 0.1005277 0.30599907 0.05641267
0.17207913 -0.19023539 0.20993413 0.05407691 -0.13281228 -0.074257135 0.23074359 1.4726342
0.2738359 -0.63377595 0.19967572 -0.77851236 -0.17526433 -0.122386545 -0.2170592 6.204969
-0.24812286 -0.17524418 0.14299154 0.08960879 0.02856016 -0.12182443 -0.048975483 0.084538996
0.07729432 0.17108825 0.02231105 -0.03880504 0.19625221 0.1899965 -0.12251658 -0.030123154
-0.17277333 -0.004092497 -0.2124331 -0.1273055 -0.10805879 0.14674236 -0.0855419 -0.20239182
-0.020790726 0.14292306 -0.14696302 -0.13687177 0.17728943 -0.05229205 0.21094689 0.28254923
0.12502092 -0.392065 0.18575618 -0.16771583 -0.06342062 -0.37154904 -0.10751519 -1.16985
0.30387914 -0.42237693 -0.110035226 0.28882074 -0.091107495 -0.10086137 -0.14088689 0.08765351
-0.017219568 0.083212055 0.21858782 0.5195981 0.031136524 -0.46172127 0.23923557 0.45070204
2.603955 -0.45177865 0.05116026 0.47338408 0.69198954 0.17947242 -0.3218935 0.08501774
-0.55902255 -0.06421949 -0.020298203 0.1451237 -0.023227004 0.090738006 -0.091463454 0.18928218
-0.1902061 -0.15283398 -0.05465401 -0.16493554 -0.18755013 0.1338677 0.085187055 -0.21751574
-0.07310655 0.11198879 0.21955833 -0.1365026 -0.15098841 0.12469438 0.030803762 0.21265388
0.08101395 -0.19348188 0.15916887 0.8949154 1.0145549 -0.04716859 -0.1216019 0.3843591
4.542353 -0.5839075 -0.14472958 -2.0426884 1.5464594 -0.92302203 0.17802632 -0.2614529
-0.62771493 -0.07887776 -0.03650343 0.14095548 -0.15841492 0.18821405 -0.22948302 0.8193222
-0.3225445 0.93774605 -0.25991687 1.3976581 1.3828753 0.9949544 0.11820548 0.79396766
-0.341597 0.35168484 -0.22489429 0.007919547 -0.6247322 -0.20025198 -0.20807604 -0.02610532
-0.1436743 0.073031865 0.027485436 0.10966209 0.039559834 -0.21940224 0.04117588 0.16382806
0.104565226 0.029118463 -0.21991104 -0.0900739 -0.037675016 -0.048720118 -0.18066789 -0.19662617
0.15985858 -0.14355244 0.205645 -0.015965508 0.0876401 -0.21673523 0.032053236 -0.17426637
-0.07889776 0.1495649 -0.074601285 -0.03136767 0.10185319 0.19632344 -0.0019406906 -0.09730757
-0.08330077 -0.16839188 -0.17638442 0.10700382 -0.070317425 0.1280638 0.094905406 -0.000509263
0.04442197 -0.016350156 0.15878673 1.3358527 -0.15329492 0.5232276 -0.39261925 1.7491869
-0.37967896 0.45819008 -0.21946827 1.0423579 0.15602498 0.36486614 -0.10236206 -0.057743773

l2.bias f4 [20]
00000000: f834 f23d 8e6f cf3d a4b2 9d3e 5551 9d3f
00000010: 962f 2fbc e476 d9bf 3c22 93bf da7d 233d
00000020: 6f25 f7bf 875d 973f db7e 03be 4d02 3d3d
00000030: 5917 a6bf abe1 92bf 5ce4 8dbf cbf7 7bc0
00000040: f4ca 35bf 66d0 1cbf 8a2b 423f ca51 37bf
0.11826509 0.10128699 0.30800354 1.2290446 -0.010692498 -1.6989408 -1.1494823 0.039914943
-1.9308299 1.1825417 -0.1284136 0.046144772 -1.2975875 -1.1475118 -1.1085315 -3.936999
-0.71012807 -0.6125549 0.75847685 -0.71609175

l3.weight f4 [20, 20]
00000000: bfe5 60bd b06f cc3d 235a 863c e2ad c6bd
00000010: e917 bf3c ba18 3a3e 9b02 1c3d 38a9 0bbd
00000020: a008 debd 6412 c53b 1755 40be 5df9 913d
00000030: eff2 0c3e 4512 e7bd b3ec 23be 6254 e4bb
00000040: e7cd a93d e53a 21be 506e 4cbe 1d92 ec3b
00000050: 783e 243f 409a d1bd 8c43 1b3e d413 2e3d
00000060: 7689 73bd 046f 063f 8119 5e3f bff4 15be
00000070: b78f 023f 3129 ac3f 23a5 383b abb8 49be
00000080: 2d2a 17bf 5364 e73e c49f 283e 55ba 8a3d
00000090: ba07 3c3f 5192 d4bc 36ed 6ebe 417c e23d
000000a0: c3b9 52be 4451 20bd 0fd2 b93d 69fb 4ebe
000000b0: 3aec 4ebd 41e7 17be 771e 56be 040b ba3d
000000c0: c2c6 143e 2333 fabd 7435 1e3d 503e 4c3c
000000d0: 9d56 3cbe 6572 09bc f621 953d 42ae 103e
000000e0: fa16 d0bd 58a0 48be 3bd0 17be b6c5 bebd
000000f0: 6ff1 26bf 6930 a03d 9c4f d43e 796c aebe
00000100: 4a97 9cbd 2116 29c0 febc cbbd 0aec 3fbe
00000110: c63e 0e3f 6c57 c83e 913d efbd bc68 16be
00000120: ec86 be3f 5775 eabd 35e8 bcbe c5da 273f
00000130: a73d 7dbf 3da9 26be 001a f33e 5a13 9dbe
00000140: cb76 d23c 35f0 dd3d 852c ba3d 4ecd d73b
00000150: ccd8 eb3d eb42 6fbd 038c 5a3d b932 8dbd
00000160: ca12 33be 72a9 1a3c 2b39 0ebd 3a5b a6bd
00000170: 76da 163d 4bb3 98be d89a 4cbd 080d 943d
00000180: 088e 853c f848 febc 4914 4abe 28f1 bebd
00000190: dade c5bd 1ce0 343e e229 12be 70a8 0f3e
000001a0: 6091 17be 6744 0fbd 3600 9abd 1b59 1fbe
000001b0: 2286 e5bd da2a 1bbe 148c 13bd 578f 093e
000001c0: 6497 053b 7331 b4bd f743 613b e825 82be
000001d0: 693d 4a3d 5337 cdbc 02e9 8cbe a3c9 2abd
000001e0: 4c20 30be 1b67 d43d 5a5c 31be ee62 90bd
000001f0: 0c2f a3bd 7622 08ba c976 863d 275b b93c
00000200: bbfd 953d d637 9cbd 4165 febb 9e69 f7bd
00000210: e355 153d 303d 9bbd c457 cfbd b44b 4e3d
00000220: 1b42 293e fad2 2bbe 26ee 95bd 9a7b 8b3d
00000230: cd3d 293c 2811 0fbe 9ac2 f7bd 1053 1bbe
00000240: 05b4 2d3e 51c3 4dbe 0621 d2bd c811 593d
00000250: d9bd 11bc 25ec 463d f5ce 4f3e f1fe 0b3e
00000260: 721a 64bd 252f 21bd aaef f9bd fd63 213e
00000270: d6d3 9e3d 41f1 ddbb 5e6e ad3d b5d6 0b3d
00000280: e8c4 233f 91ad 023e ed69 983e 0a47 32be
00000290: ca8d e2bd edea 053f 50fb ef3e b572 26bd
000002a0: aebf c83e 11b5 7d3f d687 443e 5884 2dbe
000002b0: e6fe 00bf 2e9b 903e 4565 223e 7248 5c3e
000002c0: 45bc c93e 545a 5f3e 8ad2 21bd 863a df3d
000002d0: a36e 2f3d 965b 04be 436d 183e ec02 64be
000002e0: 505b 9ebd 4408 24be 1ed3 54be bfa0 28be
000002f0: ab10 b83c f6d2 c03d 202d 89bd 7388 ac3d
00000300: f5d5 023e 2193 c8bc 314d 53be a337 1b3e
00000310: e9a8 2f3e 6b88 5d3d 63b4 18be 3192 4ebd
00000320: f63a 24be 2464 06be c128 5bbe 0e50 57be
00000330: 9e18 a5bd b24f a53d 6f3a cf3c 18ce cd3d
00000340: 555e 46bc 7373 20bd ac52 5abe 63b8 393e
00000350: a319 ef3d bef3 103e 6315 fe3d 023f 013e
00000360: a9be 78bd d060 39be 5832 c93d 95e6 df3c
00000370: 909f ec3e c3ec 2a3e 4f1a 823e ef5b 303e
00000380: 184d 46be 2343 453f 44f7 013f 72c7 393e
00000390: 480f 043f fb31 a43f da30 c3bc 9d4d b4bd
000003a0: 1740 40bf 25d3 7b3e 98ca 92bd 5c6f 413f
000003b0: 1d33 403f f0bb cebd 9dca b9bb f26e c33d
000003c0: 7eef 45bf 29dc 84bc 987c c43e 478e 4abf
000003d0: 1888 47be 0957 0fc0 30ed 163f 981e bf3d
000003e0: c102 ba3e 6ae6 dcbf db95 9fba 1199 b33d
000003f0: 8452 893f ce2a 8ebe 390d 583d d846 0e41
-0.054906603 0.0998224 0.016400402 -0.09701134 0.023326831 0.18173495 0.038088422 -0.034096926
-0.10841489 0.006014155 -0.18782459 0.071276404 0.13764547 -0.112827815 -0.16008262 -0.006968067
0.08291226 -0.15745123 -0.19963956 0.0072195665 0.6415782 -0.10234499 0.15162486 0.04249938
-0.059457265 0.52513146 0.86757666 -0.14644144 0.5100054 1.3450071 0.00281746 -0.19699351
-0.5904873 0.4519373 0.16467196 0.06773821 0.7344929 -0.025948675 -0.23332676 0.11058856
-0.20578675 -0.03914 0.090732686 -0.20213093 -0.050518252 -0.1483431 -0.20910059 0.09084132
0.14528945 -0.12216785 0.038625196 0.012466028 -0.18392415 -0.00838909 0.07281868 0.14128974
-0.101606324 -0.19592416 -0.14825527 -0.09315054 -0.6521215 0.078217335 0.41466987 -0.34067133
-0.076460436 -2.6419756 -0.09948157 -0.18742386 0.55564535 0.39129198 -0.11681665 -0.1468839
1.4884925 -0.11448162 -0.3689591 0.6556819 -0.989222 -0.16275497 0.47480774 -0.30678827
0.02569141 0.108368315 0.09090523 0.0065857535 0.1151596 -0.058413427 0.05335618 -0.0689444
-0.17487636 0.009439813 -0.03472249 -0.08122869 0.036829434 -0.2982429 -0.049952358 0.07229048
0.016303077 -0.031040654 -0.197343 -0.09323341 -0.09661646 0.17663616 -0.1427379 0.14029098
-0.1480155 -0.034977343 -0.075195715 -0.15561335 -0.112072244 -0.15153065 -0.03602226 0.13433586
0.0020384425 -0.08798494 0.0034372786 -0.25419545 0.04937497 -0.025050795 -0.2752152 -0.041696202
-0.1719982 0.10371228 -0.17320386 -0.07050119 -0.07967958 -0.00051931234 0.06565625 0.022626473
0.07323786 -0.07627837 -0.0077635352 -0.12080692 0.03645886 -0.0758003 -0.10124162 0.050365165
0.16529123 -0.167797 -0.07320814 0.068106845 0.010329676 -0.13971388 -0.12097664 -0.15168405
0.16963203 -0.20094039 -0.10260205 0.052995473 -0.008895361 0.04856505 0.20293792 0.13671471
-0.055689283 -0.0393516 -0.122039154 0.15760799 0.07755248 -0.0067731445 0.084683165 0.034140307
0.6397233 0.12761523 0.29768315 -0.17409912 -0.110622 0.52311593 0.46871424 -0.040636737
0.3920874 0.9910441 0.19192442 -0.16945016 -0.50388944 0.28243393 0.15858944 0.2151201
0.3940145 0.21811801 -0.039507426 0.10899834 0.04283012 -0.12925562 0.1488543 -0.2226674
-0.0773226 -0.16018778 -0.2078366 -0.1646757 0.022468885 0.094152376 -0.0669806 0.08424463
0.1277693 -0.024484219 -0.20634915 0.15157942 0.17154278 0.054085176 -0.14912562 -0.050432388
-0.16038117 -0.13124138 -0.21402265 -0.21026632 -0.08061336 0.08071841 0.025296418 0.10049075
-0.012107451 -0.0391726 -0.213206 0.18136744 0.11674812 0.1415548 0.12406423 0.12621692
-0.060728703 -0.18103337 0.098240554 0.02733163 0.46215487 0.1669188 0.25410697 0.1722257
-0.19365346 0.7705557 0.5076792 0.18142489 0.5158582 1.2827753 -0.023827005 -0.08803866
-0.75097793 0.24592264 -0.07167548 0.75560546 0.7507799 -0.1009444 -0.0056699053 0.095426455
-0.7731856 -0.016218262 0.38376307 -0.7912335 -0.1948551 -2.2396872 0.5895567 0.09332007
0.36330226 -1.7257817 -0.0012175398 0.087694295 1.0728307 -0.27767032 0.052746985 8.892296

l3.bias f4 [20]
00000000: 10e9 a5bd 34b6 e6be 5cd5 6cbc ce50 1040
00000010: 4bf0 35be a2b4 e4bd a15c a8bd ff38 a03c
00000020: bf91 2dbf 0779 16bb de09 9a3d 96af 17bf
00000030: 0c46 6c3f f56e 13bf 4f5d 883d d643 03bf
00000040: ebb7 40bf 18d2 7bbf f779 233d 7492 67bf
-0.08101094 -0.45060885 -0.014455166 2.254932 -0.17767446 -0.111672655 -0.082207926 0.019558428
-0.67800516 -0.0022960322 0.07521413 -0.592523 0.92294383 -0.5759118 0.06658422 -0.51275384
-0.75280637 -0.9836745 0.039911237 -0.90457845

out.weight f4 [1, 20]
00000000: 17d1 a3bd ee12 da3e 37d3 693d 0b92 80bf
00000010: b56a 983b 528b 4cbc 2779 a8bd 7d37 a83c
00000020: bcc7 943e 1315 50be 9371 cd3d 3cab e13e
00000030: 3611 98bf e78c 1bc0 c38d afbd 3311 c83e
00000040: 4fe2 143f fd2f 173f 91ee 17bd 6de8 e93e
-0.07998865 0.42592567 0.057086196 -1.0044569 0.0046513923 -0.012484388 -0.08226233 0.020534271
0.29058635 -0.20320539 0.10031428 0.44075954 -1.1880252 -2.430475 -0.08571961 0.39075622
0.5815782 0.590576 -0.03709275 0.4568514
