simple-model.pt (torch, 6721 bytes, 7 tensors)

l1.weight f4 [20, 5]
0	0xbda2b11d	-0.07943938
1	0xbe112ceb	-0.14177291
2	0xbe8bcc5c	-0.2730435
3	0xbdc48409	-0.09595496
4	0x3e8ff5f7	0.28117344
5	0xbe2c414c	-0.16821784
6	0x3e28d822	0.16488698
7	0xbece06bc	-0.40239513
8	0xc0510e53	-3.2664993
9	0x3f814d50	1.0101719
10	0xbe6864e4	-0.22694737
11	0x3e6ba98a	0.23013893
12	0xbefcbb1b	-0.493615
13	0xc032045f	-2.7815168
14	0x3ee9fd55	0.4570109
15	0xbe09e955	-0.13467915
16	0xbedf1894	-0.4357344
17	0x3d29598e	0.04134517
18	0x3daf4688	0.08558375
19	0xbe82ac26	-0.25521964
20	0xbc87d311	-0.016580136
21	0x3d787b8d	0.060664702
22	0x3efde061	0.4958525
23	0xc0967a92	-4.702462
24	0x4045f9c1	3.0933688
25	0x3ce4cf0a	0.027930755
26	0x3aeb8bda	0.0017970756
27	0xc0246cc3	-2.5691383
28	0x3fb5666e	1.4171884
29	0xbfac8dd1	-1.3480779
30	0xbcc363d5	-0.023851315
31	0xbe884189	-0.266125
32	0x3de16cc0	0.110070705
33	0x3eb3dd34	0.35129702
34	0xbe903a9c	-0.28169715
35	0xbce0ddc9	-0.027449505
36	0x3d8cbbcc	0.06871757
37	0x3f04d96d	0.51894265
38	0xc085f3cd	-4.186011
39	0x40365bcd	2.849353
40	0xbd504ccc	-0.05085449
41	0xbd28a208	-0.04117015
42	0x3e9737af	0.2953467
43	0xbc9a44fc	-0.018831722
44	0xbd135296	-0.035967432
45	0x3c76d559	0.0150655145
46	0xbb4fccdf	-0.0031707806
47	0x3d97f6ae	0.07420097
48	0x4033d4fa	2.809874
49	0xc07cf7c9	-3.9526236
50	0x3c5047e6	0.012712454
51	0xbad50200	-0.0016251206
52	0x3e713c3c	0.23558134
53	0xc0b5214d	-5.660315
54	0x3fd2bf18	1.6464567
55	0xbe6ba295	-0.23011239
56	0x3e6e8e83	0.23296551
57	0xbf65010a	-0.8945471
58	0xc02fe07a	-2.748076
59	0x3ec569b9	0.38557222
60	0xbd8f6988	-0.0700255
61	0x3e129b03	0.14316945
62	0x3f0c71cd	0.54861146
63	0xc091579d	-4.541945
64	0x4050779c	3.2573004
65	0xbc1b8787	-0.009492761
66	0x3d428d01	0.047497753
67	0x3f19621d	0.59915334
68	0xc0b55419	-5.666516
69	0x40720c41	3.781998
70	0xbe1e89e8	-0.15482295
71	0x3db5e187	0.088809066
72	0xbf635bf8	-0.8881221
73	0xbfb87538	-1.4410772
74	0x3dd387ba	0.10328622
75	0xbda7d357	-0.08194607
76	0x3e2e5b43	0.17027001
77	0x3f065fab	0.5248973
78	0xc09118ea	-4.5342913
79	0x404462b6	3.0685248
80	0xbe9dff72	-0.30858952
81	0x3e89c093	0.26904735
82	0xbfccf366	-1.6011779
83	0xc0224a27	-2.535776
84	0xbe8ab0d8	-0.27088046
85	0xbecaa713	-0.39580593
86	0xbd88abba	-0.06673379
87	0x3e22eef8	0.15911472
88	0x3db79574	0.08964053
89	0x3c5fc4b5	0.013657738
90	0xbc5b3e6a	-0.01338158
91	0x3d194d22	0.037427075
92	0x3ec227e3	0.37921056
93	0xc08dc20c	-4.4299374
94	0x401f466f	2.488674
95	0x3d9bbe4e	0.07604657
96	0xbec2ca32	-0.38044888
97	0x3ed42d3d	0.41440764
98	0xbe85b6a4	-0.26115906
99	0x3e977d13	0.29587612

l1.bias f4 [20]
0	0xbe91d2ce	-0.28481144
1	0xbf713708	-0.94224596
2	0xbf72bd97	-0.9482054
3	0xbe4823ef	-0.19544958
4	0xc001b44e	-2.02663
5	0x3f402311	0.7505351
6	0xbe80be46	-0.25145167
7	0xbfe0795b	-1.7537035
8	0xbe204bcd	-0.15653916
9	0x3f043570	0.5164404
10	0xc0247d54	-2.5701494
11	0xbf4fcaab	-0.8116862
12	0xc0081a47	-2.1266038
13	0xc0132e9d	-2.29972
14	0x3d73e7da	0.059547283
15	0xbf9f8097	-1.2461118
16	0xbe1e38d4	-0.15451366
17	0xbeb93789	-0.36175182
18	0xbffe53e7	-1.9869355
19	0x3d56eb71	0.05247063

l2.weight f4 [20, 20]
0	0x3de3b753	0.11118951
1	0x3e56394f	0.20920299
2	0x3dce95a6	0.10087137
3	0xbb3851f4	-0.002812502
4	0x3e80acb1	0.25131753
5	0xbebb177d	-0.36541358
6	0xbdd026de	-0.10163663
7	0x3dac009a	0.08398552
8	0x3d752e42	0.059858568
9	0xbf567f98	-0.8378844
10	0x3f15ad6d	0.5846775
11	0x3e2286f0	0.15871787
12	0xbda47838	-0.080307424
13	0x3e42a636	0.19008717
14	0x3e184ede	0.14873835
15	0x3e1e9188	0.15485203
16	0x3dc1b811	0.09458936
17	0xbdc042b1	-0.093877204
18	0x3e56feb9	0.20995606
19	0xbdc67962	-0.09691121
20	0xbe281bc5	-0.16416843
21	0x3de2f2b5	0.11081449
22	0x3e1e1425	0.15437372
23	0x3e313f4a	0.17309299
24	0x3e33bb8c	0.17552012
25	0xbedb5d03	-0.428444
26	0xbd4ccc71	-0.049999658
27	0x3e812649	0.25224522
28	0xbd91fc82	-0.0712824
29	0xbf1d5836	-0.61462724
30	0x3f13112c	0.5744808
31	0x3dd52257	0.104069404
32	0x3d469f94	0.04849203
33	0x3d95093d	0.07277153
34	0x3e2f94c1	0.17146589
35	0xbd68d18b	-0.05684046
36	0x3d8e0af0	0.0693568
37	0xbdc1f1d9	-0.09469957
38	0x3ddc6fb4	0.10763493
39	0x3e05b0ec	0.13055772
40	0xbd8db096	-0.06918447
41	0x3e191560	0.1494956
42	0x3e65fc6c	0.22459573
43	0x3e231255	0.15924962
44	0x3d65305f	0.055954333
45	0xbe9fe21f	-0.31227204
46	0x3da84401	0.08216096
47	0x3e1e6811	0.15469386
48	0xbe0c7669	-0.13717045
49	0xbf28a540	-0.6587715
50	0x3f344609	0.70419365
51	0x3d573d4a	0.052548684
52	0x3c315318	0.010823034
53	0x3e196dac	0.14983243
54	0x3c1a25be	0.0094084125
55	0xbc56d224	-0.013111625
56	0x3e03e709	0.12881102
57	0x3db0a710	0.08625615
58	0x3e4d25b0	0.20033908
59	0xbc50506c	-0.012714487
60	0x3c8ae353	0.0169541
61	0xbc3d5e6a	-0.011558155
62	0x3c4b1e1c	0.012397315
63	0x3c873085	0.016502628
64	0xbd6f2dcb	-0.05839328
65	0xbeacfd7f	-0.33787152
66	0x3d23b04e	0.03996306
67	0xbd59fcc6	-0.05321958
68	0xbe2d0603	-0.16896825
69	0xbf193d11	-0.59858805
70	0xbee65720	-0.44988346
71	0xbdb9b44d	-0.09067593
72	0xbd04dad0	-0.03243524
73	0x3f081031	0.53149706
74	0xbe3130b1	-0.1730373
75	0xbc923793	-0.017848765
76	0x3ca01b14	0.019544162
77	0xbe617f1b	-0.22021143
78	0xbd9b0349	-0.07568986
79	0xb9c56124	-0.00037647143
80	0x3d334dc0	0.04377532
81	0xbe38d462	-0.18049768
82	0xbdd056cf	-0.101728074
83	0xbdbc69dc	-0.091998786
84	0x3d47fb13	0.048823427
85	0xbec8f59a	-0.3924988
86	0x3c82c356	0.015962284
87	0x3d8988b4	0.06715527
88	0x3e1e3e4c	0.15453452
89	0xbf061d1f	-0.52388185
90	0x3eb1b5e9	0.347091
91	0x3e89478c	0.26812398
92	0x3b9de14a	0.0048181163
93	0x3d950c1a	0.07277699
94	0xbaf13ffe	-0.0018405912
95	0xb968581e	-0.0002215807
96	0xbdc12c43	-0.094322704
97	0xbe231c11	-0.15928675
98	0x3e29f7de	0.1659846
99	0x3e342284	0.17591292
100	0xbe12f3b4	-0.14350778
101	0x3cd11a35	0.025525192
102	0x3b73bae0	0.0037190244
103	0x3d375afb	0.0447645
104	0x3ef063cc	0.4695114
105	0xbf0755a9	-0.5286508
106	0x3e40677d	0.18789478
107	0xbd8a5aa3	-0.06755569
108	0xbb1a2693	-0.0023521527
109	0xbf89c6d6	-1.0763805
110	0xbdb4f51a	-0.08835812
111	0xbd6a376d	-0.057181764
112	0xbd337a94	-0.04381807
113	0xbdf19eae	-0.11797844
114	0xbd83271a	-0.064039424
115	0xbc6cdb1d	-0.014456538
116	0xbdf0b0b0	-0.117524505
117	0xbdb74c0e	-0.08950053
118	0x3e1c6f65	0.15276869
119	0xbe2ebee0	-0.17065
120	0x3e014457	0.12623726
121	0x3e10be0d	0.14134999
122	0x3e3bfde1	0.18358566
123	0xbd7c4ec8	-0.06159857
124	0x3dc76798	0.09736556
125	0xbe9e30b3	-0.3089653
126	0xbdc3c35b	-0.095587455
127	0x3e4f731f	0.20258759
128	0xbdf22f1f	-0.11825394
129	0xbf24d15b	-0.6438195
130	0x3ef88982	0.4854241
131	0x3dc79ff4	0.097473055
132	0x3d66f27c	0.056383595
133	0xbaa17d1c	-0.0012320611
134	0x3e4ca436	0.19984517
135	0xbd3fb83b	-0.046806555
136	0x3d3f9443	0.046772253
137	0xbe599a02	-0.21250156
138	0x3e2b483f	0.16726778
139	0x3e0a0e79	0.13482083
140	0xbe0002a7	-0.12501012
141	0x3ead3e3e	0.3383655
142	0x3ec71339	0.38881853
143	0xbe56249c	-0.20912403
144	0x3e9117ee	0.2833857
145	0xbf1bce73	-0.6086189
146	0xbe625329	-0.22102036
147	0x3e9487c2	0.29009825
148	0x3d8c4e0f	0.06850826
149	0xbfba3e38	-1.4550238
150	0x3f325d7b	0.6967389
151	0x3ec5c40a	0.38626128
152	0x3d66d6e7	0.05635729
153	0x3e64b8e5	0.22336157
154	0x3e82923d	0.25502196
155	0x3e03aa40	0.12857914
156	0x3e716b79	0.23576154
157	0x3d8a6292	0.06757082
158	0x3eb862e1	0.3601294
159	0xbd2eec53	-0.042705845
160	0x3e4ffdda	0.2031168
161	0xbd31550e	-0.043294005
162	0xbd582e00	-0.052778244
163	0xbd951ade	-0.07280515
164	0xbd33d84c	-0.04390745
165	0xbe3caa2a	-0.18424287
166	0x3e471797	0.19442593
167	0xbd76208e	-0.06008964
168	0xbe3f3f34	-0.18676454
169	0xbe7038fd	-0.2345924
170	0xbe543efc	-0.20727152
171	0x3e138bfc	0.14408869
172	0xbcca757a	-0.02471422
173	0x3ef1ae1b	0.47203144
174	0xbd9358f7	-0.07194703
175	0xbc1f54af	-0.00972478
176	0xbdfa4849	-0.122208185
177	0x3e5d4925	0.21609934
178	0xbddc2510	-0.107492566
179	0x3e3fc019	0.18725623
180	0xbdd144eb	-0.10218223
181	0x3d9b51df	0.07583975
182	0x3e72c340	0.23707294
183	0x3ddd5b8a	0.10808475
184	0x3e11fe4a	0.1425716
185	0xbe9e2338	-0.30886245
186	0xbd93f2e2	-0.072240606
187	0x3c8baa53	0.01704899
188	0x3e5a4efa	0.2131919
189	0xbf6ce73b	-0.9254033
190	0x3f4ac72a	0.7921015
191	0x3de69f11	0.11260808
192	0x3dbdfe88	0.092770636
193	0x3c587ab2	0.013212847
194	0x3e390d51	0.18071486
195	0x3d6619f3	0.05617709
196	0xbd04d490	-0.032429278
197	0x3d88a517	0.066721134
198	0x3e6ab965	0.22922285
199	0x3d83ca67	0.064350896
200	0xbe598f3c	-0.21246046
201	0x3d694f30	0.056960285
202	0x3d6a3d45	0.057187337
203	0x3dacf9e3	0.084460996
204	0x3da576be	0.08079289
205	0xbebafa65	-0.3651916
206	0xbe4209a1	-0.18948986
207	0x3dd79d99	0.10528106
208	0x3e3db099	0.18524398
209	0xbef42d5f	-0.47690865
210	0x3f39f00a	0.72631896
211	0x3d51522f	0.051103767
212	0x3cae71d0	0.021294504
213	0x3cccfdab	0.025023302
214	0x3c79372d	0.015210909
215	0x3c52d310	0.012867704
216	0x3db8ecd9	0.0902955
217	0x3deab51a	0.11460324
218	0x3e3029e6	0.17203483
219	0xbc1024bf	-0.008797823
220	0xbba5a6ce	-0.005055285
221	0x3e1538b7	0.14572416
222	0xbdc21d06	-0.09478192
223	0xbe48dec2	-0.19616225
224	0xbccf3510	-0.025293857
225	0xbe8ab308	-0.27089715
226	0x3d7595d1	0.05995733
227	0x3e0fd4e2	0.14046052
228	0xbe238c8b	-0.15971582
229	0xbf0c0ff6	-0.54711854
230	0x3f4666c0	0.77500534
231	0x3e8704db	0.26370892
232	0x3d86043d	0.06543777
233	0xbda73ea5	-0.08166245
234	0xbd3a2f07	-0.045455005
235	0x3d286b1b	0.04111777
236	0x3dc3bd66	0.09557609
237	0xbded6d14	-0.115930706
238	0x3e826dbc	0.25474346
239	0xbde2a2b2	-0.11066188
240	0xbd890c2c	-0.06691775
241	0xbdde62f4	-0.108587176
242	0xbdf8f175	-0.12155429
243	0xbdd74c2f	-0.10512578
244	0x3ed5a120	0.4172449
245	0xbe9043bf	-0.28176686
246	0xbe237a89	-0.15964712
247	0xbc7a1ccb	-0.015265654
248	0xbe5e250f	-0.21693824
249	0xbebd6851	-0.3699365
250	0x3e0d527d	0.13800998
251	0xbe206910	-0.15665078
252	0xbce5d5d1	-0.028056057
253	0xbd35e030	-0.044403255
254	0xbe38a2db	-0.18030874
255	0xbbb43806	-0.0054998426

l2.bias f4 [20]
0	0xbee8b59a	-0.4545105
1	0xbf5a2c26	-0.85223615
2	0xbe8edc82	-0.2790261
3	0xbffd121f	-1.9771155
4	0xbf602d0d	-0.8756874
5	0xbfa00a87	-1.2503213
6	0xbe195a02	-0.14975742
7	0xbf09401e	-0.5361346
8	0xbfe3716d	-1.776899
9	0xbee984a5	-0.45609012
10	0xbf2dd146	-0.6789745
11	0xbee4f36b	-0.44716963
12	0xbfabe7c9	-1.343011
13	0xbefc4efe	-0.49279016
14	0xbe9f775f	-0.3114576
15	0xbf2affe8	-0.6679673
16	0xbf8e18bc	-1.1101298
17	0xbfc5cbee	-1.5452859
18	0xbfc3d584	-1.5299535
19	0xbfaa6405	-1.3311774

l3.weight f4 [20, 20]
0	0xbb5cc166	-0.003368461
1	0x3e1120d5	0.1417268
2	0x3d124d84	0.035718456
3	0x3f2fe78c	0.6871269
4	0x3e3597b0	0.17733645
5	0x3f389716	0.7210554
6	0x3e461681	0.19344522
7	0x3cfd4284	0.030915506
8	0x3f336eda	0.7009102
9	0x3e0feadc	0.14054435
10	0x3e4dc65d	0.20095201
11	0x3d8fc4a7	0.0701993
12	0x3ee56b9f	0.4480867
13	0x3dac8a8c	0.08424863
14	0x3d43ca63	0.047800433
15	0x3e863da5	0.26218906
16	0x3eb14393	0.34621868
17	0x3f054e21	0.5207234
18	0x3ea4ec14	0.32211363
19	0x3f5ac8e4	0.85462785
20	0xbd30fb14	-0.043208197
21	0xbdaa3ebb	-0.08312746
22	0xbd8930e5	-0.06698779
23	0xbf325ccd	-0.6967285
24	0xbd21f636	-0.039541446
25	0xbf18e10e	-0.59718406
26	0xbe0a9b03	-0.13535695
27	0xbcb75434	-0.022379018
28	0xbf5a6219	-0.85305935
29	0xbda5d88b	-0.08097943
30	0xbe0d6158	-0.13806665
31	0xbe83bded	-0.2573084
32	0xbef4baff	-0.47798917
33	0xbdff441f	-0.12464165
34	0xbd7f9c66	-0.062405013
35	0xbdb35284	-0.08755973
36	0xbe34828d	-0.17627926
37	0xbecc746d	-0.39932576
38	0xbe4266db	-0.18984549
39	0xbe9a5745	-0.30144706
40	0x3cc3da69	0.023907857
41	0x3be0564c	0.006846225
42	0x3dbdabee	0.092613086
43	0x3f460505	0.7735141
44	0x3ddec738	0.10877842
45	0x3f252e85	0.6452411
46	0x3e24fc1a	0.16111794
47	0xbd834e5d	-0.06411431
48	0x3f1ac546	0.60457265
49	0x3d7c91ae	0.06166237
50	0x3e37050f	0.17873023
51	0x3da9c13a	0.08288808
52	0x3ee44a30	0.4458785
53	0x3e260ae8	0.16215098
54	0x3df084f0	0.11744106
55	0x3e6cd101	0.23126604
56	0x3e92f82e	0.2870497
57	0x3f0a9451	0.5413256
58	0x3ea86077	0.32886097
59	0x3f373b54	0.715749
60	0x3cec34a8	0.028833702
61	0x3c7921ae	0.015205784
62	0x3da89a13	0.08232512
63	0x3f6e6624	0.93124604
64	0x3e507a3a	0.20359126
65	0x3eebe22d	0.46070996
66	0x3e09bec5	0.13451679
67	0xbcbf25f1	-0.023333522
68	0x3f2f9307	0.6858372
69	0x3e4a08e6	0.19729957
70	0x3e34d8d5	0.1766084
71	0x3e5fd1ce	0.21857378
72	0x3eb6ab9c	0.35677803
73	0xbdbecacd	-0.09316025
74	0x3db8f2f3	0.09030714
75	0xbb809a65	-0.0039246553
76	0x3e826430	0.25467062
77	0x3eea2297	0.45729515
78	0x3f0e4f62	0.5558988
79	0x3f428505	0.7598422
80	0x3d90be21	0.07067514
81	0x3da4eab9	0.08052582
82	0x3ddf1d70	0.10894287
83	0x3f70d23e	0.94070804
84	0x3eab8c6f	0.3350558
85	0x3f1d109e	0.6135348
86	0x3e378190	0.17920518
87	0xbce99c78	-0.028516993
88	0x3f2699c6	0.6507839
89	0x3d4cc584	0.049993053
90	0x3e8cdb07	0.27510855
91	0x3e0487cc	0.12942427
92	0x3f02b53e	0.51057804
93	0x3e771b9a	0.24131623
94	0x3e00d15e	0.12579867
95	0x3e2f310e	0.17108557
96	0x3f0713ed	0.5276478
97	0x3f4335a0	0.762537
98	0x3e8e7f55	0.27831522
99	0x3f432598	0.7622924
100	0xbaece723	-0.0018074255
101	0x3dea101c	0.11428854
102	0xbac1be38	-0.0014781421
103	0x3f352828	0.707644
104	0x3eb4fce1	0.3534918
105	0x3eebd343	0.46059617
106	0x3e0247cd	0.12722702
107	0x3d32d76c	0.043662474
108	0x3f3ca7be	0.73693454
109	0x3d3983ac	0.045291588
110	0x3dd2bad9	0.102895446
111	0x3c8fc3eb	0.017549476
112	0x3e99c81e	0.3003549
113	0x3e84e349	0.25954655
114	0x3dd56897	0.104203396
115	0x3d18a3b5	0.0372655
116	0x3ee5e93f	0.44904515
117	0x3ee02d65	0.43784633
118	0x3ea7e186	0.32789248
119	0x3f2fc3c2	0.6865808
120	0x3e0d862c	0.13820714
121	0x3e40cc93	0.18828039
122	0x3cf058ce	0.02933922
123	0x3f2c71bc	0.67361045
124	0x3ea8eef2	0.329948
125	0x3f1caddb	0.6120278
126	0x3e2dbd81	0.16966821
127	0xbc4b6918	-0.012415193
128	0x3f38a506	0.72126806
129	0x3c7cdacf	0.015433027
130	0x3daac357	0.08338039
131	0x3cfaa18d	0.030594612
132	0x3f0741bb	0.5283467
133	0xbc8fecee	-0.017569032
134	0x3df38660	0.11890864
135	0x3dde0d3c	0.10842368
136	0x3f099eeb	0.53758115
137	0x3efe4d24	0.4966823
138	0x3ed6ce69	0.41954353
139	0x3f5116ef	0.8167562
140	0xbaf34fa9	-0.0018563169
141	0xbc77d77e	-0.015127061
142	0xbd599029	-0.053115997
143	0xbf27183f	-0.6527137
144	0xbd2a2280	-0.041536808
145	0xbee4e941	-0.4470921
146	0xbe114726	-0.14187297
147	0xbc8bb4ae	-0.017053928
148	0xbf92bc40	-1.1463699
149	0xbdabd9bb	-0.08391138
150	0xbd8dcc56	-0.069237396
151	0xbe7a3e12	-0.2443774
152	0xbf1ad631	-0.6048308
153	0x3d8aafd2	0.06771816
154	0xbd43d408	-0.04780963
155	0xbe5240fe	-0.20532605
156	0xbf131745	-0.5745738
157	0xbf0e9e25	-0.5571006
158	0xbebcbae7	-0.36861345
159	0xbeebe7e0	-0.46075344
160	0x3dd7d1fc	0.10538098
161	0x3d60aba0	0.054851174
162	0x3dc6dc16	0.09709947
163	0x3f3b1ff0	0.7309561
164	0x3e804aa8	0.25056958
165	0x3efdf23d	0.49598876
166	0x3d71ce84	0.05903484
167	0x3c3d1da3	0.0115427105
168	0x3f12e80e	0.5738534
169	0x3e14021a	0.14453927
170	0x3e0ac5c5	0.13552006
171	0x3dc776a9	0.097394295
172	0x3ed407b3	0.41412124
173	0x3e6b8367	0.22999345
174	0x3cbab869	0.022793012
175	0x3d735898	0.05941066
176	0x3ee24a07	0.44197103
177	0x3f17eefe	0.5934905
178	0x3ea4451e	0.32083982
179	0x3f3096a7	0.6897988
180	0x3d613918	0.05498609
181	0x3dae3e5f	0.0850799
182	0x3e524a0a	0.20536056
183	0x3f3e80b5	0.7441514
184	0x3ee1a526	0.4407131
185	0x3f334dfe	0.7004088
186	0x3d0ef508	0.03490165
187	0xbd053616	-0.032522283
188	0x3f34dc5f	0.7064876
189	0x3e49aa10	0.1969378
190	0x3e9bc4d5	0.30423608
191	0x3da7a398	0.081855
192	0x3f1ef51a	0.62092745
193	0x3e8a017a	0.26954252
194	0x3ccefb04	0.025266178
195	0x3dccbd79	0.099970765
196	0x3f1ff2e3	0.6247999
197	0x3edeb64d	0.4349846
198	0x3e9c6d84	0.30552304
199	0x3f4d0959	0.8009239
200	0xbe51c419	-0.20484962
201	0xbde1155d	-0.10990403
202	0xbd32bd9e	-0.043637864
203	0xbe194b5c	-0.14970154
204	0xbe01611d	-0.12634702
205	0xbe572448	-0.21009934
206	0xbe168707	-0.14699946
207	0x3ced10fd	0.028938765
208	0xbe03c613	-0.12868528
209	0xbdda6588	-0.10663897
210	0x3cf2d0e7	0.029640628
211	0xbe1f598f	-0.15561508
212	0xbe6776ec	-0.22603959
213	0xbd7042b6	-0.05865737
214	0xbe85a25a	-0.26100427
215	0xbc0264da	-0.007958615
216	0xbd8b10d9	-0.06790323
217	0x3ce9cd18	0.02854018
218	0xbe25cf30	-0.16192317
219	0xb9daf25c	-0.00041760772
220	0x3df25884	0.11833289
221	0x3dd7bea4	0.10534409
222	0x3dcb2d6e	0.099207744
223	0x3f24bef7	0.6435389
224	0x3e37198b	0.17880838
225	0x3f10dcbd	0.5658682
226	0x3dc24e3e	0.0948758
227	0xbd334c4f	-0.043773945
228	0x3f57e34f	0.8433122
229	0x3e06e8f5	0.13174804
230	0xbd85f6d3	-0.065412186
231	0x3e5c848f	0.21534942
232	0x3f0b07fd	0.54309064
233	0x3e50e13d	0.20398422
234	0x3e1f872b	0.15578906
235	0x3e10b57c	0.14131731
236	0x3ed9a7e1	0.42510894
237	0x3ebebfdb	0.3725575
238	0x3efb6493	0.4910017
239	0x3f02c52e	0.5108212
240	0x3e324b12	0.1741145
241	0x3cdd284c	0.026996754
242	0x3e25f08d	0.16205044
243	0x3f5a7d94	0.85347867
244	0x3ec8ed91	0.3924375
245	0x3f3f3186	0.7468494
246	0x3e3b7a37	0.1830834
247	0x390be664	0.000133419
248	0x3f654f1a	0.89573824
249	0x3e82cb44	0.25545704
250	0xbb16d7f4	-0.0023016902
251	0x3e062073	0.13098316
252	0x3f3ebcac	0.7450664
253	0x3d07d539	0.03316233
254	0xbd842a80	-0.06453419
255	0x3eb9e3a0	0.36306477

l3.bias f4 [20]
0	0x3f934de5	1.1508147
1	0x3ff63671	1.9235364
2	0x3fa9dc99	1.3270446
3	0x3f84b431	1.036749
4	0x3fb408a3	1.4065136
5	0x3fb79183	1.4341282
6	0x3f8a40b2	1.0800993
7	0x3ff00578	1.8751669
8	0x3fab3fd1	1.337885
9	0x3fa6f949	1.3044826
10	0xbe963365	-0.29336086
11	0x3f82af64	1.0209775
12	0x3f9aa22a	1.2080739
13	0x3f88ae66	1.0678222
14	0xbe88c530	-0.26712942
15	0x3f8d86b6	1.1056736
16	0xbea293dc	-0.31753433
17	0x3f9a97d6	1.2077587
18	0x3e95f12d	0.29285565
19	0x3ff433c2	1.9078295

out.weight f4 [1, 20]
0	0x3ed2bd31	0.41159967
1	0xbfd8587f	-1.6902007
2	0x3f08e8e4	0.5348036
3	0x3ef8404f	0.48486564
4	0x3ec911ac	0.39271295
5	0x3ef25036	0.4732682
6	0x3edfd55f	0.43717477
7	0xbf877210	-1.0581684
8	0x3efc4944	0.49274647
9	0x3ec69f1e	0.38793272
10	0xbdc473d8	-0.09592408
11	0x3edd51a6	0.43226355
12	0x3eb7c89f	0.3589525
13	0x3ea8991e	0.3292932
14	0xbda6e883	-0.08149817
15	0x3ed3e671	0.4138675
16	0xbd37c8e6	-0.044869326
17	0x3eb9330c	0.36171758
18	0x3f9fee9c	1.2494693
19	0xbfb7a879	-1.4348289
