models/model_1900000_train_42300_epoch_192_neurons_boxcox_scaler.pt (torch, 38077 bytes, 7 tensors)

layers.0.weight f4 [64, 5]
0.26346785 -0.013038094 -0.6387042 0.1773741 0.15904906 -0.10076056 0.0018811617 0.09597459
-0.13111344 0.48369572 0.39532652 0.36591437 0.25372636 0.20239338 0.34161076 0.36019424
-0.2003488 0.19267659 -0.06429742 -1.0401345 0.009969734 -0.31502098 0.031857897 0.40506867
-0.18666215 0.34500888 -0.29879978 -0.3570195 -0.12027834 -0.21443665 0.29250246 -0.3274808
-0.102214284 -0.24000673 -0.17700219 -0.9689031 0.4841769 -0.90391546 0.00044604536 -0.00031322174
0.0032455008 -0.01293292 -4.484674 -0.0072228652 -0.0048294878 0.3628138 -0.20270908 -0.39266503
0.21073967 -0.39314902 0.18704595 -0.108376026 0.17372423 0.17994215 -0.8891714 -0.5898348
0.18863648 0.31577602 -0.14612125 -0.34790084 0.13921088 0.31051633 0.3465713 -0.3180709
0.48354152 0.5293919 -0.37355623 -0.004341608 0.0034630948 0.0031738675 0.21283466 -0.49797782
0.36355448 -0.07690608 0.38865268 -0.11597532 -0.10319306 0.3651538 0.38238886 0.42702815
-0.54653907 0.36536446 -0.28519225 -0.08752934 -0.038292326 -0.22692783 0.028658446 0.06669925
-0.050214596 -0.25381246 0.1586871 -0.000911934 0.41685858 0.027664978 -1.3602566 0.3102601
-0.1371825 0.4814936 -0.15650257 0.52517253 0.11510129 0.18532093 -0.41645598 0.0003680303
-0.12910907 -0.19301094 -0.025472116 0.1416642 0.34750178 -0.25820783 0.089175 -0.069504604
0.28200948 0.45953125 0.7161755 0.12903106 -0.008823194 0.3927262 0.037709117 -0.57071865
-0.31863227 0.29335302 -5.7138314 0.00027113088 0.5120909 0.25291023 0.43798697 -0.3746882
0.011109858 -0.2756884 -0.048142903 -0.18494883 -0.4127546 0.35008717 0.004310649 -0.065105304
0.38317528 0.47730747 -0.014467126 0.4951007 0.023569753 0.0008936006 -5.092812 -0.0040348805
0.48068145 0.09100868 0.27217254 0.3872533 0.24104075 0.49532014 -0.27968657 0.31240362
-0.111342914 0.31111816 0.19941472 0.42742136 -0.47529438 0.015829246 0.03076695 0.0014594938
0.058318783 0.35961992 0.161929 -0.049096335 0.21206316 -0.010036332 -0.046798658 -0.009905822
-0.015461613 0.008672258 -0.021371858 0.12509069 0.0722511 -0.007169631 -0.36410877 -0.24229623
0.30684075 0.16804977 0.0030830707 -0.09496153 -0.012888675 -0.6183165 0.008701684 0.002251792
0.11007656 -0.19645455 -0.3130354 -0.09493462 -0.4163649 0.1165374 0.0064707217 0.012792757
-26.53811 0.008420621 -0.009884852 -0.023441177 -0.16506776 0.38973457 0.0122058 -0.006983211
0.009513319 -0.046294704 0.62095046 -0.0036842877 -0.9494422 -0.26617724 0.18301037 0.0030467564
0.0067582824 -0.024852727 -0.6782352 0.29375088 -0.04302728 -0.0049395314 -0.048123647 0.2060744
-0.1624642 -1.1497504 -0.041384872 0.11221825 0.054781675 0.40072107 0.11110002 0.010066315
-0.2313241 -0.0035005456 0.014004871 -15.14728 0.0018812073 0.2385782 -0.5565604 0.21205169
-0.023303505 -0.0010604544 -0.02378429 -0.82680804 0.38985005 -0.10744534 0.0024596013 -0.1443331
0.27215615 -0.21485205 -0.8162212 -0.09988053 0.18814372 -0.84885466 0.37096924 -0.052938085
-0.0046551293 -0.09919819 0.24924563 0.3839554 -0.3194088 0.013383173 -0.45573267 0.31575772
00000000: 42e5 863e bb9d 55bc 1e82 23bf 8ea1 353e
00000010: c2dd 223e 8d5b cebd 5091 f63a 538e c43d
00000020: 9a42 06be f7a6 f73e 3d68 ca3e 2159 bb3e
00000030: 6ce8 813e 3640 4f3e 9be7 ae3e 616b b83e
00000040: 3c28 4dbe 034d 453e 5eae 83bd 2123 85bf
00000050: 1858 233c 6e4a a1be 6d7d 023d 2965 cf3e
00000060: 5d24 3fbe 01a5 b03e 49fc 98be 43cb b6be
00000070: 7e54 f6bd 4895 5bbe e2c2 953e 90ab a7be
00000080: b955 d1bd 53c4 75be 1040 35be 090a 78bf
00000090: 09e6 f73e 0167 67bf 32db e939 e937 a4b9
000000a0: 78b2 543b 99e4 53bc 7382 8fc0 c9ad ecbb
000000b0: ae40 9ebb bbc2 b93e f892 4fbe 640b c9be
000000c0: 24cc 573e d44a c9be f988 3f3e 40f4 ddbd
000000d0: c4e4 313e c142 383e bda0 63bf 6aff 16bf
000000e0: ec29 413e 65ad a13e cfa0 15be 0f20 b2be
000000f0: 4c8d 0e3e fffb 9e3e cb71 b13e 30da a2be
00000100: c192 f73e 3a86 073f c342 bfbe 0c44 8ebb
00000110: 17f5 623b a900 503b 54f1 593e f3f6 febe
00000120: d023 ba3e ef80 9dbd 7cfd c63e 7884 edbd
00000130: e256 d3bd 70f5 ba3e 79c8 c33e 6fa3 da3e
00000140: fce9 0bbf 0d11 bb3e b804 92be 9542 b3bd
00000150: 6ad8 1cbd c55f 68be 1ec5 ea3c 9e99 883d
00000160: d2ad 4dbd b5f3 81be df7e 223e db0e 6fba
00000170: 7d6e d53e aaa1 e23c e31c aebf 69da 9e3e
00000180: 9279 0cbe 5486 f63e 3642 20be b571 063f
00000190: 3aba eb3d c5c4 3d3e b839 d5be 31f4 c039
000001a0: 2b35 04be a9a4 45be e6aa d0bc 6c10 113e
000001b0: c1eb b13e d133 84be 62a1 b63d 6e58 8ebd
000001c0: 8c63 903e ae47 eb3e 4757 373f b820 043e
000001d0: 288f 10bc 6913 c93e e074 1a3d 9e1a 12bf
000001e0: c523 a3be 5e32 963e b5d7 b6c0 9226 8e39
000001f0: 6418 033f 737d 813e d43f e03e 22d7 bfbe
00000200: 1f06 363c 0827 8dbe 7e31 45bd 3a63 3dbe
00000210: 9254 d3be a03e b33e 5840 8d3b ee55 85bd
00000220: 8d2f c43e a561 f43e 8607 6dbc d77d fd3e
00000230: 5b15 c13c 8540 6a3a 51f8 a2c0 0837 84bb
00000240: e11b f63e c262 ba3d 335a 8b3e 1146 c63e
00000250: 63d3 763e 9a9a fd3e 1433 8fbe 5ef3 9f3e
00000260: c107 e4bd e14a 9f3e 5f33 4c3e f9d6 da3e
00000270: c959 f3be 56ac 813c f90a fc3c 7c4c bf3a
00000280: addf 6e3d 1a20 b83e b7d0 253e 3d19 49bd
00000290: 1627 593e 6d6f 24bc f3af 3fbd 074c 22bc
000002a0: b552 7dbc 1616 0e3c 0914 afbc c617 003e
000002b0: 62f8 933d 39ef eabb 776c babe 811c 78be
000002c0: 3b1a 9d3e 3d15 2c3e 580d 4a3b 317b c2bd
000002d0: 052b 53bc fd49 1ebf 8291 0e3c cd92 133b
000002e0: d26f e13d 622b 49be 2d46 a0be 156d c2bd
000002f0: c82d d5be 29ab ee3d 5908 d43b b698 513c
00000300: 0d4e d4c1 a5f6 093c 13f4 21bc b607 c0bc
00000310: 8607 29be 4a8b c73e d6fa 473c 6bd3 e4bb
00000320: c0dd 1b3c 849f 3dbd 9cf6 1e3f 1774 71bb
00000330: a50e 73bf 6248 88be 1267 3b3e 17ac 473b
00000340: 9574 dd3b f297 cbbc d2a0 2dbf 8466 963e
00000350: 603d 30bd cbdb a1bb 4d1d 45bd 2b05 533e
00000360: 045d 26be 052b 93bf 2f83 29bd afd2 e53d
00000370: c062 603d 502b cd3e 6888 e33d 2fed 243c
00000380: 3ae0 6cbe 6969 65bb b074 653c 425b 72c1
00000390: d892 f63a d84d 743e be7a 0ebf 1424 593e
000003a0: fee6 bebc f2fe 8aba 45d7 c2bc b1a9 53bf
000003b0: 6d9a c73e 4d0c dcbd 4331 213b 0ecc 13be
000003c0: 0d58 8b3e 2d02 5cbe dff3 50bf 2a8e ccbd
000003d0: bfa8 403e 8a4e 59bf aeef bd3e 9bd5 58bd
000003e0: 0e8a 98bb 6c28 cbbd 3f3a 7f3e cd95 c43e
000003f0: 8d89 a3be 1945 5b3c cb55 e9be ffaa a13e

layers.0.bias f4 [64]
-0.10074712 0.51318866 -0.19400302 0.09481245 0.4677575 0.44088745 0.42567953 0.24307634
-0.0036752676 0.33454663 0.029854875 0.110418126 0.33173072 -0.042829584 0.3486025 0.18395236
0.31418324 0.38509583 -0.09407372 0.0133328205 -0.32084027 0.47463655 -0.024844486 -0.06561978
-0.15850993 -0.22237849 0.25524375 0.0996094 0.0043540127 -0.18762326 0.36581615 -0.11825791
-0.008512457 -0.015619993 0.38701054 0.33479956 0.09047982 -0.14473663 0.071864 0.039418664
0.021260733 0.21112339 0.30971357 0.11761107 -0.24118158 -0.0006818142 0.40052125 0.24190173
0.20316088 0.31589273 0.38737708 0.13548003 -0.2893466 0.06492417 0.33313528 -0.17630646
0.04710275 0.4171165 0.23939233 0.12508938 -0.4306441 0.17176521 0.1715521 0.228003
00000000: 8254 cebd 5560 033f baa8 46be 082d c23d
00000010: e97d ef3e 00bc e13e abf2 d93e 01e9 783e
00000020: c2dc 70bb b249 ab3e 3692 f43c e622 e23d
00000030: 9cd8 a93e 136e 2fbd 077c b23e 025e 3c3e
00000040: a0dc a03e 482b c53e b9a9 c0bd e771 5a3c
00000050: 2d45 a4be 9003 f33e aa86 cbbc aa63 86bd
00000060: 6d50 22be 30b7 63be 4faf 823e 0300 cc3d
00000070: 1bac 8e3b 5020 40be 414c bb3e 3431 f2bd
00000080: d577 0bbc 00eb 7fbc 3f26 c63e d96a ab3e
00000090: 7c4d b93d d735 14be 6f2d 933d 7775 213d
000000a0: fd2a ae3c bb30 583e c792 9e3e 13de f03d
000000b0: 4ef8 76be c7bb 32ba 1f11 cd3e 16b5 773e
000000c0: 6809 503e b1bc a13e 4a56 c63e 47bb 0a3e
000000d0: 3d25 94be f7f6 843d b590 aa3e ae89 34be
000000e0: d0ee 403d 4b90 d53e 4323 753e 6e17 003e
000000f0: 627d dcbe 38e3 2f3e 5bab 2f3e 9e79 693e

layers.2.weight f4 [64, 64]
0.09823366 -0.15711664 -0.057365693 0.030542143 0.1162811 0.16286254 0.08464761 -6.108877
0.5747032 0.14855596 0.040406883 0.078766495 -0.049502686 0.032945395 0.063624494 -0.0039938497
0.043192673 -0.07251923 0.034943946 -0.16280682 0.116592646 -0.03786614 -0.15002286 0.22737934
0.27555126 0.031764667 0.0119613055 -0.15027463 0.30496117 -0.16284013 0.0009269872 0.046811897
-0.03137735 0.098131254 0.059822913 0.003408682 0.08922955 0.11096546 -0.12403179 0.016525563
0.23906203 -0.23982795 -0.4737602 -0.0042106714 0.071600206 0.08341924 -0.28506702 0.2451655
0.13634758 -0.6028734 0.24595521 0.020850286 -0.25736344 0.11272462 0.54862154 -0.0012872368
0.41808572 0.14918047 -3.472901 -0.043566585 -0.020578891 -0.09182671 -0.07280733 0.8456164
0.026084712 0.02369622 -0.111557685 0.06121162 0.04231281 0.2394146 0.006751546 -1.2747911
-0.41199028 0.23022199 0.015279323 -0.020469906 -0.0016262376 0.06560223 0.0150798485 0.015647536
-0.027425442 -0.012916915 0.17694458 -0.17260058 0.027285725 0.015495238 -0.07706714 -0.043961
0.44945925 0.06323487 -0.076217435 -0.06860557 0.15917376 -0.06501985 -0.05158934 0.106297635
-0.08805901 -0.06517468 -0.061365522 -0.06638381 0.06127815 -0.07853414 0.011437071 0.093878046
0.19073176 -0.08411255 -0.44321814 0.22977544 0.0065042586 0.45167956 -0.26650372 -0.9878515
-0.010620109 -0.554326 0.19990481 0.03908356 -0.30356604 0.15721211 -0.0129099935 0.033603266
0.34657818 0.2627172 -0.28263226 0.057809185 0.11676769 0.15635511 -0.11567825 -0.46531445
-0.00042059456 0.34062636 -0.1061099 0.14496113 0.0551513 0.12962174 0.05056982 -0.42812246
-1.9085852 0.31152546 0.09113898 0.22033653 0.034563284 0.19348933 -0.04552431 -0.17924638
-0.15637048 0.096462354 -0.07776077 -0.20165828 -0.06342618 -0.013778583 0.010192041 0.12424831
0.49253026 -0.04839498 0.12937462 0.09293805 0.03267803 -0.022521127 0.1451252 0.27818203
0.09437564 -0.07079665 0.14989606 0.099098235 0.108867064 0.05976446 -0.67136747 -0.10524525
0.13233428 -0.079031035 -0.104722604 0.08316274 -0.34015638 -0.72843534 -0.08546476 -0.79519725
0.04747841 -0.12721246 0.3137363 0.044981007 -0.024754962 0.23038572 -0.059198324 -0.07870525
0.24076076 0.2679091 -0.31515294 0.3814948 -0.017497733 0.16590348 -0.035828892 -0.9546441
0.035017014 -0.5517332 -0.116224125 0.30484596 0.06875066 0.06844419 0.052430917 1.1918764
-1.2253228 0.17878164 0.30144265 -0.024661284 -0.19952239 -0.07770873 -0.15303016 -0.23523246
0.103704646 0.16882026 0.30851296 -0.376373 -0.039730933 0.2550123 -0.3521778 0.21424104
-1.0106119 0.06682313 -0.06693922 -0.115525916 1.2982042 -0.1076223 -0.1861944 -0.11298081
-0.15738909 -0.10227267 0.12208273 0.045834586 -0.12305195 -0.06927192 -2.8076966 0.033526123
0.35757136 0.13332124 -0.25638136 -0.3258165 0.09460692 -1.5460185 -0.12900881 -2.558793
-0.13488874 -0.45904243 0.29605556 0.03372337 -0.016399223 0.45049992 0.40997243 -0.01896216
3.658113 0.08716866 -3.0861807 0.04855326 -0.06221655 0.16762641 -0.16291234 0.96593034
00000000: bb2e c93d 2fe3 20be 4af8 6abd 8433 fa3c
00000010: c924 ee3d 70c5 263e ba5b ad3d ec7b c3c0
00000020: c01f 133f 0e1f 183e b081 253d 5450 a13d
00000030: 54c3 4abd c0f1 063d 8f4d 823d d7de 82bb
00000040: cdea 303d f684 94bd 6221 0f3d d5b6 26be
00000050: 20c8 ee3d 8719 1bbd 989f 19be 21d6 683e
00000060: 0e15 8d3e ab1b 023d 5af9 433c 98e1 19be
00000070: df23 9c3e 90bf 26be 0f01 733a d5bd 3f3d
00000080: 8985 00bd 0af9 c83d df08 753d 3264 5f3b
00000090: fbbd b63d dc41 e33d 6104 febd 9e60 873c
000000a0: adcc 743e 7595 75be b290 f2be acf9 89bb
000000b0: 21a3 923d b5d7 aa3d 4ef4 91be aa0c 7b3e
000000c0: b39e 0b3e e955 1abf afdb 7b3e 38ce aa3c
000000d0: 24c5 83be 2adc e63d 7672 0c3f 80b8 a8ba
000000e0: 550f d63e c4c2 183e 0344 5ec0 e072 32bd
000000f0: 1095 a8bc a40f bcbd 021c 95bd 517a 583f
00000100: 9baf d53c 931e c23c 5b78 e4bd 09b9 7a3d
00000110: 3250 2d3d 1a29 753e 133c dd3b 5b2c a3bf
00000120: 64f0 d2be 50bf 6b3e 2056 7a3c 81b0 a7bc
00000130: 7b27 d5ba 765a 863d 7811 773c 432f 803c
00000140: 52ab e0bc 78a1 53bc f630 353e 35be 30be
00000150: 5086 df3c bddf 7d3c 60d5 9dbd 7310 34bd
00000160: 861f e63e 4981 813d e317 9cbd 1481 8cbd
00000170: 72fe 223e 2129 85bd 584f 53bd 93b2 d93d
00000180: 4858 b4bd 4d7a 85bd 6a5a 7bbd 3cf4 87bd
00000190: ccfe 7a3d 82d6 a0bd 8d62 3b3c 2243 c03d
000001a0: 304f 433e 3343 acbd 7ded e2be 414a 6b3e
000001b0: ad21 d53b 8b42 e73e 2d73 88be d6e3 7cbf
000001c0: f7ff 2dbc 4fe8 0dbf d9b3 4c3e 1516 203d
000001d0: 026d 9bbe 36fc 203e 7084 53bc 94a3 093d
000001e0: b272 b13e de82 863e 2db5 90be 53c9 6c3d
000001f0: e623 ef3d 8e1b 203e b8e8 ecbd b23d eebe
00000200: 3f83 dcb9 9466 ae3e 2650 d9bd b170 143e
00000210: 54e6 613d 90bb 043e 4d22 4f3d de32 dbbe
00000220: 854c f4bf 4480 9f3e 13a7 ba3d e69f 613e
00000230: 3b92 0d3d 1122 463e b377 3abd 5d8c 37be
00000240: 951f 20be 0e8e c53d 0a41 9fbd 827f 4ebe
00000250: 96e5 81bd 91bf 61bc 85fc 263c e675 fe3d
00000260: ed2c fc3e d139 46bd c87a 043e 4e56 be3d
00000270: 66d9 053d 3a7e b8bc b39b 143e e06d 8e3e
00000280: 0448 c13d d6fd 90bd 5a7e 193e 04f4 ca3d
00000290: b2f5 de3d 94cb 743d bdde 2bbf d28a d7bd
000002a0: a382 073e 06db a1bd ce78 d6bd 3a51 aa3d
000002b0: fa28 aebe bd7a 3abf 2608 afbd 0c92 4bbf
000002c0: b978 423d fc43 02be 0ba2 a03e 013e 383d
000002d0: ebca cabc 3cea 6b3e f179 72bd 3830 a1bd
000002e0: fd89 763e 622b 893e ba5b a1be 4953 c33e
000002f0: 6857 8fbc 9ae2 293e 51c1 12bd 8e63 74bf
00000300: 006e 0f3d 633e 0dbf ea06 eebd c514 9c3e
00000310: 25cd 8c3d 782c 8c3d cdc1 563d 688f 983f
00000320: 61d7 9cbf 8912 373e b156 9a3e 7606 cabc
00000330: 994f 4cbe c125 9fbd f0b3 1cbe c7e0 70be
00000340: 1a63 d43d 38df 2c3e 69f5 9d3e f6b3 c0be
00000350: e7bc 22bd f990 823e a650 b4be 0162 5b3e
00000360: bb5b 81bf 91da 883d 6e17 89bd da98 ecbd
00000370: 8e2b a63f 1569 dcbd bfa9 3ebe 7c62 e7bd
00000380: 9b2a 21be 5574 d1bd 8306 fa3d 0cbd 3b3d
00000390: a902 fcbd 70de 8dbd 4db1 33c0 b052 093d
000003a0: 9813 b73e 5d85 083e 6b44 83be 6cd1 a6be
000003b0: 46c1 c13d efe3 c5bf e31a 04be 44c3 23c0
000003c0: 4620 0abe 9c07 ebbe 9894 973e 8421 0a3d
000003d0: aa57 86bc eda7 e63e e8e7 d13e 8856 9bbc
000003e0: 861e 6a40 7b85 b23d fc83 45c0 c8df 463d
000003f0: c8d6 7ebd 42a6 2b3e 7ed2 26be 3647 773f

layers.2.bias f4 [64]
0.045366105 0.052411605 0.16580997 -0.12850678 -0.013508366 -0.13259591 -0.06443266 -0.033443358
-0.03247051 -0.029342577 -0.1245693 0.06374546 0.0136333695 0.11327044 -0.07364459 -0.054286923
-0.0061423234 -0.0919888 0.09417285 0.1391382 -0.17278516 -0.10447349 -0.044534773 -0.0745797
0.03534304 -0.019541793 -0.04507061 -0.073067 -0.044634536 -0.12671949 0.07962334 -0.052790932
0.056274343 0.05389066 0.21393877 0.23148234 -0.02945967 -0.05247314 -0.06741672 0.1481938
0.033997186 -0.07654908 -0.010716976 0.08627853 -0.13526076 -0.1065454 -0.018492308 0.06687533
0.04526183 -0.050806522 -0.11053107 -0.028309843 0.09830555 -0.04453386 0.15128095 -0.05070968
-0.11741865 -0.13128045 0.11676339 0.024373377 0.058205947 -0.09349465 -0.061582193 -0.03180851
00000000: cfd1 393d 8dad 563d 17ca 293e 4897 03be
00000010: 3252 5dbc 39c7 07be 45f5 83bd e7fb 08bd
00000020: ccff 04bd d85f f0bc 301e ffbd fb8c 823d
00000030: 7f5e 5f3c 55fa e73d fad2 96bd f75b 5ebd
00000040: 8b45 c9bb a064 bcbd b2dd c03d 3f7a 0e3e
00000050: 98ee 30be 32f6 d5bd 186a 36bd 3ebd 98bd
00000060: ddc3 103d 1c16 a0bc f69b 38bd 27a4 95bd
00000070: b4d2 36bd c1c2 01be 9011 a33d 4e3b 58bd
00000080: ed7f 663d 74bc 5c3d c412 5b3e b509 6d3e
00000090: 6855 f1bc 13ee 56bd c711 8abd 1ec0 173e
000000a0: a240 0b3d c4c5 9cbd 4196 2fbc ccb2 b03d
000000b0: cc81 0abe 7a34 dabd 2e7d 97bc eff5 883d
000000c0: 7864 393d 801a 50bd 1d5e e2bd 0bea e7bc
000000d0: 6c54 c93d 2369 36bd 65e9 1a3e f4b4 4fbd
000000e0: 3079 f0bd 626e 06be a521 ef3d adaa c73c
000000f0: 5c69 6e3d 207a bfbd 9c3d 7cbd a449 02bd

layers.4.weight f4 [64, 64]
0.21743502 0.083664134 0.046609238 0.29616332 0.30819753 1.0668157 -0.030749196 0.10369168
0.029561609 0.842904 0.13422458 0.1144345 0.13273749 -0.05387053 0.13862543 0.039129805
-0.20604856 0.9636344 0.060398627 0.04295409 0.5642276 0.28510293 0.013494125 0.1633423
0.21135211 0.12093961 0.20292653 0.1813123 0.14483336 2.0670235 -0.041445363 0.20174523
0.025896206 0.22022402 0.14967264 0.17315596 0.039514944 0.086540736 -0.0071497182 0.12207673
0.5883642 0.2155633 0.114211515 0.08374006 0.020973697 -0.01202561 0.2199848 0.06516004
-0.024749935 -0.079707965 0.56678116 0.22337934 0.02010984 0.115030274 0.017018188 0.4819849
-0.052372128 3.122531 0.118342 0.0038085212 0.2147764 0.6024834 -0.01097852 0.038240306
-0.37160876 -0.11662076 0.23718314 -0.6514138 -1.803493 -4.2804127 -0.044864103 -0.08453418
-0.019597277 -2.0377924 0.0072502503 0.036582388 -0.04860203 0.14286092 -0.88694906 -0.81368965
0.028257983 -7.6647625 0.115080185 0.042780142 -8.69787 -0.1653618 0.021486046 -0.8416801
0.21535364 0.10059065 -0.32682243 -0.22943814 0.19925478 -19.15471 -0.08345817 -1.8493757
-0.12988012 0.01234617 0.012110809 0.25111035 -0.075445786 -0.02247038 0.04821674 0.1877848
-1.7828441 -1.4466524 -0.9756067 -0.57506293 0.0071259574 -0.123435155 0.059824932 0.0070379246
-0.0068460642 0.020324782 -8.400192 0.17237066 0.13493073 -0.052394737 0.10519336 -3.2302015
-0.090563685 -11.471237 -0.037127584 0.012259139 0.20247972 -6.086897 0.09667887 -0.83489984
-0.0010526815 -0.040146563 -0.012173375 -0.04217677 -0.09756466 0.020409394 0.025233284 0.056459904
0.0213767 -0.047243416 0.055549152 -0.06487416 -0.13227688 0.015196081 0.08522361 -0.12547824
-0.10897598 0.0144045055 -0.03220717 -0.13490278 -0.10717814 -0.12084763 -0.07498799 0.01759513
0.007228784 -0.062626354 0.07726537 -0.025405254 -0.007846977 0.04603313 -0.04858859 -0.033316642
0.064484924 -0.05953223 0.035160568 -0.06497957 -0.08056186 0.050568108 0.06342724 -0.02166037
0.100885496 -0.0875523 0.03216561 -0.0048270165 0.07428528 0.03778194 0.020216286 0.042760283
0.04913906 0.046630636 0.054521408 -0.085586414 -0.100835264 0.07166898 -0.09271418 0.020563211
-0.094203815 -0.09231517 0.07815504 -0.054817248 -0.017601237 -0.067015626 -0.0059076548 0.04454863
0.08870302 -0.1387025 -0.017257055 -0.1337722 0.034970883 -0.002779787 -0.07570434 -0.007684365
-0.101458356 -0.07428302 -0.038103126 -0.06901179 -0.08421912 0.023496283 0.017311988 0.039175063
-0.050066076 0.060124654 -0.027790735 0.05733391 -0.0835821 0.10080204 0.049200997 -0.073606774
0.024134224 0.0016304456 -0.11464289 0.015849741 0.090326265 -0.041790567 -0.113747545 -0.1334686
0.08469039 -0.06070724 0.037213556 0.018209623 -0.0060278242 0.040312327 0.06964457 -0.104017615
-0.010383216 -0.04700507 -0.11327748 -0.055742186 -0.11414279 -0.04380682 0.04211646 0.066734485
-0.08451536 -0.0846148 0.037944436 0.064293906 -0.13085285 -0.086257465 -0.027684076 -0.07166136
-0.02423735 0.046546828 -0.02758599 -0.007282541 -0.025762876 -0.026518753 0.0922821 0.035728022
00000000: 49a7 5e3e 1a58 ab3d 54e9 3e3d b8a2 973e
00000010: 11cc 9d3e 6b8d 883f bde5 fbbc 4e5c d43d
00000020: 302b f23c 8ec8 573f 2b72 093e a35c ea3d
00000030: 56ec 073e 58a7 5cbd d3f3 0d3e 9346 203d
00000040: 65fe 52be beb0 763f 8d64 773d a1f0 2f3d
00000050: 3871 103f 03f9 913e 7616 5d3c 3443 273e
00000060: b06c 583e 30af f73d f9cb 4f3e eea9 393e
00000070: 324f 143e 1d4a 0440 9dc2 29bd 4d96 4e3e
00000080: 4824 d43c 6882 613e c943 193e cc4f 313e
00000090: 6cda 213d 453c b13d 2f48 eabb 5d03 fa3d
000000a0: 099f 163f a0bc 5c3e bae7 e93d e97f ab3d
000000b0: 08d1 ab3c 1007 45bc b243 613e a172 853d
000000c0: 60c0 cabc ee3d a3bd 9218 113f 8ebd 643e
000000d0: 64bd a43c fe94 eb3d ba69 8b3c bac6 f63e
000000e0: 2884 56bd 8cd7 4740 4a5d f23d 6298 793b
000000f0: 58ee 5b3e 5a3c 1a3f 40df 33bc dea1 1c3d
00000100: 8143 bebe ddd6 eebd 23e0 723e 0ec3 26bf
00000110: dcd8 e6bf 24f9 88c0 6cc3 37bd 4220 adbd
00000120: 788a a0bc 316b 02c0 8293 ed3b 6ad7 153d
00000130: ec12 47bd 224a 123e 180f 63bf f74d 50bf
00000140: 497d e73c bc45 f5c0 29af eb3d 3b3a 2f3d
00000150: 7a2a 0bc1 9b54 29be 8103 b03c 5978 57bf
00000160: aa85 5c3e 7902 ce3d 4555 a7be d5f1 6abe
00000170: 7209 4c3e d93c 99c1 1eec aabd 58b8 ecbf
00000180: 4bff 04be 9747 4a3c 6a6c 463c 8991 803e
00000190: 5283 9abd cd13 b8bc eb7e 453d a94a 403e
000001a0: 3c34 e4bf e82b b9bf 5cc1 79bf 5337 13bf
000001b0: dd80 e93b 92cb fcbd fd0a 753d 649e e63b
000001c0: f354 e0bb 2880 a63c 3067 06c1 ef81 303e
000001d0: 482b 0a3e dd9b 56bd 9e6f d73d 9fbb 4ec0
000001e0: 7479 b9bd 308a 37c1 1813 18bd 8eda 483c
000001f0: d856 4f3e dcc7 c2c0 92ff c53d ffbb 55bf
00000200: 21fa 89ba b970 24bd d672 47bc 8cc1 2cbd
00000210: fbcf c7bd 9a31 a73c 08b6 ce3c 8042 673d
00000220: 301e af3c 5082 41bd 8287 633d bedc 84bd
00000230: 9773 07be fcf8 783c b789 ae3d 5e7d 00be
00000240: cc2e dfbd e000 6c3c aaeb 03bd f423 0abe
00000250: 3680 dbbd f67e f7bd 4e93 99bd a923 903c
00000260: 6fdf ec3b 3f42 80bd 4e3d 9e3d ae1e d0bc
00000270: 9b90 00bc 3c8d 3c3d d404 47bd 0877 08bd
00000280: ac10 843d 11d8 73bd 8704 103d 0214 85bd
00000290: 9efd a4bd 8120 4f3d 24e6 813d 1771 b1bc
000002a0: 0e9d ce3d 9f4e b3bd 16c0 033d f32b 9ebb
000002b0: e222 983d 3cc1 1a3d a09c a53c 6825 2f3d
000002c0: 0a46 493d c4ff 3e3d d751 5f3d ee47 afbd
000002d0: b882 cebd 30c7 923d efe0 bdbd 2e74 a83c
000002e0: eeed c0bd bc0f bdbd c00f a03d 0d88 60bd
000002f0: 7830 90bc 7d3f 89bd 0095 c1bb a078 363d
00000300: eea9 b53d 0708 0ebe ab5e 8dbc 94fb 08be
00000310: a13d 0f3d 162d 36bb e10a 9bbd 20cd fbbb
00000320: 66c9 cfbd b221 98bd 0612 1cbd 0e56 8dbd
00000330: 137b acbd 477b c03c dfd1 8d3c 0876 203d
00000340: 1612 4dbd 4545 763d 65a9 e3bc f6d6 6a3d
00000350: 182d abbd 4d71 ce3d fc86 493d 26bf 96bd
00000360: 23b5 c53c adb4 d53a e4c9 eabd 51d7 813c
00000370: fafc b83d 962c 2bbd 79f4 e8bd feab 08be
00000380: 2872 ad3d 28a8 78bd 3e6d 183d 592c 953c
00000390: 0e85 c5bb 8a1e 253d d0a1 8e3d 3007 d5bd
000003a0: 5d1e 2abc 6388 40bd 06fe e7bd eb51 64bd
000003b0: b2c3 e9bd c86e 33bd 4f82 2c3d 17ac 883d
000003c0: 6416 adbd 864a adbd a06b 1b3d 86ac 833d
000003d0: 4afe 05be c1a7 b0bd b7c9 e2bc 31c3 92bd
000003e0: 688d c6bc e3a7 3e3d 04fc e1bc 62a2 eebb
000003f0: ab0c d3bc db3d d9bc 66fe bc3d 8c57 123d

layers.4.bias f4 [64]
-0.02459035 -0.2230759 -0.012625129 0.09218512 0.07337814 0.10118363 0.034658927 -0.053107228
-0.097925715 0.027737927 0.07126341 0.03926798 -0.084923826 0.12991734 -0.082116395 -0.11672888
0.14566159 0.17782493 -0.059065312 -0.014612064 -0.23519728 0.060236346 0.15743911 0.16489546
-0.062930435 -0.02536403 0.047220793 -0.10200509 -0.12491038 -0.11220446 -0.08379038 0.09825897
0.011806533 0.02835275 0.15708612 0.12437463 -0.06660861 -0.10433154 -0.020696111 -0.20159884
-0.122341335 0.03984357 0.08504867 -0.078901246 0.020955028 0.07314544 0.2623907 -0.012022817
-0.079731695 -0.02832072 0.11914833 0.013580721 -0.094426714 -0.11231776 0.06463041 0.13412708
0.057457082 0.03753934 0.055524096 0.03512358 0.04119095 0.14911306 -0.2392271 -0.03432096
00000000: b471 c9bc 026e 64be a1d9 4ebc 8dcb bc3d
00000010: 4747 963d 5d39 cf3d 85f6 0d3d f786 59bd
00000020: 478d c8bd a63a e33c 8df2 913d 76d7 203d
00000030: 8bec adbd 0d09 053e a42c a8bd 8d0f efbd
00000040: 5028 153e bd17 363e 78ee 71bd 7067 6fbc
00000050: 8ed7 70be 63ba 763d b837 213e 5bda 283e
00000060: ace1 80bd 3ac8 cfbc 976a 413d 0be8 d0bd
00000070: 03d1 ffbd 74cb e5bd 4a9a abbd 003c c93d
00000080: 3070 413c 0744 e83c 2fdb 203e 20b8 fe3d
00000090: 186a 88bd c6ab d5bd e48a a9bc ed6f 4ebe
000000a0: 188e fabd 0333 233d ff2d ae3d fa96 a1bd
000000b0: e1a9 ab3c 47cd 953d 1358 863e 59fb 44bc
000000c0: 5f4a a3bd db00 e8bc 0a04 f43d ac81 5e3c
000000d0: cb62 c1bd db06 e6bd f35c 843d 9c58 093e
000000e0: 1e58 6b3d dac2 193d 3c6d 633d bedd 0f3d
000000f0: d7b7 283d 18b1 183e f3f7 74be 2394 0cbd

out.weight f4 [1, 64]
-0.15263085 0.81101173 0.102503836 0.10822546 -0.5682144 -0.22838138 -0.1821036 -0.06430498
-0.39443496 -0.23526198 0.06943846 0.02554393 3.010754 -0.14452536 3.7697852 0.3846069
-0.16554765 -0.1945334 -0.026953546 0.11580047 1.8116076 -0.24940695 -0.16419886 -0.20832439
0.03891918 -0.24160406 0.097054295 0.0017401254 0.7977931 -0.11008409 0.61667794 -0.19250628
-0.065690845 -0.23683761 -0.19990419 -0.19158836 0.09168862 -0.07888729 0.052589387 0.7696717
0.05245703 0.022764537 -0.15740032 0.078197785 0.044993263 -0.22648245 -0.22965243 0.7058169
0.009479353 0.00652673 -0.1636387 -0.22023413 -0.04630361 -0.0057217577 -0.17953385 -0.22027437
-0.19749483 0.04845601 -0.18888997 0.0008701296 0.29834965 -0.22075403 0.81176066 -0.20537038
00000000: 434b 1cbe 779e 4f3f 88ed d13d 4fa5 dd3d
00000010: 8076 11bf cfdc 69be 5e79 3abe 54b2 83bd
00000020: 61f3 c9be 84e8 70be c035 8e3d 8141 d13c
00000030: 32b0 4040 75fe 13be 2944 7140 32eb c43e
00000040: 5385 29be c333 47be afcd dcbc cc28 ed3d
00000050: c2e2 e73f 8964 7fbe bf23 28be fd52 55be
00000060: b869 1f3d 0e67 77be 67c4 c63d eb14 e43a
00000070: 2b3c 4c3f c473 e1bd 9bde 1d3f 5e20 45be
00000080: ec88 86bd 8f85 72be afb3 4cbe bd2f 44be
00000090: 3ec7 bb3d a98f a1bd f867 573d 3409 453f
000000a0: 2fdd 563d b27c ba3c 8d2d 21be 2926 a03d
000000b0: db4a 383d 04eb 67be 022a 6bbe 6bb0 343f
000000c0: 4a4f 1b3c 2ede d53b e790 27be 0e85 61be
000000d0: dba8 3dbd 957d bbbb b9d7 37be 9b8f 61be
000000e0: 163c 4abe cf79 463d 5f6c 41be 6919 643a
000000f0: 49c1 983e 580d 62be 8ccf 4f3f 9d4c 52be
