models/model_1900000_train_32300_epoch_192_neurons_boxcox_scaler.pt (torch, 38067 bytes, 7 tensors)

layers.0.weight f4 [64, 5]
0.27156857 0.018008975 -0.67314357 0.17947558 0.21836312 -0.09603223 0.008852796 0.097155355
-0.1301821 0.4759159 0.40486467 0.3780535 0.2566466 0.22122356 0.33029395 0.3563958
-0.17913292 0.19886942 -0.08122544 -0.9033609 0.024875393 -0.314047 0.049363155 0.42132
-0.1947267 0.35131422 -0.29848576 -0.36604246 -0.114566736 -0.19397204 0.28604734 -0.32465708
-0.08018892 -0.26174647 -0.1550601 -0.9517282 0.47587115 -1.0511243 0.00053075637 -0.00029321044
0.0032455008 -0.01293292 -4.484674 -0.0072228652 -0.0048294878 0.368893 -0.20366022 -0.38789973
0.2196911 -0.3810067 0.17789584 -0.11902486 0.17419992 0.19077753 -0.794594 -0.56482714
0.16332376 0.35127345 -0.13492419 -0.29290944 0.15668033 0.32516807 0.3574624 -0.2982268
0.481295 0.524145 -0.36609367 -0.0021903666 0.0031712374 0.0021702035 0.21647593 -0.49586555
0.36843613 -0.08159601 0.3803206 -0.112255424 -0.10563402 0.36685863 0.39807487 0.4147141
-0.5219511 0.3510037 -0.3307458 -0.0877505 -0.010097298 -0.20884328 0.046013974 0.09920734
-0.05499967 -0.29062447 0.16235964 0.00434868 0.40562576 0.027548483 -1.2191527 0.31336692
-0.12828884 0.47700164 -0.15954936 0.49991894 0.11510129 0.18532093 -0.41645598 0.0003680303
-0.12910907 -0.18679613 -0.028385503 0.16207501 0.38159642 -0.27785233 0.09091559 -0.073064044
0.28258625 0.46700662 0.6957179 0.13975872 -0.00032812174 0.38288167 0.037681654 -0.550402
-0.2584037 0.26840276 -5.607884 0.00047693786 0.5001498 0.2480178 0.44931573 -0.37778473
0.014773959 -0.2775835 -0.117477976 -0.17926353 -0.43329275 0.36574534 0.006750241 -0.056360923
0.38624954 0.4793238 -0.0007835619 0.47675258 0.010843189 0.0056561176 -5.1756945 -0.0038623696
0.4737332 0.09486798 0.27982727 0.39163756 0.25968453 0.48267692 -0.24946772 0.3432222
-0.09805512 0.34820202 0.22840522 0.46670786 -0.48236308 -0.018061088 0.048509203 -0.06571585
0.07212567 0.3705233 0.16890739 -0.035117667 0.2026142 -0.010036332 -0.046798658 -0.009905822
-0.015461613 0.008672258 -0.012498002 0.1494939 0.105600014 -0.013265587 -0.37470934 -0.22763407
0.33516195 0.2017804 -0.0017842939 -0.12913732 -0.048070207 -0.55222267 0.014304247 0.0039893
0.12129579 -0.19645455 -0.3130354 -0.09493462 -0.4163649 0.1165374 0.024087926 0.016667068
-17.682493 0.014255495 -0.02196973 0.007131466 -0.15198313 0.39060307 0.021454867 0.011930747
-0.011137775 -0.033350386 0.61947614 -0.00099896 -0.8041232 -0.24438572 0.22721983 0.11930202
-0.0019224265 -0.038758595 -0.6714475 0.28574285 -0.042473294 -0.0056429966 -0.05840306 0.21598534
-0.18634589 -1.1023195 -0.03922766 0.074 0.06770791 0.40276968 0.093481675 0.002457211
-0.23679931 -0.012519336 0.01989404 -12.367936 -7.585189e-05 0.2228881 -0.54844004 0.19720669
-0.02070955 -0.0008912384 -0.031388056 -0.81072176 0.38801053 -0.107380435 0.004749865 -0.14693499
0.30331635 -0.24522294 -0.8155237 -0.094566524 0.1546483 -0.8412485 0.37027705 -0.047457065
-0.0042637954 -0.090710945 0.2551621 0.39519832 -0.32645088 0.016248634 -0.42546967 0.330095
00000000: 090b 8b3e 8f87 933c 2353 2cbf 72c8 373e
00000010: 959a 5f3e 8cac c4bd 510b 113c 63f9 c63d
00000020: 754e 05be 40ab f33e 6c4a cf3e 3a90 c13e
00000030: 2f67 833e 6e88 623e 4a1c a93e 8379 b63e
00000040: 9f6e 37be 6da4 4b3e 8659 a6bd a942 67bf
00000050: 7bc7 cb3c c5ca a0be 0531 4a3d 41b7 d73e
00000060: 7066 47be 75df b33e 20d3 98be eb69 bbbe
00000070: f7a1 eabd 9ba0 46be cc74 923e 7439 a6be
00000080: 173a a4bd a203 86be 13c8 1ebe 76a4 73bf
00000090: 62a5 f33e 3e8b 86bf 7522 0b3a 0aba 99b9
000000a0: 78b2 543b 99e4 53bc 7382 8fc0 c9ad ecbb
000000b0: ae40 9ebb 8bdf bc3e 4e8c 50be cb9a c6be
000000c0: b4f6 603e 4f13 c3be 542a 363e 4ec3 f3bd
000000d0: 7761 323e 2f5b 433e 836a 4bbf 8398 10bf
000000e0: 583e 273e 1dda b33e 9129 0abe 3af8 95be
000000f0: cf70 203e 6e7c a63e 5005 b73e 2fb1 98be
00000100: 4c6c f63e 5e2e 063f a170 bbbe 418c 0fbb
00000110: 89d4 4f3b f939 0e3b deab 5d3e 17e2 fdbe
00000120: a9a3 bc3e cf1b a7bd 62b9 c23e 2ce6 e5bd
00000130: a656 d8bd e5d4 bb3e 78d0 cb3e 6855 d43e
00000140: 969e 05bf c2b6 b33e 8357 a9be 89b6 b3bd
00000150: 236f 25bc 03db 55be 2679 3c3d 382d cb3d
00000160: 5547 61bd bbcc 94be 9b41 263e 5f7f 8e3b
00000170: 2eae cf3e 5bad e13c 320d 9cbf a171 a03e
00000180: 265e 03be 8f39 f43e e860 23be 60f5 ff3e
00000190: 3aba eb3d c5c4 3d3e b839 d5be 31f4 c039
000001a0: 2b35 04be 7c47 3fbe b788 e8bc fef6 253e
000001b0: 9b60 c33e a942 8ebe f431 ba3d 9aa2 95bd
000001c0: 25af 903e 7e1b ef3e 911a 323f e91c 0f3e
000001d0: c107 acb9 1109 c43e 1458 1a3d 25e7 0cbf
000001e0: 7d4d 84be 166c 893e c973 b3c0 840d fa39
000001f0: d109 003f 61f8 7d3e b60c e63e 006d c1be
00000200: 7a0e 723c 6d1f 8ebe 4b98 f0bd dc90 37be
00000210: 8cd8 ddbe f942 bb3e 2031 dd3b b6da 66bd
00000220: 80c2 c53e ee69 f53e f367 4dba ea18 f43e
00000230: a2a7 313c f456 b93b 4a9f a5c0 cf1f 7dbb
00000240: 288d f23e 254a c23d 8545 8f3e b884 c83e
00000250: 5ff5 843e 6e21 f73e 7774 7fbe d2ba af3e
00000260: 1fd1 c8bd 8947 b23e 0fe3 693e 55f4 ee3e
00000270: 4bf8 f6be d9f4 93bc 96b1 463d 0896 86bd
00000280: a0b6 933d 3bb5 bd3e 0ff6 2c3e 8bd7 0fbd
00000290: 197a 4f3e 6d6f 24bc f3af 3fbd 074c 22bc
000002a0: b552 7dbc 1616 0e3c 6bc4 4cbc ee14 193e
000002b0: d244 d83d e857 59bc e7d9 bfbe e818 69be
000002c0: 599a ab3e 859f 4e3e f8de e9ba 933c 04be
000002d0: 44e5 44bd 775e 0dbf 5c5c 6a3c adb8 823b
000002e0: ed69 f83d 622b 49be 2d46 a0be 156d c2bd
000002f0: c82d d5be 29ab ee3d 0b54 c53c 6089 883c
00000300: bf75 8dc1 e18f 693c ddf9 b3bc 13af e93b
00000310: 77a1 1bbe 20fd c73e 1ec2 af3c 2e79 433c
00000320: 377b 36bc 6a9a 08bd fd95 1e3f 89ef 82ba
00000330: 05db 4dbf 4040 7abe 51ac 683e 9e54 f43d
00000340: eef9 fbba 55c1 1ebd fce3 2bbf e34c 923e
00000350: 7af8 2dbd e3e8 b8bb 0c38 6fbd 432b 5d3e
00000360: 75d1 3ebe ce18 8dbf 2fad 20bd 508d 973d
00000370: 72aa 8a3d d437 ce3e 5273 bf3d 2909 213b
00000380: 857b 72be e71d 4dbc d3f8 a23c 11e3 45c1
00000390: ac12 9fb8 c73c 643e 9166 0cbf 8df0 493e
000003a0: 13a7 a9bc ffa1 69ba c390 00bd 768b 4fbf
000003b0: 51a9 c63e 46ea dbbd c1a4 9b3b 2076 16be
000003c0: 484c 9b3e b91b 7bbe 29c6 50bf 18ac c1bd
000003d0: 205c 1e3e 105c 57bf f494 bd3e 5762 42bd
000003e0: 4fb7 8bbb a9c6 b9bd 9ba4 823e 6f57 ca3e
000003f0: 9224 a7be db1b 853c 29d7 d9be 3602 a93e

layers.0.bias f4 [64]
-0.12801315 0.5154312 -0.19249202 0.07977868 0.47072825 0.43523294 0.42985898 0.23927875
-0.0036752676 0.32968107 0.037412483 0.06385275 0.3530141 -0.046091888 0.3561986 0.1902881
0.295288 0.39776292 -0.096050054 0.012478195 -0.32084027 0.4869827 -0.022833033 -0.07057509
-0.1793259 -0.2269592 0.31227818 0.11091346 0.006068005 -0.18981428 0.39757982 -0.10990382
0.0040717097 -0.015619993 0.3976351 0.35527897 0.0934703 -0.14473663 0.06184566 -0.015434731
0.0171819 0.17812553 0.30693883 0.12608498 -0.23824266 -0.00085044187 0.4111467 0.23217854
0.20838897 0.30117053 0.38490865 0.15655701 -0.29179412 0.081677005 0.3334067 -0.17630646
0.037220486 0.41329867 0.2357815 0.12176561 -0.4306441 0.1955867 0.181604 0.22567472
00000000: e115 03be 4df3 033f a11c 45be 0163 a33d
00000010: 4b03 f13e dad6 de3e 7a16 dc3e 7d05 753e
00000020: c2dc 70bb f5cb a83e d53d 193d 3bc5 823d
00000030: 44be b43e d9ca 3cbd aa5f b63e e2da 423e
00000040: fd2f 973e 95a7 cb3e e4b5 c4bd 5871 4c3c
00000050: 2d45 a4be cc55 f93e 570c bbbc ac89 90bd
00000060: 35a1 37be fe67 68be ede2 9f3e 9926 e33d
00000070: 1ed6 c63b ad5e 42be 958f cb3e 4115 e1bd
00000080: fa6b 853b 00eb 7fbc d496 cb3e 20e7 b53e
00000090: 5b6d bf3d d735 14be e051 7d3d f4e1 7cbc
000000a0: 0ec1 8c3c 8a66 363e 1627 9d3e 6c1c 013e
000000b0: e2f5 73be 30f0 5eba d281 d23e 36c0 6d3e
000000c0: eb63 553e 0633 9a3e bf12 c53e 7b50 203e
000000d0: 0a66 95be 4646 a73d 48b4 aa3e ae89 34be
000000e0: 8274 183d e29b d33e b570 713e 4060 f93d
000000f0: 627d dcbe e147 483e 66f6 393e 4617 673e

layers.2.weight f4 [64, 64]
0.10372962 -0.15000401 -0.05012435 2.3403068e-06 0.11279706 0.15359868 0.08334493 -4.343546
0.5747032 0.1334988 0.050774116 0.035935387 -0.039083503 0.026526012 0.062101733 -0.0006402228
0.012970287 -0.05767926 0.0025328945 -0.1529021 0.116592646 -0.036247607 -0.14327917 0.24529387
0.23915581 0.02446175 -0.007329872 -0.13596426 0.23662204 -0.15269147 0.004284194 0.05215951
-0.018746754 0.098131254 0.06405612 0.0071207085 0.10244546 0.11096546 -0.12435057 0.012972053
0.24171749 -0.1652428 -0.5221006 0.043614358 0.066429205 0.0054693045 -0.2612921 -0.38656884
0.084936365 -0.504715 0.249056 0.009820017 -0.2115397 0.0970577 0.38834563 -0.0012872368
0.3983689 0.13515511 -2.4354787 -0.046537954 -0.020578891 -0.086298995 -0.06299384 0.9506152
0.03212022 0.037051585 -0.11960616 0.048773777 0.039396543 0.23534493 0.0014623733 -0.8891148
-0.41199028 0.21492082 0.010775649 -0.06737083 0.005854675 0.06104061 0.027516307 0.014265636
-0.06335233 -0.01307211 0.13252908 -0.15818204 0.027285725 0.013100085 -0.080173835 -0.017797804
0.3629329 0.08739193 -0.06757699 -0.06238349 0.16279101 -0.07056792 -0.051042993 0.09505665
-0.08541002 -0.06517468 -0.061216146 -0.066905126 0.05045218 -0.07853414 0.04296931 0.13566947
0.1776972 -0.033340655 -0.46884495 0.19133717 0.021947768 0.4081153 -0.2364587 -1.0289547
0.0042860457 -0.4787157 0.19625284 0.04558385 -0.3254415 0.14419055 -0.013559905 0.033603266
0.30495808 0.25825617 -0.18129861 0.03644305 0.11676769 0.15766503 -0.11006073 -0.29269004
0.0016824229 0.34377456 -0.12197838 0.13858789 0.05219522 0.118855044 0.056235336 -0.39623803
-1.9085852 0.29988712 0.082273476 0.22514813 0.03375003 0.18491714 -0.026402973 -0.17623462
-0.19665933 0.08252107 -0.06408669 -0.18944262 -0.06342618 -0.028096229 0.008206704 0.13227424
0.46745092 -0.04886008 0.13383552 0.094874345 0.02303485 -0.027961476 0.13075392 0.26865944
0.07939363 -0.07079665 0.1335209 0.08789675 0.13153675 0.05976446 -0.6873767 -0.07548086
0.06427122 -0.07068462 -0.12168455 0.08664579 -0.3503187 -0.722071 -0.05935224 -0.90170276
0.05287083 -0.059305184 0.3125514 0.059196204 -0.040842988 0.2236001 0.029321473 -0.07870525
0.22658621 0.26152986 -0.28504398 0.35222566 -0.017497733 0.16148427 -0.025044354 -0.98458296
0.019972691 -0.54219353 -0.11416995 0.2756177 0.07630532 0.09861047 0.06771703 -0.5377142
-1.2253228 0.1869965 0.2868769 0.0063917986 -0.19645986 -0.05577408 -0.15140106 -0.23025149
-0.016781583 0.17448106 0.27540627 -0.37493494 -0.039730933 0.2597538 -0.3390913 0.20007789
-0.92682046 0.05167235 -0.07638996 -0.11246147 1.1471213 -0.10508369 -0.17993957 -0.06584533
-0.15812929 -0.10227267 0.12281501 0.040155537 -0.06376071 -0.06927192 -2.5389261 0.011312159
0.34169644 0.1559883 -0.2637011 -0.3337913 0.09614731 -1.9588745 -0.14849323 -9.169327
-0.15305251 -0.25112024 0.2995232 0.043433618 -0.09937456 0.44336092 0.6687756 -0.01896216
3.6623678 0.089802 -5.308258 0.04509424 -0.06221655 0.17035191 -0.1628795 0.7869065
00000000: 3270 d43d a79a 19be 314f 4dbd 2a0e 1d36
00000010: 2502 e73d f948 1d3e bfb0 aa3d 54fe 8ac0
00000020: c01f 133f e9b3 083e 85f8 4f3d fc30 133d
00000030: 0616 20bd 144d d93c 635e 7e3d a0d4 27ba
00000040: 5481 543c 1641 6cbd ebfe 253b 5e92 1cbe
00000050: 20c8 ee3d 5f78 14bd c6b7 12be 512e 7b3e
00000060: 43e5 743e 0264 c83c 6c2f f0bb 373a 0bbe
00000070: 0c4d 723e 275b 1cbe 6d62 8c3b 36a5 553d
00000080: cb92 99bc 0af9 c83d db2f 833d d554 e93b
00000090: edce d13d dc41 e33d 83ab febd bc88 543c
000000a0: ca84 773e 6935 29be 63a8 05bf f8a4 323d
000000b0: 090c 883d da37 b33b 14c8 85be 5aec c5be
000000c0: 1ef3 ad3d 0135 01bf 8908 7f3e 23e4 203c
000000d0: dd9d 58be 30c6 c63d 3dd5 c63e 80b8 a8ba
000000e0: 02f7 cb3e 1a66 0a3e e2de 1bc0 959e 3ebd
000000f0: 1095 a8bc 87bd b0bd ea02 81bd 855b 733f
00000100: 7e90 033d 67c3 173d 13f4 f4bd 03c7 473d
00000110: 455e 213d 43fe 703e 1bad bf3a 079d 63bf
00000120: 64f0 d2be 3414 5c3e 598c 303c b8f9 89bd
00000130: 93d8 bf3b b805 7a3d e169 e13c 6aba 693c
00000140: debe 81bd 672c 56bc b4b5 073e 79fa 21be
00000150: 5086 df3c bda1 563c 2e32 a4bd b3cc 91bc
00000160: 57d2 b93e 8afa b23d ce65 8abd d585 7fbd
00000170: b0b2 263e ea85 90bd 7512 51bd 10ad c23d
00000180: 73eb aebd 4d7a 85bd c8bd 7abd 8e05 89bd
00000190: f2a6 4e3d 82d6 a0bd 9600 303d f0ec 0a3e
000001a0: 41f6 353e 3690 08bd 720c f0be e4ed 433e
000001b0: cecb b33c 7df4 d03e 3b22 72be cab4 83bf
000001c0: f571 8c3b 391a f5be 81f6 483e 22b6 3a3d
000001d0: 45a0 a6be b0a6 133e 5d2a 5ebc 94a3 093d
000001e0: 7723 9c3e 273a 843e 58a6 39be 4f45 153d
000001f0: e623 ef3d f172 213e 8567 e1bd 78db 95be
00000200: bf84 dc3a 3803 b03e cdcf f9bd fce9 0d3e
00000210: a8ca 553d 466a f33d 0657 663d b6df cabe
00000220: 854c f4bf ce8a 993e ff7e a83d 3b8d 663e
00000230: 793d 0a3d eb5a 3d3e 0c4b d8bc d976 34be
00000240: 1061 49be cf00 a93d e23f 83bd 3ffd 41be
00000250: 96e5 81bd 102a e6bc 6975 063c e672 073e
00000260: ba55 ef3e 8221 48bd 2e0c 093e 7b4d c23d
00000270: 95b3 bc3c 770f e5bc 5be4 053e bb8d 893e
00000280: 2199 a23d d6fd 90bd b4b9 083e 3603 b43d
00000290: 92b1 063e 94cb 743d ebf7 2fbf b695 9abd
000002a0: a1a0 833d 19c3 90bd c035 f9bd 5973 b13d
000002b0: f95c b3be a5d9 38bf 561b 73bd fed5 66bf
000002c0: 158f 583d fee9 72bd bd06 a03e b877 723d
000002d0: fa4a 27bd 6df7 643e 9633 f03c 3830 a1bd
000002e0: 3706 683e 3ee7 853e 49f1 91be ec56 b43e
000002f0: 6857 8fbc 225c 253e d129 cdbc a10d 7cbf
00000300: c59d a33c 32cd 0abf efd1 e9bd c31d 8d3e
00000310: f745 9c3d 49f4 c93d 3aaf 8a3d a3a7 09bf
00000320: 61d7 9cbf 037c 3f3e 87e1 923e 4b72 d13b
00000330: c62c 49be 5d73 64bd e108 1bbe 0cc7 6bbe
00000340: 8879 89bc 2aab 323e 0d02 8d3e 79f7 bfbe
00000350: e7bc 22bd 73fe 843e 609d adbe 38e1 4c3e
00000360: 1b44 6dbf 63a6 533d 5772 9cbd 3352 e6bd
00000370: dfd4 923f 1e36 d7bd 1442 38be ebd9 86bd
00000380: a5ec 21be 5574 d1bd 7086 fb3d 227a 243d
00000390: fa94 82bd 70de 8dbd c47d 22c0 a256 393c
000003a0: d6f2 ae3e 66bb 1f3e d503 87be b1e6 aabe
000003b0: e2e8 c43d 66bc fabf 9c0e 18be 90b5 12c1
000003c0: ccb9 1cbe d592 80be 1b5b 993e 73e7 313d
000003d0: e484 cbbd 3400 e33e e134 2b3f 8856 9bbc
000003e0: 3c64 6a40 1cea b73d 40dd a9c0 bdb4 383d
000003f0: c8d6 7ebd bb70 2e3e e2c9 26be b472 493f

layers.2.bias f4 [64]
0.045546945 0.0541463 0.15317668 -0.12413571 -0.003089001 -0.13225979 -0.06443266 -0.033443358
-0.03247051 0.0019513933 -0.112804666 0.06612024 0.0136333695 0.10187602 -0.076601505 -0.052595392
-0.005704718 -0.06028019 0.08856045 0.1475996 -0.16466264 -0.10376561 -0.044534773 -0.07053465
0.018854681 -0.019541793 -0.04437291 -0.07332673 -0.04661246 -0.12212293 0.07962334 -0.04169101
0.056274343 0.045192305 0.20288616 0.222588 -0.02945967 -0.05247314 -0.06741672 0.13814352
0.037425514 -0.07481068 -0.0076527367 0.08912007 -0.13526076 -0.1065454 -0.025170725 0.08503081
0.05127723 -0.050806522 -0.056274343 -0.03728934 0.1023064 -0.06749944 0.16017625 -0.05070968
-0.11741865 -0.10269007 0.1154895 0.015717931 0.05520218 -0.09349465 -0.061582193 -0.028737437
00000000: 6f8f 3a3d 83c8 5d3d 59da 1c3e dd3a febd
00000010: d670 4abb 1c6f 07be 45f5 83bd e7fb 08bd
00000020: ccff 04bd e5c5 ff3a 2206 e7bd 0c6a 873d
00000030: 7f5e 5f3c 60a4 d03d 40e1 9cbd 446e 57bd
00000040: a5ee babb 5ce8 76bd 2e5f b53d 5924 173e
00000050: 539d 28be 1083 d4bd 186a 36bd 7874 90bd
00000060: 2275 9a3c 1c16 a0bc 5ec0 35bd 532c 96bd
00000070: b5ec 3ebd 961b fabd 9011 a33d 31c4 2abd
00000080: ed7f 663d 911b 393d 64c1 4f3e 1cee 633e
00000090: 6855 f1bc 13ee 56bd c711 8abd 7f75 0d3e
000000a0: 7f4b 193d 5736 99bd cfc3 fabb 9584 b63d
000000b0: cc81 0abe 7a34 dabd d632 cebc a224 ae3d
000000c0: 1308 523d 801a 50bd ed7f 66bd b5bc 18bd
000000d0: 0586 d13d 253d 8abd 3e05 243e f4b4 4fbd
000000e0: 3079 f0bd 2c4f d2bd c285 ec3d e4c2 803c
000000f0: ae1b 623d 207a bfbd 9c3d 7cbd c66a ebbc

layers.4.weight f4 [64, 64]
0.21998234 0.08300336 0.04642349 0.33225352 0.30427212 1.0989898 -0.030749196 0.10369168
0.029561609 0.8669209 0.12954974 0.11014996 0.13273749 -0.041173562 0.11913063 0.056047473
-0.20978674 0.9521078 0.05662128 0.03630962 0.5454525 0.311389 0.013494125 0.17058165
0.20885159 0.12093961 0.21276847 0.18484941 0.14498839 2.2769287 -0.041445363 0.22492208
0.025896206 0.2149896 0.14821047 0.1586319 0.039514944 0.086540736 -0.0071497182 0.1350127
0.58840114 0.22615191 0.1169548 0.08330828 0.020973697 -0.01202561 0.21841827 0.08527939
-0.025538942 -0.079707965 0.54220307 0.22013155 0.026925137 0.12883724 0.022979395 0.4819849
-0.052372128 3.122665 0.11473761 -0.007989959 0.20704478 0.6024834 -0.01097852 0.06482152
-0.37157008 -0.11450139 0.2364463 -0.5794881 -1.7937927 -4.552547 -0.044864103 -0.08453418
-0.019597277 -2.038926 0.012102738 0.029871546 -0.04860203 0.1415475 -0.85759026 -0.83161896
0.021670086 -7.6647625 0.10798384 0.042764913 -5.9279466 -0.16612643 0.021486046 -0.9118084
0.21562131 0.10059065 -0.3329665 -0.28622428 0.19252132 -17.204365 -0.08345817 -2.130874
-0.12988012 0.008224075 0.007362912 0.24376455 -0.075445786 -0.02247038 0.04821674 0.17830248
-1.7828441 -1.3735185 -1.0745426 -0.62171626 0.0071259574 -0.123435155 0.056543797 0.011914678
-0.018071529 0.020324782 -8.461251 0.17435272 0.130782 -0.04592301 0.099147044 -3.2302015
-0.090563685 -11.471237 -0.03992642 0.019899666 0.1972299 -6.086897 0.09667887 -0.9094006
-0.0010526815 -0.040146563 -0.012173375 -0.04217677 -0.09756466 0.020409394 0.025233284 0.056459904
0.0213767 -0.047243416 0.055549152 -0.06487416 -0.13227688 0.015196081 0.08522361 -0.12547824
-0.10897598 0.0144045055 -0.03220717 -0.13490278 -0.10717814 -0.12084763 -0.07498799 0.01759513
0.007228784 -0.062626354 0.07726537 -0.025405254 -0.007846977 0.04603313 -0.04858859 -0.033316642
0.064484924 -0.05953223 0.035160568 -0.06497957 -0.08056186 0.050568108 0.06342724 -0.02166037
0.100885496 -0.0875523 0.03216561 -0.0048270165 0.07428528 0.03778194 0.020216286 0.042760283
0.04913906 0.046630636 0.054521408 -0.085586414 -0.100835264 0.07166898 -0.09271418 0.020563211
-0.094203815 -0.09231517 0.07815504 -0.054817248 -0.017601237 -0.067015626 -0.0059076548 0.04454863
0.08870302 -0.1387025 -0.017257055 -0.1337722 0.034970883 -0.002779787 -0.07570434 -0.007684365
-0.101458356 -0.07428302 -0.038103126 -0.06901179 -0.08421912 0.023496283 0.017311988 0.039175063
-0.050066076 0.060124654 -0.027790735 0.05733391 -0.0835821 0.10080204 0.049200997 -0.073606774
0.024134224 0.0016304456 -0.11464289 0.015849741 0.090326265 -0.041790567 -0.113747545 -0.1334686
0.08469039 -0.06070724 0.037213556 0.018209623 -0.0060278242 0.040312327 0.06964457 -0.104017615
-0.010383216 -0.04700507 -0.11327748 -0.055742186 -0.11414279 -0.04380682 0.04211646 0.066734485
-0.08451536 -0.0846148 0.037944436 0.064293906 -0.13085285 -0.086257465 -0.027684076 -0.07166136
-0.02423735 0.046546828 -0.02758599 -0.007282541 -0.025762876 -0.026518753 0.0922821 0.035728022
00000000: 0d43 613e aafd a93d 8f26 3e3d 221d aa3e
00000010: 8ec9 9b3e b3ab 8c3f bde5 fbbc 4e5c d43d
00000020: 302b f23c 87ee 5d3f b0a8 043e 4d96 e13d
00000030: 56ec 073e 9ca5 28bd c2fa f33d 0992 653d
00000040: 56d2 56be 56bd 733f b7eb 673d 65b9 143d
00000050: c6a2 0b3f 616e 9f3e 7616 5d3c f5ac 2e3e
00000060: 31dd 553e 30af f73d fadf 593e 2a49 3d3e
00000070: d677 143e 33b9 1140 9dc2 29bd f951 663e
00000080: 4824 d43c 3c26 5c3e 7cc4 173e 6770 223e
00000090: 6cda 213d 453c b13d 2f48 eabb c540 0a3e
000000a0: 75a1 163f 5e94 673e 0086 ef3d 889d aa3d
000000b0: 08d1 ab3c 1007 45bc 0aa9 5f3e f6a6 ae3d
000000c0: 0b37 d1bc ee3d a3bd d2cd 0a3f 2a6a 613e
000000d0: 1b92 dc3c e9ed 033e 493f bc3c bac6 f63e
000000e0: 2884 56bd bed9 4740 8dfb ea3d 51e8 02bc
000000f0: 8c03 543e 5a3c 1a3f 40df 33bc 25c1 843d
00000100: 6f3e bebe b47f eabd fb1e 723e 5559 14bf
00000110: 009b e5bf 77ae 91c0 6cc3 37bd 4220 adbd
00000120: 788a a0bc c37d 02c0 904a 463c 2cb5 f43c
00000130: ec12 47bd d4f1 103e 098b 5bbf fbe4 54bf
00000140: 7785 b13c bc45 f5c0 a226 dd3d 432a 2f3d
00000150: bdb1 bdc0 0c1d 2abe 8103 b03c 466c 69bf
00000160: d5cb 5c3e 7902 ce3d 967a aabe fd8b 92be
00000170: 4f24 453e 8aa2 89c1 1eec aabd 3d60 08c0
00000180: 4bff 04be 45be 063c 9544 f13b 6a9d 793e
00000190: 5283 9abd cd13 b8bc eb7e 453d ed94 363e
000001a0: 3c34 e4bf 74cf afbf 9d8a 89bf cc28 1fbf
000001b0: dd80 e93b 92cb fcbd 789a 673d c835 433c
000001c0: be0a 94bc 2880 a63c 4961 07c1 8589 323e
000001d0: b7eb 053e c419 3cbd 9b0d cb3d 9fbb 4ec0
000001e0: 7479 b9bd 308a 37c1 e389 23bd a004 a33c
000001f0: a3f6 493e dcc7 c2c0 92ff c53d 7ace 68bf
00000200: 21fa 89ba b970 24bd d672 47bc 8cc1 2cbd
00000210: fbcf c7bd 9a31 a73c 08b6 ce3c 8042 673d
00000220: 301e af3c 5082 41bd 8287 633d bedc 84bd
00000230: 9773 07be fcf8 783c b789 ae3d 5e7d 00be
00000240: cc2e dfbd e000 6c3c aaeb 03bd f423 0abe
00000250: 3680 dbbd f67e f7bd 4e93 99bd a923 903c
00000260: 6fdf ec3b 3f42 80bd 4e3d 9e3d ae1e d0bc
00000270: 9b90 00bc 3c8d 3c3d d404 47bd 0877 08bd
00000280: ac10 843d 11d8 73bd 8704 103d 0214 85bd
00000290: 9efd a4bd 8120 4f3d 24e6 813d 1771 b1bc
000002a0: 0e9d ce3d 9f4e b3bd 16c0 033d f32b 9ebb
000002b0: e222 983d 3cc1 1a3d a09c a53c 6825 2f3d
000002c0: 0a46 493d c4ff 3e3d d751 5f3d ee47 afbd
000002d0: b882 cebd 30c7 923d efe0 bdbd 2e74 a83c
000002e0: eeed c0bd bc0f bdbd c00f a03d 0d88 60bd
000002f0: 7830 90bc 7d3f 89bd 0095 c1bb a078 363d
00000300: eea9 b53d 0708 0ebe ab5e 8dbc 94fb 08be
00000310: a13d 0f3d 162d 36bb e10a 9bbd 20cd fbbb
00000320: 66c9 cfbd b221 98bd 0612 1cbd 0e56 8dbd
00000330: 137b acbd 477b c03c dfd1 8d3c 0876 203d
00000340: 1612 4dbd 4545 763d 65a9 e3bc f6d6 6a3d
00000350: 182d abbd 4d71 ce3d fc86 493d 26bf 96bd
00000360: 23b5 c53c adb4 d53a e4c9 eabd 51d7 813c
00000370: fafc b83d 962c 2bbd 79f4 e8bd feab 08be
00000380: 2872 ad3d 28a8 78bd 3e6d 183d 592c 953c
00000390: 0e85 c5bb 8a1e 253d d0a1 8e3d 3007 d5bd
000003a0: 5d1e 2abc 6388 40bd 06fe e7bd eb51 64bd
000003b0: b2c3 e9bd c86e 33bd 4f82 2c3d 17ac 883d
000003c0: 6416 adbd 864a adbd a06b 1b3d 86ac 833d
000003d0: 4afe 05be c1a7 b0bd b7c9 e2bc 31c3 92bd
000003e0: 688d c6bc e3a7 3e3d 04fc e1bc 62a2 eebb
000003f0: ab0c d3bc db3d d9bc 66fe bc3d 8c57 123d

layers.4.bias f4 [64]
-0.03324619 -0.2243589 -0.012625129 0.09218512 0.07370793 0.08958097 0.024023259 -0.053107228
-0.09333025 0.011712358 0.07126341 0.03926798 -0.07282942 0.12054892 -0.07442005 -0.11505316
0.13551264 0.16688336 -0.059065312 -0.014612064 -0.20883259 0.048288364 0.14730522 0.15367514
-0.062930435 -0.03998384 0.047220793 -0.07305908 -0.12653461 -0.11220446 -0.08528141 0.08072766
0.011806533 0.004827026 0.14602226 0.11350722 -0.06660861 -0.10433154 -0.020696111 -0.20096834
-0.122341335 0.03984357 0.07524982 -0.078901246 0.020955028 0.061567374 0.25078014 -0.017233215
-0.078689344 -0.02832072 0.111979425 0.0032543363 -0.094426714 -0.11231776 0.054022264 0.12127063
0.046218764 0.03753934 0.044703558 0.03512358 0.066779286 0.1375427 -0.24052979 -0.047469605
00000000: 282d 08bd 57be 65be a1d9 4ebc 8dcb bc3d
00000010: 2ff4 963d 3a76 b73d 6dcc c43c f786 59bd
00000020: ee23 bfbd 31e5 3f3c 8df2 913d 76d7 203d
00000030: 9727 95bd 5ae2 f63d 8a69 98bd fea0 ebbd
00000040: d3c3 0a3e 79e3 2a3e 78ee 71bd 7067 6fbc
00000050: 36d8 55be 05ca 453d 2ed7 163e 045d 1d3e
00000060: ace1 80bd 18c6 23bd 976a 413d 00a0 95bd
00000070: 4a92 01be 74cb e5bd 05a8 aebd 8b54 a53d
00000080: 3070 413c 072c 9e3b dc86 153e 7976 e83d
00000090: 186a 88bd c6ab d5bd e48a a9bc a5ca 4dbe
000000a0: 188e fabd 0333 233d 941c 9a3d fa96 a1bd
000000b0: e1a9 ab3c 122e 7c3d 4166 803e ac2c 8dbc
000000c0: e127 a1bd db00 e8bc 7855 e53d b446 553b
000000d0: cb62 c1bd db06 e6bd 7346 5d3d bc5c f83d
000000e0: e34f 3d3d dac2 193d 141b 373d bedd 0f3d
000000f0: 94c3 883d fed7 0c3e 714d 76be 7d6f 42bd

out.weight f4 [1, 64]
-0.15630716 0.83141166 0.102503836 0.10822546 -0.5060624 -0.22825189 -0.1838189 -0.06430498
-0.37184277 -0.23743561 0.06943846 0.02554393 2.9693475 -0.14388484 3.7023513 0.4109873
-0.16551487 -0.19693618 -0.026953546 0.11580047 1.8357037 -0.25136733 -0.16722386 -0.20738637
0.03891918 -0.25041738 0.097054295 -0.029480448 0.812285 -0.11008409 0.64278364 -0.1984285
-0.065690845 -0.24175408 -0.20011963 -0.19179624 0.09168862 -0.07888729 0.052589387 0.7896325
0.05245703 0.022764537 -0.15709634 0.078197785 0.044993263 -0.22859935 -0.2276908 0.68472445
0.0095186345 0.00652673 -0.16546908 -0.22290772 -0.04630361 -0.0057217577 -0.18046984 -0.21954437
-0.20007434 0.04845601 -0.19114038 0.0008701296 0.3651455 -0.22245032 0.8393793 -0.21639182
00000000: fc0e 20be 65d7 543f 88ed d13d 4fa5 dd3d
00000010: 4e8d 01bf ddba 69be 063b 3cbe 54b2 83bd
00000020: 2d62 bebe 5222 73be c035 8e3d 8141 d13c
00000030: ca09 3e40 8c56 13be 53f3 6c40 ed6c d23e
00000040: bb7c 29be a3a9 49be afcd dcbc cc28 ed3d
00000050: 57f8 ea3f 38b3 80be bb3c 2bbe 185d 54be
00000060: b869 1f3d b536 80be 67c4 c63d fb80 f1bc
00000070: e9f1 4f3f c473 e1bd 788d 243f d730 4bbe
00000080: ec88 86bd 628e 77be 29ec 4cbe 3c66 44be
00000090: 3ec7 bb3d a98f a1bd f867 573d 5b25 4a3f
000000a0: 2fdd 563d b27c ba3c dddd 20be 2926 a03d
000000b0: db4a 383d f315 6abe c727 69be 1a4a 2f3f
000000c0: 0cf4 1b3c 2ede d53b ba70 29be ec41 64be
000000d0: dba8 3dbd 957d bbbb 16cd 38be 3dd0 60be
000000e0: 4ae0 4cbe cf79 463d 4eba 43be 6919 643a
000000f0: 5af4 ba3e 04ca 63be 90e1 563f d195 5dbe
