models/model_4900000_train_44200_epoch_192_neurons_boxcox_scaler.pt (torch, 38067 bytes, 7 tensors)

layers.0.weight f4 [64, 5]
00000000: 3ed4 863e 60e0 2dbc 2a3b 24bf 131b 2f3e
00000010: 4cb4 213e e691 d1bd 2032 f83a 04ac c93d
00000020: da91 06be 92c1 f83e 6f70 ca3e 745c ba3e
00000030: ac2a 823e 8706 503e f96d af3e b785 b73e
00000040: 9ec7 53be 8f68 473e 670e 80bd c215 84bf
00000050: a92e 153c cd43 a2be 74ac 013d 1262 ce3e
00000060: b955 41be a743 b03e 5cb3 98be c42f b7be
00000070: 84e0 f8bd 2d15 5cbe 7759 963e 6c61 a5be
00000080: af0c ddbd a19b 73be 018a 29be 9164 78bf
00000090: 8f73 f83e 9847 67bf ae15 75b9 bbdf b539
000000a0: 78b2 543b 99e4 53bc 7382 8fc0 c9ad ecbb
000000b0: ae40 9ebb 61c4 b93e 4d48 4fbe 8b48 c9be
000000c0: ad6c 563e 57fe c9be 2616 413e 1d67 ddbd
000000d0: 60b5 333e 92dd 333e 1be4 63bf d142 15bf
000000e0: 49f1 463e bc87 9f3e afa6 15be 8e18 b9be
000000f0: cdd7 0b3e 1f4a 9d3e 4b4a b13e 6b50 a4be
00000100: 3e33 f73e 9184 073f b5d2 bebe fc07 04bc
00000110: 8f47 b43a c53b e0ba 6cef 593e 42e3 febe
00000120: df40 bb3e bdbb 98bd 968d c73e e5e6 eabd
00000130: 33f5 cebd d027 bb3e d08f c33e 73ae db3e
00000140: 968c 0ebf 1e8d b93e fe91 90be 6221 aebd
00000150: fa4f 19bd 9e3a 65be 7f81 c33c d786 803d
00000160: 7a9e 14bd f5a7 7ebe e50e 213e eb7f 5eba
00000170: b12b d73e 4fad f83c 79f8 abbf ab04 9e3e
00000180: f8e9 0abe 33ea f63e b06e 1fbe af04 073f
00000190: 3aba eb3d c5c4 3d3e b839 d5be 31f4 c039
000001a0: 2b35 04be a08f 47be 9144 bfbc 8581 103e
000001b0: 4add b03e b362 85be f234 ba3d ffc1 89bd
000001c0: c85c 903e 09b5 eb3e be04 383f f889 023e
000001d0: 916c 06bc 5309 ca3e 51fc 1a3d 7378 11bf
000001e0: a700 a5be 2824 993e 3aab b8c0 a50e 8e3b
000001f0: ec34 023f d969 813e aba8 e23e f02f bcbe
00000200: d4fc 2e3c 6e8b 87be 0019 5abd 86b9 35be
00000210: d472 d4be a1e1 b03e 1be6 3c3b 1bdf 89bd
00000220: 7e3e c43e f2c0 f43e a680 7cbc fbb2 fd3e
00000230: af5a ca3c bae4 c7ba 5c9f a2c0 769a 81bb
00000240: 7df0 f53e 7d38 b83d a9a7 8b3e fa6c c63e
00000250: 6b58 763e 7824 ff3e 38dc 8fbe 05af a03e
00000260: 31d4 e4bd 5da5 9f3e 3f36 4e3e f9ec db3e
00000270: 8b02 efbe 39a5 2d3c f1fa 113d 31e0 dfbb
00000280: 8779 673d bfbe b73e 4972 253e f1c1 46bd
00000290: d486 5b3e 6d6f 24bc f3af 3fbd 074c 22bc
000002a0: b552 7dbc 1616 0e3c 65f0 b6bc 9eac 023e
000002b0: f45c 873d 9e15 c7bb 4059 b9be dc81 7bbe
000002c0: 9585 9c3e 72a2 2a3e 9eb3 3a3b a4d1 bfbd
000002d0: 18a7 ddbb 25c4 1ebf ce09 d33b 72c5 e139
000002e0: bbdf cd3d 622b 49be 2d46 a0be 156d c2bd
000002f0: c82d d5be 29ab ee3d 3a25 633b 6ab5 913c
00000300: a446 d7c1 f8f2 ce3b 3cb8 10bc 343e cdbc
00000310: ea0d 2bbe 5ff9 c73e 6e1f 443c c205 11bc
00000320: 6401 463c a8ad 44bd a60c 1f3f e83c babb
00000330: 5747 73bf fdef 8abe 536a 383e 8400 b23b
00000340: f529 ee3b fdf3 cbbc 3958 2ebf 489d 943e
00000350: a0bc 2ebd fb79 98bb 5246 5bbd 5f23 523e
00000360: f2a0 25be 30ec 92bf 172c 26bd 1571 e73d
00000370: 96e8 593d 9419 cf3e 68d8 e53d 012f e63b
00000380: 5c27 59be 1c45 98bb 6102 5c3c 8dd0 73c1
00000390: e691 8539 cb48 743e e0f4 0ebf f725 5b3e
000003a0: 8ff2 b5bc 2e6c 6dbb cc5e d1bc 1053 53bf
000003b0: c68c c63e 747a d8bd 9c80 b83a 5ad5 1bbe
000003c0: c453 893e 77b3 5abe d83c 52bf 62aa cbbd
000003d0: 83a5 403e 7718 5abf 8186 c03e 2e26 3bbd
000003e0: e058 62bb db06 c7bd cc1f 803e 95d6 c33e
000003f0: efa7 a3be 454e 633c 2e21 ecbe 3ee1 a03e
0.26333803 -0.010612577 -0.6415278 0.17100172 0.15791434 -0.10232906 0.0018935837 0.098472625
-0.13141575 0.48585182 0.39538905 0.3639866 0.2542318 0.2031499 0.3426359 0.35844204
-0.20681617 0.1947348 -0.06252747 -1.031914 0.009105363 -0.31692353 0.031658605 0.40309197
-0.18880357 0.34426615 -0.2982434 -0.3577863 -0.12152198 -0.21492453 0.2936513 -0.3230089
-0.10793435 -0.23789836 -0.1655655 -0.9702845 0.48525664 -0.9034362 -0.00023373097 0.00034689702
0.0032455008 -0.01293292 -4.484674 -0.0072228652 -0.0048294878 0.36282638 -0.20242424 -0.39313158
0.20939894 -0.39451858 0.18856105 -0.10810683 0.17549658 0.17564991 -0.89019936 -0.5830508
0.1942798 0.31158245 -0.14614366 -0.36151546 0.1365654 0.30720612 0.34626994 -0.32092604
0.48281282 0.52936655 -0.37270132 -0.008058544 0.0013754236 -0.0017107656 0.21282738 -0.4978276
0.3657293 -0.07457683 0.3897521 -0.11469821 -0.10105362 0.36553812 0.38195658 0.42906532
-0.5568327 0.36240476 -0.28236383 -0.08502461 -0.037429787 -0.22385642 0.02386546 0.06275719
-0.036283948 -0.24868758 0.15728338 -0.0008487689 0.4202552 0.030356077 -1.3435203 0.30862936
-0.13565814 0.48225555 -0.15569568 0.5274152 0.11510129 0.18532093 -0.41645598 0.0003680303
-0.12910907 -0.19488382 -0.023348125 0.14111908 0.3454383 -0.26051864 0.0909213 -0.06726455
0.28195786 0.46036556 0.71882236 0.12747943 -0.008204595 0.3946024 0.037838284 -0.56824416
-0.3222706 0.29910398 -5.7709017 0.004335242 0.50862 0.25276068 0.44269308 -0.36755323
0.010680396 -0.26473564 -0.053246498 -0.17746553 -0.41493857 0.3454714 0.0028823677 -0.06732007
0.38328928 0.47803456 -0.015411532 0.49550614 0.024701444 -0.0015250661 -5.081953 -0.0039551808
0.4803504 0.08995149 0.27276352 0.38755018 0.24057166 0.4983251 -0.280977 0.3138353
-0.11173285 0.3118085 0.2013788 0.42954233 -0.46681628 0.010598474 0.035639707 -0.0068321456
0.056512382 0.35887715 0.16156878 -0.0485248 0.21438152 -0.010036332 -0.046798658 -0.009905822
-0.015461613 0.008672258 -0.022331426 0.1276116 0.06609526 -0.006075575 -0.36200905 -0.24561256
0.30570665 0.1666353 0.0028488408 -0.09366158 -0.006764304 -0.6201804 0.006440378 0.00043062452
0.10052439 -0.19645455 -0.3130354 -0.09493462 -0.4163649 0.1165374 0.003465964 0.0177867
-26.909492 0.006315585 -0.008832987 -0.025054075 -0.16704527 0.39057443 0.011970384 -0.00885147
0.0120852925 -0.048017174 0.62128675 -0.00568353 -0.9503073 -0.27136222 0.1800931 0.0054321904
0.0072681853 -0.024896616 -0.6810337 0.29026246 -0.042660356 -0.004653213 -0.05353386 0.20521306
-0.16174677 -1.1478329 -0.04056939 0.113008656 0.053200327 0.40449202 0.11222917 0.0070246463
-0.2120642 -0.0046469104 0.013428302 -15.238416 0.0002547644 0.23855893 -0.558424 0.21401201
-0.022210388 -0.003622781 -0.025557898 -0.8254862 0.38779277 -0.10570231 0.0014076415 -0.15218106
0.2682172 -0.21357523 -0.8212409 -0.09944607 0.18813138 -0.8519358 0.37602618 -0.045690708
-0.0034537837 -0.097181045 0.2502426 0.3824965 -0.3196406 0.013873641 -0.46119064 0.31421846

layers.0.bias f4 [64]
00000000: 34ef bbbd c9ed 023f 9f10 45be 44e4 be3d
00000010: 372f ef3e c144 e13e 356e da3e c60c 793e
00000020: c2dc 70bb cc66 ab3e 88b6 e73c 03f4 ec3d
00000030: 28c7 a83e 17fd 37bd 1e18 b33e 1a40 3e3e
00000040: cd31 9e3e c138 c83e 7daa c0bd 6ea8 6d3c
00000050: 2d45 a4be f0ee f23e 7d58 bbbc 9781 84bd
00000060: 8022 21be a6bc 63be 7385 803e 8449 c83d
00000070: 5bde fa3a 088f 3ebe bfe6 ba3e ae75 edbd
00000080: f08e 23bc 00eb 7fbc e991 c53e e18d aa3e
00000090: 9456 ba3d d735 14be 5676 9a3d d410 313d
000000a0: 61cc b33c 6150 5a3e 975e 9f3e 2425 ea3d
000000b0: efae 76be d97e 0cbb 9a62 cc3e 4a29 7c3e
000000c0: c5ce 503e 46e7 9e3e f548 c63e f7f5 0c3e
000000d0: c062 93be 7b5e 823d 70bd ac3e ae89 34be
000000e0: 688c 403d 3ae3 d63e 6f5a 763e ab8a 153e
000000f0: 627d dcbe 80ff 2f3e 83f2 2c3e 41b2 6d3e
-0.09176484 0.5114408 -0.19244622 0.09320882 0.4671571 0.43997768 0.42662206 0.24321279
-0.0036752676 0.33476865 0.02828528 0.11569979 0.32964444 -0.0449191 0.34979337 0.1857914
0.3089737 0.391058 -0.09407518 0.014505489 -0.32084027 0.4744792 -0.022869343 -0.0647003
-0.15735817 -0.22239932 0.25101814 0.09779647 0.0019139753 -0.1860925 0.3650417 -0.11594711
-0.009982809 -0.015619993 0.38587883 0.3331137 0.09098545 -0.14473663 0.07542102 0.04322894
0.021948041 0.21319725 0.31126854 0.11432865 -0.2409017 -0.0021437912 0.39918977 0.24625126
0.20391376 0.31035823 0.38727537 0.13765703 -0.28786278 0.06365677 0.3373828 -0.17630646
0.0470089 0.41970235 0.24057935 0.14603679 -0.4306441 0.1718731 0.16889386 0.2321253

layers.2.weight f4 [64, 64]
00000000: b06c ce3d 2a41 23be 6804 72bd a0c8 103d
00000010: 80ca ed3d f6e5 263e bdc0 ac3d 6b2f d2c0
00000020: c01f 133f 1907 193e 665f 213d f692 d73d
00000030: dfa9 53bd 4741 063d 73b4 7e3d 49d3 babb
00000040: e2ce 3c3d 1de8 92bd f2e1 203d 8929 29be
00000050: 20c8 ee3d 91dc 1bbd ee28 1cbe d141 683e
00000060: b764 893e bd66 163d ba7c 673c 3771 1cbe
00000070: f1b7 9f3e 5bfa 28be 5e3a 19ba af97 5a3d
00000080: 5230 0abd 0af9 c83d 7530 753d f875 2d3b
00000090: e28b c43d dc41 e33d 0e44 8dbd 7f7a b43c
000000a0: a2c3 763e a575 7fbe 7651 fbbe 6009 8bba
000000b0: 72bd 9a3d 4c90 eb3d 3c2c 8fbe eda1 d43e
000000c0: 2362 0d3e 8c4f 2ebf 67b4 7b3e d2c7 ae3c
000000d0: ce55 85be 078a ed3d 9fee f43e 80b8 a8ba
000000e0: 5ac7 dc3e 108e 193e 1e2f 64c0 63ff 82bd
000000f0: 1095 a8bc 0e0d bcbd 53a8 99bd 076d 503f
00000100: d98d f43c 43fd ad3c 19a0 e3bd 3715 813d
00000110: afb0 293d d3d4 743e 1f33 c93b 9f61 9abf
00000120: 64f0 d2be 8eac 6c3e 69bb 8e3c 4a80 3bbc
00000130: 2fbf 3fbb ac1e 893d 0001 5a3c 5fb1 693c
00000140: d87f 32bd f31b 57bc 0471 393e a949 32be
00000150: 5086 df3c 3bf7 6e3c 8e00 a0bd 7b95 3abd
00000160: ae40 e53e eed4 873d 4ce8 97bd 5b36 8fbd
00000170: 5a23 263e 9ed5 85bd 67a8 59bd 97b0 d93d
00000180: 669c b5bd 4d7a 85bd b01b 7dbd ca59 8abd
00000190: 625d 793d 82d6 a0bd 8406 853b e307 bc3d
000001a0: 1b17 453e b8a7 c5bd a015 e7be d38d 753e
000001b0: 973b 303c 45f9 ec3e 399b 8dbe 1522 6cbf
000001c0: 9e9b 2dbc e4b9 09bf 2c29 4d3e 265b 1e3d
000001d0: 8b28 9dbe abc9 223e 13a8 63bb 94a3 093d
000001e0: 232e b63e ccad 863e 1405 69be bf9e 133d
000001f0: e623 ef3d 1164 203e 30be f0bd 287a eabe
00000200: f183 8ab9 7012 ae3e dd0e dabd 8857 173e
00000210: f638 603d f464 053e 58f9 513d f17f dcbe
00000220: 854c f4bf 9937 9f3e 50d7 bd3d 0812 823e
00000230: 9829 0a3d ca97 443e 2877 41bd 73c6 37be
00000240: 36ae 1abe a6e4 c53d 8e66 a7bd 58ca 4fbe
00000250: 96e5 81bd b4dc 5cbc f809 283c 349f f83d
00000260: fd60 ff3e d8a9 4abd 4cf1 013e dc1d be3d
00000270: 4e2e 093d fdb6 b3bc 2596 143e 1a55 913e
00000280: 2eaf c03d d6fd 90bd 1fbd 183e 8172 cb3d
00000290: b91c e03d 94cb 743d 2595 2dbf ab42 d9bd
000002a0: cfc8 133e 86de a3bd 8d94 d7bd 515f a93d
000002b0: 4fcb acbe 74d0 3abf fa4a acbd 0945 49bf
000002c0: 9b76 3f3d 6bdf ffbd 9e36 a03e 75f5 383d
000002d0: 3a1b e1bc 839a 6f3e 611e 7abd 3830 a1bd
000002e0: fbb9 773e 4858 893e 1d42 a0be 65eb be3e
000002f0: 6857 8fbc 4fae 283e b707 12bd 8f53 71bf
00000300: 53e4 403d 74d1 0dbf 8092 efbd 9aa3 9a3e
00000310: 2d67 8d3d 5f59 803d f084 463d bfa8 bd3f
00000320: 61d7 9cbf 1f67 353e a3c8 973e 2f12 e7bc
00000330: 4544 4ebe 158b a9bd ed8c 1fbe 0db0 71be
00000340: a43d ff3d 6ada 2d3e 9a00 a13e 5dd0 c1be
00000350: e7bc 22bd 7479 833e e5fe b5be 32d9 5e3e
00000360: 3bdb 7bbf c492 823d 8273 78bd 1600 eebd
00000370: 3f78 a53f e703 ddbd 2d82 40be 50c6 cabd
00000380: ecd6 21be 5574 d1bd 8a75 fd3d 321e 423d
00000390: ed9c f5bd 70de 8dbd 533b 42c0 baf9 313d
000003a0: 83d4 b93e 8b51 033e 548e babe 5ee8 9ebe
000003b0: 9e92 b23d e8c9 bbbf ccbc 02be a39c 87bf
000003c0: 73fb 01be 7d8b e9be 387e 973e d986 183d
000003d0: 3488 f7bc fbc0 e83e edad de3e 8856 9bbc
000003e0: 74cb 6940 a738 b13d 8e0e 48c0 ad96 f93d
000003f0: c8d6 7ebd ef81 2c3e c5c7 26be c226 8e3f
0.10079324 -0.15942827 -0.059086233 0.03534758 0.116108894 0.1629866 0.084351994 -6.5682883
0.5747032 0.14944114 0.03939762 0.105260774 -0.051675674 0.032777097 0.06218381 -0.0057014567
0.046095736 -0.07173178 0.03927798 -0.1651975 0.116592646 -0.038052145 -0.15249988 0.22681357
0.26834652 0.036719073 0.014128858 -0.15277563 0.31195024 -0.16501753 -0.0005845184 0.053367313
-0.033737488 0.098131254 0.059860665 0.002646802 0.09596993 0.11096546 -0.06897746 0.022031067
0.24098065 -0.24947222 -0.49085587 -0.0010607652 0.07555665 0.11502132 -0.27963436 0.4152979
0.13806967 -0.6809013 0.24580537 0.021335516 -0.26042026 0.11598592 0.47838303 -0.0012872368
0.43120843 0.14995599 -3.5653758 -0.063963674 -0.020578891 -0.091821775 -0.075028084 0.8141636
0.029852794 0.021238929 -0.111145206 0.063028745 0.041428264 0.23909311 0.0061401273 -1.2061042
-0.41199028 0.231127 0.017423349 -0.011444161 -0.0029258241 0.06695303 0.0133059025 0.01426348
-0.043578953 -0.013129222 0.18109518 -0.17410912 0.027285725 0.0145853115 -0.07812606 -0.045552712
0.4477591 0.0663241 -0.07417354 -0.06992789 0.16224423 -0.06534885 -0.053139117 0.10629385
-0.08867721 -0.06517468 -0.061793983 -0.06755407 0.060880072 -0.07853414 0.0040596146 0.09181192
0.19247095 -0.096511304 -0.45133686 0.23979883 0.010756395 0.46283928 -0.27657488 -0.92239505
-0.010596184 -0.5379927 0.20035237 0.038661145 -0.30694994 0.15897243 -0.0034737631 0.033603266
0.35582075 0.26304471 -0.22755843 0.036040064 0.11676769 0.15663172 -0.117550254 -0.45796323
-0.00026419715 0.33998442 -0.10647366 0.14779484 0.054741822 0.13026792 0.051263183 -0.43066362
-1.9085852 0.31097105 0.09269583 0.25404382 0.033731073 0.19198528 -0.047232777 -0.17946796
-0.15105519 0.09662752 -0.08173858 -0.20292032 -0.06342618 -0.013480354 0.010256283 0.121397406
0.49878684 -0.049478382 0.12689704 0.09283039 0.033491425 -0.021937842 0.145104 0.2838524
0.09408413 -0.07079665 0.14915894 0.09933949 0.109429784 0.05976446 -0.678057 -0.10608419
0.14432071 -0.08001427 -0.10526381 0.08270133 -0.33748862 -0.72974324 -0.08412738 -0.78620964
0.04674397 -0.124937855 0.3129167 0.04515596 -0.027478803 0.23398785 -0.061064128 -0.07870525
0.2419204 0.26825166 -0.3130044 0.37288967 -0.017497733 0.16472743 -0.03565189 -0.94268125
0.047092747 -0.55397725 -0.116978645 0.30202943 0.06904445 0.06267046 0.048466623 1.4817122
-1.2253228 0.17715119 0.2964526 -0.028206913 -0.2014323 -0.08278481 -0.15581103 -0.23602314
0.12462929 0.1697785 0.3144577 -0.3785428 -0.039730933 0.256786 -0.35546032 0.21762541
-0.98381394 0.063756496 -0.06065703 -0.1162111 1.2927321 -0.1079176 -0.18799658 -0.09901106
-0.15804642 -0.10227267 0.123759344 0.047392078 -0.11992822 -0.06927192 -3.0348709 0.04345105
0.36294946 0.12824075 -0.36436713 -0.31036657 0.08719371 -1.4670992 -0.12767333 -1.0594677
-0.12693577 -0.45614234 0.29588485 0.037237976 -0.030216314 0.45459732 0.4349207 -0.01896216
3.6530428 0.08653384 -3.1258883 0.12186942 -0.06221655 0.1684644 -0.16287144 1.1105578

layers.2.bias f4 [64]
00000000: 3158 363d a5e5 513d 4a2c 293e e6ec 04be
00000010: 3252 5dbc 2b35 07be 45f5 83bd e7fb 08bd
00000020: ccff 04bd d85f f0bc 5aab ffbd 2757 833d
00000030: 7f5e 5f3c ee14 e73d f0a6 99bd ef7a 5ebd
00000040: fcc5 b0bb a064 bcbd f135 c23d 12b0 0c3e
00000050: c929 32be a493 d5bd 186a 36bd 05f9 97bd
00000060: 31e0 0f3d 1c16 a0bc 0970 3bbd 670d 95bd
00000070: 27db 37bd 33a3 09be 9011 a33d c62a 4fbd
00000080: ed7f 663d c196 5d3d db3a 5c3e 5ac9 6b3e
00000090: 6855 f1bc 13ee 56bd c711 8abd 714f 173e
000000a0: a240 0b3d 20ae acbd 9903 33bc d610 ac3d
000000b0: cc81 0abe 7a34 dabd 0c3b 97bc eff5 883d
000000c0: c794 3b3d 801a 50bd 1d5e e2bd 8302 f0bc
000000d0: 2c68 ca3d 7a64 3dbd 7329 1b3e f4b4 4fbd
000000e0: 3079 f0bd 626e 06be c5e6 f03d 086a c83c
000000f0: 4f4b 6b3d 207a bfbd 9c3d 7cbd 7b2c ffbc
0.0445177 0.051244397 0.16520801 -0.12980995 -0.013508366 -0.13203876 -0.06443266 -0.033443358
-0.03247051 -0.029342577 -0.124838546 0.06413107 0.0136333695 0.11283289 -0.07502544 -0.054316457
-0.0053946953 -0.0919888 0.09482945 0.1373904 -0.17398752 -0.10428551 -0.044534773 -0.074205436
0.035125915 -0.019541793 -0.045761142 -0.07277947 -0.044886734 -0.13441162 0.07962334 -0.0505779
0.056274343 0.05409885 0.21506827 0.23026028 -0.02945967 -0.05247314 -0.06741672 0.14776398
0.033997186 -0.08431649 -0.010926151 0.08401649 -0.13526076 -0.1065454 -0.018460773 0.06687533
0.045796182 -0.050806522 -0.11053107 -0.029298073 0.098831505 -0.0462384 0.1515253 -0.05070968
-0.11741865 -0.13128045 0.11762766 0.024464622 0.057444867 -0.09349465 -0.061582193 -0.03114914

layers.4.weight f4 [64, 64]
00000000: 321f 633e a2da ad3d 04a7 3d3d 4bc8 993e
00000010: 11cc 9d3e 6f01 893f bde5 fbbc 4e5c d43d
00000020: 302b f23c 8ec8 573f 8738 0e3e 5b4f ec3d
00000030: 56ec 073e 8344 63bd 10e0 173e 5649 453d
00000040: 3222 52be beb0 763f 2139 7a3d a8ae 333d
00000050: 4ff7 103f f2e0 903e 7616 5d3c 9f76 243e
00000060: ece7 583e 30af f73d aebd 513e 328e 3d3e
00000070: 2e7e 153e 7dc7 0340 9dc2 29bd 3e00 3f3e
00000080: 4824 d43c 3a03 633e e3ce 183e f9df 2f3e
00000090: 6cda 213d 453c b13d 2f48 eabb d79c f73d
000000a0: 099f 163f 0ab6 5a3e 5e11 f13d 7e9a b23d
000000b0: 08d1 ab3c 1007 45bc 26a1 613e a172 853d
000000c0: d117 d3bc ee3d a3bd 9218 113f 2af7 653e
000000d0: 7cd9 b33c a89a ec3d 72cf 8d3c bac6 f63e
000000e0: 2884 56bd 8cd7 4740 3b59 f43d 6ac5 493b
000000f0: 6de3 5a3e 5a3c 1a3f 40df 33bc e1f9 123d
00000100: a3b3 c1be d901 f1bd d9f1 723e 0abd 37bf
00000110: dcd8 e6bf 8db8 8ac0 6cc3 37bd 4220 adbd
00000120: 788a a0bc 316b 02c0 c592 a53b 8937 193d
00000130: ec12 47bd ae1f 123e d33c 6ebf 590e 57bf
00000140: a3ee ef3c bc45 f5c0 239c ec3d b58a 2b3d
00000150: 224a 18c1 d6c2 31be 8103 b03c 294b 5cbf
00000160: e36a 5c3e 7902 ce3d f45a a9be 4da2 71be
00000170: 1b06 4d3e 4325 99c1 1eec aabd 51c4 d7bf
00000180: 4bff 04be e9b0 6b3c 32fd 4e3c d1db 803e
00000190: 5283 9abd cd13 b8bc eb7e 453d 7d2d 413e
000001a0: 3c34 e4bf 9909 b9bf 8301 7bbf 5e9e 15bf
000001b0: dd80 e93b 92cb fcbd 018b 783d 649e e63b
000001c0: 20c5 bcbb 2880 a63c 3067 06c1 90a3 2d3e
000001d0: 7187 093e 6b43 60bd 81ba d53d 9fbb 4ec0
000001e0: 7479 b9bd 308a 37c1 e2bc 17bd 7176 4a3c
000001f0: 7228 503e dcc7 c2c0 92ff c53d 4e90 5bbf
00000200: 21fa 89ba b970 24bd d672 47bc 8cc1 2cbd
00000210: fbcf c7bd 9a31 a73c 08b6 ce3c 8042 673d
00000220: 301e af3c 5082 41bd 8287 633d bedc 84bd
00000230: 9773 07be fcf8 783c b789 ae3d 5e7d 00be
00000240: cc2e dfbd e000 6c3c aaeb 03bd f423 0abe
00000250: 3680 dbbd f67e f7bd 4e93 99bd a923 903c
00000260: 6fdf ec3b 3f42 80bd 4e3d 9e3d ae1e d0bc
00000270: 9b90 00bc 3c8d 3c3d d404 47bd 0877 08bd
00000280: ac10 843d 11d8 73bd 8704 103d 0214 85bd
00000290: 9efd a4bd 8120 4f3d 24e6 813d 1771 b1bc
000002a0: 0e9d ce3d 9f4e b3bd 16c0 033d f32b 9ebb
000002b0: e222 983d 3cc1 1a3d a09c a53c 6825 2f3d
000002c0: 0a46 493d c4ff 3e3d d751 5f3d ee47 afbd
000002d0: b882 cebd 30c7 923d efe0 bdbd 2e74 a83c
000002e0: eeed c0bd bc0f bdbd c00f a03d 0d88 60bd
000002f0: 7830 90bc 7d3f 89bd 0095 c1bb a078 363d
00000300: eea9 b53d 0708 0ebe ab5e 8dbc 94fb 08be
00000310: a13d 0f3d 162d 36bb e10a 9bbd 20cd fbbb
00000320: 66c9 cfbd b221 98bd 0612 1cbd 0e56 8dbd
00000330: 137b acbd 477b c03c dfd1 8d3c 0876 203d
00000340: 1612 4dbd 4545 763d 65a9 e3bc f6d6 6a3d
00000350: 182d abbd 4d71 ce3d fc86 493d 26bf 96bd
00000360: 23b5 c53c adb4 d53a e4c9 eabd 51d7 813c
00000370: fafc b83d 962c 2bbd 79f4 e8bd feab 08be
00000380: 2872 ad3d 28a8 78bd 3e6d 183d 592c 953c
00000390: 0e85 c5bb 8a1e 253d d0a1 8e3d 3007 d5bd
000003a0: 5d1e 2abc 6388 40bd 06fe e7bd eb51 64bd
000003b0: b2c3 e9bd c86e 33bd 4f82 2c3d 17ac 883d
000003c0: 6416 adbd 864a adbd a06b 1b3d 86ac 833d
000003d0: 4afe 05be c1a7 b0bd b7c9 e2bc 31c3 92bd
000003e0: 688d c6bc e3a7 3e3d 04fc e1bc 62a2 eebb
000003f0: ab0c d3bc db3d d9bc 66fe bc3d 8c57 123d
0.22179869 0.084889665 0.046301857 0.30035624 0.30819753 1.0703562 -0.030749196 0.10369168
0.029561609 0.842904 0.13888751 0.11538573 0.13273749 -0.05548526 0.14831567 0.04816564
-0.20520857 0.9636344 0.06108964 0.043867737 0.5662736 0.2829662 0.013494125 0.16060875
0.21182221 0.12093961 0.20482513 0.18511274 0.14598915 2.0590508 -0.041445363 0.18652436
0.025896206 0.221692 0.14922671 0.17175283 0.039514944 0.086540736 -0.0071497182 0.12090462
0.5883642 0.21358505 0.11770891 0.08720873 0.020973697 -0.01202561 0.2203413 0.06516004
-0.025768192 -0.079707965 0.56678116 0.22457567 0.02195429 0.11552936 0.017310832 0.4819849
-0.052372128 3.122531 0.11931082 0.0030787834 0.21375819 0.6024834 -0.01097852 0.035882834
-0.37832364 -0.117679305 0.2372507 -0.71772826 -1.803493 -4.335028 -0.044864103 -0.08453418
-0.019597277 -2.0377924 0.0050528967 0.037406478 -0.04860203 0.14269897 -0.9306156 -0.8400627
0.029288596 -7.6647625 0.11553218 0.04188033 -9.518099 -0.1735948 0.021486046 -0.86052185
0.21525149 0.10059065 -0.33077204 -0.23597069 0.2002186 -19.143194 -0.08345817 -1.6856786
-0.12988012 0.01438544 0.012633609 0.25167707 -0.075445786 -0.02247038 0.04821674 0.18865009
-1.7828441 -1.4456054 -0.9804918 -0.58444774 0.0071259574 -0.123435155 0.06067944 0.0070379246
-0.005760804 0.020324782 -8.400192 0.16956925 0.13430573 -0.054751795 0.104359634 -3.2302015
-0.090563685 -11.471237 -0.037045367 0.01235734 0.20327929 -6.086897 0.09667887 -0.85767066
-0.0010526815 -0.040146563 -0.012173375 -0.04217677 -0.09756466 0.020409394 0.025233284 0.056459904
0.0213767 -0.047243416 0.055549152 -0.06487416 -0.13227688 0.015196081 0.08522361 -0.12547824
-0.10897598 0.0144045055 -0.03220717 -0.13490278 -0.10717814 -0.12084763 -0.07498799 0.01759513
0.007228784 -0.062626354 0.07726537 -0.025405254 -0.007846977 0.04603313 -0.04858859 -0.033316642
0.064484924 -0.05953223 0.035160568 -0.06497957 -0.08056186 0.050568108 0.06342724 -0.02166037
0.100885496 -0.0875523 0.03216561 -0.0048270165 0.07428528 0.03778194 0.020216286 0.042760283
0.04913906 0.046630636 0.054521408 -0.085586414 -0.100835264 0.07166898 -0.09271418 0.020563211
-0.094203815 -0.09231517 0.07815504 -0.054817248 -0.017601237 -0.067015626 -0.0059076548 0.04454863
0.08870302 -0.1387025 -0.017257055 -0.1337722 0.034970883 -0.002779787 -0.07570434 -0.007684365
-0.101458356 -0.07428302 -0.038103126 -0.06901179 -0.08421912 0.023496283 0.017311988 0.039175063
-0.050066076 0.060124654 -0.027790735 0.05733391 -0.0835821 0.10080204 0.049200997 -0.073606774
0.024134224 0.0016304456 -0.11464289 0.015849741 0.090326265 -0.041790567 -0.113747545 -0.1334686
0.08469039 -0.06070724 0.037213556 0.018209623 -0.0060278242 0.040312327 0.06964457 -0.104017615
-0.010383216 -0.04700507 -0.11327748 -0.055742186 -0.11414279 -0.04380682 0.04211646 0.066734485
-0.08451536 -0.0846148 0.037944436 0.064293906 -0.13085285 -0.086257465 -0.027684076 -0.07166136
-0.02423735 0.046546828 -0.02758599 -0.007282541 -0.025762876 -0.026518753 0.0922821 0.035728022

layers.4.bias f4 [64]
00000000: c933 c3bc ed8c 64be a1d9 4ebc 8dcb bc3d
00000010: 707a 983d 4280 d13d f854 123d f786 59bd
00000020: d235 cdbd ddea eb3c 8df2 913d 76d7 203d
00000030: 7a18 b1bd 6711 063e 5c4c a7bd bdc3 efbd
00000040: 063a 163e 5233 373e 78ee 71bd da48 cebc
00000050: ee8f 70be b057 7b3d a448 223e 6cf9 293e
00000060: ace1 80bd 6578 d3bc 976a 413d 0be8 d0bd
00000070: 4c2b 01be 74cb e5bd aaad abbd 85ae ce3d
00000080: 3070 413c c274 f03c 08f8 213e 9276 003e
00000090: 186a 88bd c6ab d5bd e48a a9bc d77d 4fbe
000000a0: 188e fabd 0333 233d d6d0 b03d fa96 a1bd
000000b0: e1a9 ab3c 9613 983d 12ea 863e d69f 3abc
000000c0: 8563 a5bd db00 e8bc 4c86 f53d 26f1 6c3c
000000d0: cb62 c1bd db06 e6bd b18a 863d 3fc2 0a3e
000000e0: 46c8 6f3d dac2 193d 14d3 673d bedd 0f3d
000000f0: dabf 123d c0d2 193e b5a7 75be d965 0cbd
-0.023828404 -0.22319384 -0.012625129 0.09218512 0.07445228 0.10229541 0.035725564 -0.053107228
-0.10020031 0.028798515 0.07126341 0.03926798 -0.08647247 0.13092576 -0.08168861 -0.11707256
0.14670572 0.17890671 -0.059065312 -0.025181223 -0.23492405 0.061362922 0.15848023 0.16599053
-0.062930435 -0.025814245 0.047220793 -0.10200509 -0.12614173 -0.11220446 -0.08382733 0.10091881
0.011806533 0.02935255 0.15817273 0.12545231 -0.06660861 -0.10433154 -0.020696111 -0.20262848
-0.122341335 0.03984357 0.08633582 -0.078901246 0.020955028 0.07425611 0.26350456 -0.011390647
-0.080756225 -0.02832072 0.11988506 0.014461791 -0.094426714 -0.11231776 0.06569422 0.13550662
0.058540605 0.03753934 0.056597784 0.03512358 0.035827495 0.15021801 -0.23989756 -0.034276817

out.weight f4 [1, 64]
00000000: 3776 1bbe a79c 503f 88ed d13d 4fa5 dd3d
00000010: f064 12bf f9f1 6abe 0fa1 3bbe 54b2 83bd
00000020: 1e7d ccbe b138 72be c035 8e3d 8141 d13c
00000030: a74a 4140 3334 15be f646 7340 cb9a c53e
00000040: 72b5 2abe af59 48be afcd dcbc ae20 d63d
00000050: d342 e83f ed89 7ebe 1957 27be 96a8 56be
00000060: b869 1f3d 3902 77be 67c4 c63d eb14 e43a
00000070: 7ee5 4c3f c473 e1bd 5718 1e3f 3506 44be
00000080: ec88 86bd 44ca 71be 05e7 4dbe 2a64 45be
00000090: 3ec7 bb3d a98f a1bd f867 573d a29c 453f
000000a0: 2fdd 563d b27c ba3c 1ea9 20be 2926 a03d
000000b0: db4a 383d 9a14 69be 166c 6cbe 7249 363f
000000c0: 0b99 183c 2ede d53b 1303 27be 2bbd 60be
000000d0: dba8 3dbd 957d bbbb aa16 39be fce6 62be
000000e0: 9397 49be cf79 463d 4cb2 40be 6919 643a
000000f0: ecc4 983e 1866 61be fbf8 503f 8959 51be
-0.15181814 0.8148903 0.102503836 0.10822546 -0.5718527 -0.22943868 -0.18323158 -0.06430498
-0.39939207 -0.23654439 0.06943846 0.02554393 3.0201814 -0.14570694 3.801206 0.3859466
-0.16670778 -0.19565462 -0.026953546 0.10455452 1.8145393 -0.24857302 -0.16341819 -0.20962748
0.03891918 -0.24121942 0.097054295 0.0017401254 0.8003768 -0.11008409 0.6175589 -0.19142993
-0.065690845 -0.23612314 -0.20107658 -0.19276491 0.09168862 -0.07888729 0.052589387 0.7719213
0.05245703 0.022764537 -0.15689513 0.078197785 0.044993263 -0.22761765 -0.23088107 0.7120582
0.009313832 0.00652673 -0.16309766 -0.21947162 -0.04630361 -0.0057217577 -0.18075052 -0.22158426
-0.19686727 0.04845601 -0.18818015 0.0008701296 0.2983774 -0.22011602 0.81629914 -0.20444311
