models/model_2900000_train_100000_epochs_600_neurons_range_scaler_epoch_98000.pt (torch, 331077 bytes, 7 tensors)

layers.0.weight f4 [200, 5]
000000 bc f9 66 be 30 f5 98 be 38 92 aa 3d ea 7a 35 bd
       -0.22556204 -0.29874563 0.0832867 -0.044306673
000010 89 29 d8 3e 6e 35 30 3e 1c c1 07 be 3b b8 10 be
       0.4221919 0.17207882 -0.13257259 -0.14132778
000020 a9 9b 41 bc ad 27 a0 bd 8f ec b0 3e bd 22 8a be
       -0.011816897 -0.078200676 0.3455548 -0.26979628
000030 ef b4 68 3e a0 d8 a3 3e b5 d4 cc be 65 f0 a9 be
       0.2272527 0.3200121 -0.40006033 -0.3319122
000040 14 52 cd 3e c4 1a 79 be 14 4a 3f be 0c db cd bd
       0.40101683 -0.24326617 -0.18680602 -0.100515455
000050 b1 a2 13 bf ea a4 53 3d b3 ad b8 3e ab de c5 be
       -0.5767012 0.051670946 0.36070022 -0.38646445
000060 3f de 15 be 3d 83 8a be a5 53 93 bd 99 24 bd bd
       -0.14635561 -0.27053252 -0.07193688 -0.09235496
000070 5e f1 94 be b5 2e 8b bd 82 8c 78 be d1 4c a5 3b
       -0.290904 -0.06796018 -0.2427235 0.0050445576
000080 24 10 77 3e a6 6e 21 3d a0 48 9a 3e 80 03 94 3c
       0.24127251 0.039412163 0.30133533 0.018068075
000090 27 10 74 be 8c a3 b7 be 18 e4 83 bc 6c 88 a7 3d
       -0.23834287 -0.35866964 -0.016099975 0.08180317
0000a0 c3 0f a3 3e fe 01 89 be 44 65 b4 be 29 f1 25 3e
       0.31847963 -0.26759332 -0.3523351 0.16205277
0000b0 e4 7c e7 be 24 e0 d7 bd 27 de f4 bd 23 78 55 3e
       -0.4521247 -0.10540798 -0.11956435 0.2084661
0000c0 c3 b0 75 3c 4e 13 92 bd db a7 05 3e 30 c5 ea bd
       0.014995757 -0.07132588 0.13052313 -0.11463392
0000d0 8e f9 cb bd c7 f7 17 be b8 46 57 bd c5 46 aa be
       -0.09959708 -0.14840613 -0.052557677 -0.33257118
0000e0 d9 07 c3 3d 9f 71 5f be f1 71 6c be cc 7c 17 3d
       0.09522981 -0.21820687 -0.2309034 0.03698425
0000f0 f2 27 86 bf 4a b7 05 3d a1 48 a7 be 58 06 9c bd
       -1.048094 0.0326455 -0.326726 -0.076183975
000100 7e 4d 16 be 0e 66 b4 3d 19 ab 26 3e bd ed 09 be
       -0.14677998 0.08808528 0.16276206 -0.13469596
000110 af 68 35 bd 17 e7 66 be 99 10 49 3c b4 32 85 be
       -0.044289287 -0.22549091 0.012272024 -0.26015246
000120 2d 72 1b bd c3 4b 59 3e 97 3c 39 3e cb 08 14 be
       -0.037950683 0.21220307 0.1808952 -0.14456479
000130 10 74 80 3e b4 46 6e c0 7f 2b e5 ba d0 1a 80 3e
       0.2508855 -3.7230654 -0.0017484276 0.25020456
000140 61 44 d1 be 08 f9 d7 bd b6 a6 86 3e d4 00 09 3e
       -0.4087248 -0.10545546 0.26299065 0.13379222
000150 1a 71 70 3e f3 da a8 3d 58 46 25 3e 5b dd 33 be
       0.23480645 0.08244886 0.16140115 -0.17564909
000160 b8 73 32 bd 88 2f e2 be 19 d9 66 3d bb 20 8d be
       -0.04356739 -0.44176888 0.056359384 -0.27564034
000170 a8 86 10 bf a0 39 2c 3e ff 99 3b 3e 7f a2 a2 3e
       -0.5645547 0.16818857 0.18320464 0.317646
000180 06 53 dc bd ee 52 2d bf 77 b6 4f bd 4a 42 b7 3d
       -0.10758023 -0.67704666 -0.05071112 0.089481905
000190 81 44 85 3d 05 f5 11 bd cb f3 a2 3d 47 76 a3 3c
       0.06507207 -0.03563406 0.07956656 0.01995386
0001a0 1c 60 3e 3e 2b bd da 3e b8 c2 80 be 63 ef b8 3d
       0.1859135 0.4272245 -0.2514856 0.090300344
0001b0 0f 45 2c bc 4d 0a b9 be 6d b4 2a 3e e0 67 af bd
       -0.010514512 -0.3614067 0.1667039 -0.085647345
0001c0 6c 62 82 bf 7e 35 8a bc dc 52 9d 3e b6 4c 4c 3f
       -1.0186286 -0.01687121 0.3072728 0.7980455
0001d0 11 59 cd bc 6a f4 7f 3e 21 ed 78 3d 8f 2f e1 3d
       -0.025066884 0.2499558 0.06077302 0.10995399
0001e0 8f cd 3d 3f 20 42 cc be d6 95 23 bf 46 cf 08 be
       0.7414178 -0.398942 -0.63900506 -0.13360319
0001f0 0a 63 51 bf 1c ab a5 3e f3 c4 2d 3e b3 86 f1 be
       -0.81791747 0.3235711 0.16969661 -0.4717308
000200 fd 5d 03 be 22 36 62 be e1 41 07 3e 13 83 b5 3d
       -0.12828822 -0.22090963 0.13208725 0.08862891
000210 2b 91 29 3e c7 b3 06 3e 9b 18 fd 3d 21 8b ad 3e
       0.16559283 0.13154517 0.12358209 0.3389521
000220 23 83 1a 3e 79 e8 c6 3d a7 5a a7 3d 80 1d 95 be
       0.15089087 0.097123094 0.081715874 -0.2912407
000230 52 c8 07 bf 26 d5 83 3e 4c d1 ab be 88 3d 6c 3d
       -0.5304004 0.25748557 -0.33558118 0.05767587
000240 dc 4d 3a 3d 72 1e ba 3e 14 16 7f 3e f2 53 d9 3d
       0.04548441 0.36351353 0.24910766 0.106117144
000250 f6 fa cb 3d 8a 82 02 bf 21 4e 19 bf 5b 28 d6 3e
       0.099599764 -0.50980437 -0.5988484 0.41827664
000260 86 fb 98 be 0b 5c 92 3e 3e 55 e5 be ff 82 a3 3e
       -0.29879397 0.28585848 -0.44791597 0.3193588
000270 f3 5c d7 be 15 b3 54 3d e0 7a 8f 3e 03 8e 25 3e
       -0.42063102 0.0519286 0.28023434 0.16167454
000280 e5 97 eb 3e f5 35 32 be 5b f5 66 bd ba 90 b8 3c
       0.46014324 -0.17403395 -0.056386333 0.022529949
000290 23 e1 4f bf e5 c2 94 3e 5d fb a7 3e 60 53 8d 3d
       -0.81202906 0.29054943 0.32808962 0.06900668
0002a0 d2 e9 43 bd 20 43 a4 3e 31 aa 88 3e bf 71 b6 3d
       -0.04783041 0.32082462 0.26692346 0.08908414
0002b0 8e 2a 24 be 3e 4a 97 3e ea a3 a4 be d0 83 60 be
       -0.16031858 0.2954883 -0.32156307 -0.21925282
0002c0 53 6c 5d 3e e4 d6 0c 3e af 21 81 be d6 31 5f 3d
       0.21623354 0.1375385 -0.2522101 0.054490887
0002d0 96 72 ac 3e c9 58 bd bd b1 5a 40 bf cd ae 38 bd
       0.33681172 -0.0924545 -0.75138384 -0.045088578
0002e0 4a f4 e2 3d 48 a6 ec 3e 24 98 ac bc ce bb c3 3c
       0.11081751 0.46220613 -0.02106864 0.023893263
0002f0 2c f1 8d be 21 3b ab 3e db b8 da bd 40 45 d2 3c
       -0.27723062 0.3344355 -0.1067979 0.025667787
000300 26 04 3f bd 1e 19 9e be fa 7c 6f 3e 46 7e 85 b8
       -0.046634816 -0.30878538 0.23387519 -6.3654545e-05
000310 05 af a4 3d c7 87 52 be fb 8b 32 be ee a3 17 3c
       0.08041195 -0.20559607 -0.17436211 0.0092553925
000320 24 72 8c ba df e1 37 be 7b 3f e6 3d 09 a5 1b 3d
       -0.0010715169 -0.17957257 0.11242577 0.037999187
000330 62 d4 84 be 0b 35 a2 be 3e d6 63 be 73 77 f0 3e
       -0.25943285 -0.31681094 -0.22249696 0.46966133
000340 16 33 26 3e a3 3d ca 3e 29 36 87 be 7e dc 8d 3e
       0.16230425 0.3950015 -0.26408508 0.27707285
000350 3b bb 11 3e a7 2c 96 be 7e 40 dc 3e 01 2e 61 be
       0.14231579 -0.29330942 0.43017954 -0.21990205
000360 eb 35 e3 bd f0 51 9c be 56 fc 20 3d e6 06 2e 3e
       -0.110942684 -0.30531263 0.039303146 0.16994819
000370 7c 57 6e 3e 99 e7 fc be 2d be d7 be 97 ac f0 3d
       0.2327556 -0.49395445 -0.4213728 0.11751669
000380 1a f0 aa 3e 1f 41 40 3e df 34 26 be 72 7e 08 be
       0.33386308 0.18774842 -0.16231106 -0.13329485
000390 c4 92 46 be 2e 05 64 bd 75 ca 87 be f5 0e 2d be
       -0.19391924 -0.055669002 -0.2652165 -0.16900237
0003a0 d3 56 e7 be f4 05 db 3d 0a 31 3b 3e 6e 1b 07 3b
       -0.4518343 0.10694495 0.18280426 0.0020615715
0003b0 51 7a 4f be c2 a7 97 3d e6 6d 8e 3d 8a 2c 11 bd
       -0.20261504 0.07405044 0.06954555 -0.035442866
0003c0 ce 48 83 3e f0 0b d2 bd 8a bc f0 bc 2e 28 36 be
       0.25641483 -0.10256183 -0.029386777 -0.17788765
0003d0 58 dc 3d 3e e6 49 2d bc f3 56 11 bd 8c 7e f3 3c
       0.18541086 -0.010576701 -0.03548331 0.029723428
0003e0 2a 56 16 bd b5 ba f5 3c 6b 6a eb be d9 5b c7 3e
       -0.036703266 0.029996255 -0.45979628 0.38937262
0003f0 f4 e4 7e 3e 4b 91 15 3e 40 50 9c bd 32 28 ba 3d
       0.24892026 0.14606206 -0.07632494 0.09089698

layers.0.bias f4 [200]
000000 92 09 b2 bd 6b af 09 3e c4 83 2c 3e aa 85 cf 3d
       -0.08693232 0.13445823 0.1684714 0.10132916
000010 ee f4 af 3d da fa 2c be 65 e9 16 3d 42 ee b9 3e
       0.085916385 -0.16892567 0.036843676 0.3631459
000020 b3 2b 5a 3e c8 67 b0 3d e2 46 04 3e b0 be 68 be
       0.21305732 0.08613545 0.12917665 -0.22728992
000030 7d 3d 95 3e 1e a5 68 3d 94 ac 37 be ab cc a4 be
       0.29148474 0.056798093 -0.17936927 -0.321874
000040 ef 61 8d be b3 b8 9a 3e 0e 28 34 3d 11 af fd 3d
       -0.2761378 0.3021904 0.04398351 0.12386907
000050 bc e0 ee bd de 05 23 3e 24 4f 45 bb 93 d7 63 be
       -0.116639584 0.15920207 -0.0030106986 -0.22250204
000060 8d 58 87 bd c8 ba de 3d 4e 28 6f be d6 48 1d be
       -0.066086866 0.108754694 -0.23355219 -0.15359816
000070 bd 9d ef 3c 21 18 54 be 39 0d b1 3e 90 8a fc 3d
       0.02925002 -0.2071233 0.345804 0.12331116
000080 4b f1 33 3d ae 05 a0 be 61 2d 90 3d 31 90 b8 bd
       0.043931287 -0.31254333 0.07039905 -0.09011877
000090 d8 44 43 3d 9f 04 83 be 8c 29 85 be 00 4d c0 be
       0.047673076 -0.25589463 -0.2600826 -0.37558746
0000a0 01 f6 84 3e 02 95 c9 be 41 17 b4 3d 96 45 6e 3e
       0.25968936 -0.39371496 0.08793498 0.23268732
0000b0 1b d3 a5 3e 5b bb 6a 3e 64 1c 75 3e e6 3d 8d 3b
       0.32387623 0.22923033 0.23936611 0.0043103574
0000c0 98 61 e8 be b6 5d 8e bb 78 d5 00 3d 3d eb 67 bd
       -0.45386958 -0.0043446673 0.03145358 -0.056620825
0000d0 be 19 92 3d 10 8f 2c bd 79 44 d6 3e f6 f9 bf bd
       0.07133816 -0.042128623 0.41849115 -0.09373848
0000e0 c9 9d 60 3e 8d e2 d0 be c4 80 7b 3e 78 65 5c be
       0.2193519 -0.40797845 0.24560839 -0.21523082
0000f0 6a 9e 90 3e f0 43 8c be 31 2a 31 bc de 6c 8a 3e
       0.2824586 -0.27395582 -0.010813282 0.27036184
000100 a0 4a 90 3e fd 5f f0 bd 55 b4 4a 3d 41 06 cc 3d
       0.28181934 -0.11737058 0.049488384 0.0996213
000110 f6 8a a3 be e3 fc d2 bd 43 ff c2 be a5 0d 82 3e
       -0.31941956 -0.103021406 -0.38085374 0.25401035
000120 a6 5c db be 6b 7f 89 bc b8 24 f3 be ba a0 00 bf
       -0.42844123 -0.01678439 -0.47488952 -0.5024525
000130 09 d8 ad be 49 9f 2e be 73 67 9d 3d 70 b5 7b bd
       -0.33953884 -0.1705295 0.07685747 -0.06145233
000140 19 31 8b bd 6b de 89 be a6 52 91 be 8c 53 37 be
       -0.06796474 -0.26927504 -0.28383368 -0.17902964
000150 27 45 c8 3d 48 71 c7 3e 9e fe 6d be 7f ea 00 3e
       0.09778815 0.38953614 -0.2324166 0.12589453
000160 4a 81 ad 3e 63 37 c8 be af b8 82 bb 30 e4 dc bd
       0.33887702 -0.39104757 -0.003989301 -0.10785711
000170 f2 50 38 3d d7 41 2a be 4c 6d b5 3e ae 2b 54 be
       0.04499907 -0.16626678 0.3543495 -0.20719787
000180 82 ce a8 be f0 bd 89 3e e2 cf c0 be 35 7a 5c 3e
       -0.32970053 0.26902723 -0.37658602 0.21530993
000190 63 cb 81 3d ce f1 98 3c 56 7c 23 3e 65 b2 f9 3d
       0.06337621 0.018669989 0.15965399 0.12192229
0001a0 8e cd 1e be 00 17 c3 be e4 2b b9 be 76 a8 a9 3e
       -0.155081 -0.38103485 -0.36166298 0.33136338
0001b0 2b 56 5c 3d 8d 38 2a 3e 31 9d cb be a1 89 d0 bd
       0.053793114 0.16623135 -0.39768365 -0.10182501
0001c0 2c dc cf be ec 05 c5 3d b6 92 71 3e 4f b2 a7 be
       -0.40597665 0.0962027 0.23591122 -0.32753226
0001d0 5f c8 4c be 28 5d 64 3e 9e f3 89 be 00 b5 bc 3e
       -0.1999831 0.22301161 -0.26943678 0.36856842
0001e0 9c c8 09 3e df c6 b8 be 39 ae 9c 3d 1b c1 7c be
       0.13455433 -0.36089227 0.07650418 -0.24683039
0001f0 f3 a1 4b be c5 75 90 be 82 0c cb be cf cb ae be
       -0.19885997 -0.2821485 -0.3965798 -0.3413987
000200 35 77 86 3d 66 9c c4 3e bb 8f 23 be 85 df 4f 3d
       0.06565706 0.38400573 -0.15972798 0.050750274
000210 3e 3d 1e be 03 02 ae be e2 e1 93 be 76 cb 8c 3e
       -0.1545305 -0.3398591 -0.28883272 0.27498978
000220 0d 19 c8 be 23 4d 05 be 97 9a 17 3d 56 7b 88 be
       -0.39081612 -0.13017707 0.037012663 -0.26656598
000230 d2 63 09 be 5b 4c b8 be 71 4a 47 3e d4 c0 44 3e
       -0.13416985 -0.35995755 0.19461991 0.19214183
000240 83 50 3f bc b0 e3 49 bd 68 8d 45 3e 75 9d 86 3e
       -0.01167691 -0.049289405 0.19292223 0.26292005
000250 95 be 01 3e 4c 8f 84 bc b0 ef 1b 3d b7 d1 1e 3e
       0.12670358 -0.01618161 0.03807038 0.15509687
000260 6b 22 98 be f0 e2 2b be d1 20 79 3e e0 8b ae 3e
       -0.2971376 -0.16785789 0.24328925 0.3409109
000270 24 fc 13 be d8 9c d1 3e 17 82 84 be 6b 5d 86 3e
       -0.14451653 0.40939975 -0.258805 0.26243147
000280 15 7e 80 3e 72 10 41 3d ad 9f 8b 3e 55 8e bf 3d
       0.25096193 0.047134824 0.2727026 0.093533196
000290 06 b4 88 3e 8b 76 ef be 9a 11 c6 be e1 31 09 be
       0.26699847 -0.4677013 -0.38685304 -0.13397934
0002a0 63 8a 7f bc c0 d4 44 be bd d6 c7 3c 92 55 30 3e
       -0.015596959 -0.19221783 0.024394387 0.17220142
0002b0 d5 b7 89 3e 07 32 da be 15 4c ec be 63 28 36 3e
       0.26898065 -0.42616293 -0.46151796 0.17788844
0002c0 f7 0d 7b 3c ef ec 9e be f6 91 8a be d3 70 de be
       0.015323154 -0.3104014 -0.27064484 -0.43445453
0002d0 c8 23 1a be 2a 5c 30 be 78 d5 2d 3d 25 d3 37 3d
       -0.15052712 -0.17222658 0.042439908 0.044879097
0002e0 4b cb 6b 3e c1 0a 68 be 2e ab 37 be 99 8f 4c be
       0.23026769 -0.22660352 -0.17936394 -0.19976653
0002f0 41 be c1 be c2 a7 8a be e0 88 b6 be 80 3c 25 3e
       -0.37840465 -0.27081114 -0.35651302 0.1613636
000300 8c 19 55 bc c5 a8 0d be 9a 81 61 3d 6e 39 1b be
       -0.013006579 -0.13833912 0.05505524 -0.15158626
000310 35 27 b7 3e e1 ea 62 bd a7 52 d7 be 74 c0 dd be
       0.357721 -0.05539978 -0.42055246 -0.43310893

layers.2.weight f4 [200, 200]
000000 7f ed 1b 3d e4 f7 a0 bc 69 d4 96 3c e8 f5 33 be
       0.03806829 -0.019649453 0.018411832 -0.17574275
000010 40 3d 25 bd 26 0d d3 bc 03 17 28 3d 3f a0 4b 3d
       -0.040341616 -0.025763106 0.04103757 0.04971337
000020 ac 38 26 bd 69 43 92 3d 42 dd 92 be 34 ec 34 3d
       -0.04058139 0.07141764 -0.2868443 0.044170573
000030 91 46 97 be ce c8 4b 3e 3b b0 65 3c dc ec c3 3c
       -0.29546025 0.1990082 0.014019067 0.023916654
000040 78 f0 20 3d 88 22 81 3d b5 01 83 3d a5 d7 cf 3d
       0.03929183 0.063054144 0.0639681 0.10148553
000050 01 d5 4a bb c7 6d 89 bd 7e 6d 80 3e 85 13 e2 bc
       -0.0030949714 -0.067103915 0.25083536 -0.027597198
000060 b0 94 63 bc 7b a5 af bd 4e 60 b2 bd 8f e2 bc 3d
       -0.01389043 -0.08576485 -0.08709775 0.092229
000070 1e 38 a1 bd c4 59 fd bb c0 96 4b 3d ca ad 21 bd
       -0.07872032 -0.007731648 0.049704313 -0.03947238
000080 c7 a0 5a 3e 89 53 e6 3b 4b 8d 26 bc 1a dd b5 3c
       0.21350394 0.007029001 -0.010165523 0.022200156
000090 b8 3c 84 3d 0b 2a d0 bd 16 e0 64 3c 5f 16 a2 3b
       0.06456894 -0.10164269 0.013969442 0.0049465145
0000a0 03 18 66 3d de a5 49 bd 9d e8 32 3d 3c 26 bc bd
       0.056175243 -0.04923045 0.04367887 -0.0918698
0000b0 1c 9e e6 bc 89 f7 65 3c 6d fa 35 bd d3 cb 84 3e
       -0.028151564 0.014036068 -0.044428278 0.25936756
0000c0 b7 6d c9 3b 80 fe 4c 3d 2c 44 9b 3d e0 f0 bb bd
       0.006147112 0.050047398 0.07581362 -0.09176803
0000d0 e3 76 71 3c 65 f4 d4 bc 07 13 04 be 62 c0 93 3d
       0.014737817 -0.025995443 -0.12897883 0.072144285
0000e0 37 16 81 3d ec 64 7b bd ed 78 fd 3c 7d aa 88 3b
       0.06303065 -0.061375543 0.030941451 0.0041707144
0000f0 31 17 cd 38 fe e2 36 bc 3d 06 88 3d 15 6e 44 bd
       9.7794815e-05 -0.011162518 0.06641815 -0.047956545
000100 27 93 5b be a1 25 76 3d 21 1b 07 bd 2c 8d 93 3d
       -0.21442853 0.06009448 -0.032984857 0.07204661
000110 8e 58 43 3d ec 82 47 be 87 51 89 bd 81 83 48 3d
       0.047691874 -0.19483536 -0.06705003 0.048953537
000120 95 dd e7 bc 71 01 d9 bc 19 23 19 3e 79 e5 10 be
       -0.0283039 -0.026489945 0.14954795 -0.14150037
000130 04 12 4d 3c 80 fa a3 3c e7 29 69 3d 4f cf d9 b9
       0.012516502 0.020016909 0.056924727 -0.00041543922
000140 12 2c 21 bd c6 f3 e7 bc ed f5 0a bd 17 7d 09 3d
       -0.03934867 -0.028314482 -0.03392594 0.03356656
000150 77 b9 71 bc ab b6 78 bd e6 38 a5 be d4 74 66 3e
       -0.014753691 -0.06072108 -0.32269973 0.22505504
000160 04 64 24 3c d0 73 7e 3d 4d a2 4a 3c c3 73 ed bd
       0.010033611 0.062122166 0.012367797 -0.115943454
000170 ce 95 5f 3d 01 bd a6 bc 89 e9 90 3b 4e e1 7e 3c
       0.054586224 -0.020353796 0.004422371 0.0155566465
000180 fd c6 cc 3b 6a 46 9d 3c 20 eb e5 bd d0 ce f6 3d
       0.006249307 0.019198615 -0.11226487 0.12051165
000190 09 6d 56 bc eb 93 1b 3e d9 cf 86 3d 86 7a 34 bd
       -0.013087519 0.15193145 0.065826125 -0.04406216
0001a0 dd ae 78 be b1 25 c8 bd a3 62 06 be a2 22 fc 3c
       -0.24285455 -0.09772814 -0.13123564 0.030778233
0001b0 1b 63 10 bd 65 be a4 3b fe 5c c5 3c f5 6a b6 3d
       -0.035250764 0.0050275796 0.024092194 0.08907119
0001c0 ab cc 05 3d 80 89 a5 3d 82 d0 d4 3c 64 38 8c 3c
       0.03266589 0.08082867 0.02597833 0.017116733
0001d0 cb 0e d4 bc 5d 31 aa 3d 33 22 3a 3d 9d 1e 27 be
       -0.02588596 0.083101965 0.04544277 -0.16320272
0001e0 fb 6d d2 bc 6d ee af 3c 6f 95 65 3d 0a b2 00 3d
       -0.025687208 0.021475995 0.056050714 0.03141979
0001f0 fd 19 84 bc 99 d8 00 3e d3 e4 3e bc 41 c4 ed bd
       -0.016125673 0.12582625 -0.011651236 -0.11609698
000200 80 40 05 3b cc 1c 9e bc 8e 2d e2 bd 12 65 5d bc
       0.0020332634 -0.01930084 -0.11043845 -0.013512867
000210 ce 7a 2b bd 32 05 1d be 5c fa 87 bc 7c 57 66 3c
       -0.041865163 -0.15334013 -0.016598873 0.014058944
000220 af a8 e1 3d a4 da 9e bd 28 d4 97 3c 87 10 cf 3c
       0.11018502 -0.07756546 0.018533781 0.025276436
000230 c3 53 9c bc e9 a1 6d 3d 79 cb d8 bd 8b ca 83 bc
       -0.01908291 0.058015738 -0.10585684 -0.016087791
000240 eb e3 b3 3d 5a 77 12 3d bc 95 b4 bc 91 90 04 be
       0.08783706 0.035758354 -0.022044055 -0.12945773
000250 cc a3 8f 3d 6e ac c9 3c 0a e6 a6 bd 2c 15 a7 bd
       0.07013664 0.024618354 -0.08149345 -0.08158335
000260 02 22 28 3d 27 b6 2f 3d 45 68 68 bd c3 4f 97 bc
       0.041048057 0.042898323 -0.056740064 -0.01847065
000270 5c 17 ba 3d e2 a4 c5 3d 12 b6 17 3d ad b2 94 3c
       0.09086487 0.096505895 0.03703887 0.018151606
000280 5d 82 9b 3d 63 51 7b bd e8 3e 28 bd f5 c6 69 be
       0.07593224 -0.061356913 -0.041075617 -0.22829802
000290 29 4a 97 3d 43 6e 94 bd 67 d0 71 bd 6d fc 06 3e
       0.07387192 -0.07247593 -0.05903664 0.1318223
0002a0 e2 e7 fa bc ea de c8 bd 66 fe d4 3d 31 ef 6a bd
       -0.030628148 -0.098081425 0.10400085 -0.057357017
0002b0 86 9f ed 3c 61 7d 8c 3d 21 58 b2 bd e7 a7 ad bc
       0.02900673 0.06859852 -0.087082155 -0.021198226
0002c0 3a d9 59 3d 9a 44 6b 3d 21 d5 0e 3d 70 1f 5b bd
       0.05318568 0.05743847 0.034871224 -0.053496778
0002d0 c7 0e 40 bd 76 f1 69 3c 45 35 f1 bc 47 79 18 bc
       -0.046889093 0.01427876 -0.029444346 -0.0093062585
0002e0 76 52 f3 3d 4e 31 08 3d ad 67 50 bc c7 11 3d be
       0.118809626 0.033250146 -0.012720031 -0.18463813
0002f0 de ca 26 3e 7f 62 11 3e c5 c9 d1 bd 9e 78 43 bd
       0.16288325 0.1419773 -0.102435626 -0.04772245
000300 35 e6 42 3d 3c b9 60 3c 5b 7d 78 bd 4a e3 e3 3d
       0.047582824 0.013716038 -0.060666423 0.11127336
000310 ff ef 04 be 9b a4 a9 bc 74 f6 03 3c 64 46 02 bd
       -0.12982176 -0.020708373 0.0080543645 -0.03180541
000320 e6 ac 56 be 52 96 84 bc 5a 80 18 bd 1c eb 6f bd
       -0.20964393 -0.01618496 -0.03723178 -0.058573827
000330 4e cd 38 3d 5b 80 06 3c 62 80 72 bb 95 c0 0f 3e
       0.04511767 0.008209313 -0.0037002792 0.14038308
000340 43 c2 38 3e 57 0d 9c bd 54 92 b7 3d 2d d1 08 3d
       0.18042855 -0.07619732 0.08963457 0.03340261
000350 06 c5 a3 3e 0f 06 db bc c9 6a ec bd 49 10 a4 bd
       0.31986254 -0.026736287 -0.11543805 -0.08010919
000360 7b 69 9f 3c ef dd b2 bc b1 3e 88 be f8 3e 23 be
       0.019459477 -0.021834342 -0.2661033 -0.1594199
000370 51 cf 28 3d 74 5a 2c 3d 3b 6a 2e 3e a6 4c 20 3c
       0.041213337 0.04207845 0.17032711 0.009783899
000380 29 b2 f6 bd 36 4b d3 bd 7f fa 01 3d b7 d7 cc bd
       -0.120457 -0.1031708 0.031733032 -0.10002082
000390 8f 0a 6a be 51 e2 94 3c 32 03 60 3c 6b 43 dc bc
       -0.2285559 0.018174322 0.013672637 -0.026887616
0003a0 ba 59 6b 3e d3 03 5b 3d b5 10 77 3d 34 ae 27 be
       0.22983447 0.053470444 0.060318667 -0.16375047
0003b0 b8 a2 5a be 59 2d 51 be 24 56 46 3c ff 03 f9 3c
       -0.21351135 -0.20427455 0.012105498 0.030397413
0003c0 26 05 1c 3c 7a 86 1d bd 9b cc 5f 3d bc 55 41 bc
       0.009522712 -0.038458325 0.054638486 -0.011800226
0003d0 6c 73 66 3d 6c bd 20 3d 7e a7 87 bc f5 0c c3 bc
       0.05626242 0.039243147 -0.016559359 -0.02380989
0003e0 aa f4 9a bd 34 b2 fa bc 92 ec 31 3d 57 44 1a be
       -0.07566197 -0.030602552 0.0434385 -0.15065132
0003f0 a6 b9 28 3d a3 03 76 be d4 b5 44 bd b2 a1 41 3e
       0.041192673 -0.24024825 -0.048024967 0.18909338

layers.2.bias f4 [200]
000000 5b 72 48 ba 38 f3 5e 3b 90 30 1e bd 71 97 8f bd
       -0.0007646435 0.0034019481 -0.03862053 -0.07011307
000010 af e9 3e 3d ab d0 d9 bd c7 bf ca bb fc f8 ad bd
       0.046609577 -0.106355034 -0.0061874124 -0.084947556
000020 4a 83 1d bc 74 9c 88 bd 7e e5 ec 3c 4c e7 f1 bc
       -0.009613821 -0.06670466 0.028918024 -0.029529236
000030 5e 42 89 3c 5f e8 33 bd 5b 00 81 bc ea 1a 42 be
       0.01675528 -0.04392278 -0.01574724 -0.1895558
000040 f5 48 4c bc db 66 47 3d d7 e9 d6 bc af 38 9b bd
       -0.012468566 0.048682075 -0.02623455 -0.07579171
000050 13 48 56 bc d5 f1 6d bd be 85 49 bc 7f 8b e2 3c
       -0.013078707 -0.058091957 -0.012299953 0.027654408
000060 bc bc ab bc d1 a2 3a bd 54 03 69 bd ad 88 8c bd
       -0.020964019 -0.04556543 -0.05688794 -0.06862006
000070 93 21 53 bd d9 76 b6 3d 57 6e 4a 3d 88 74 75 bd
       -0.05154569 0.08909387 0.049421635 -0.059925586
000080 72 14 5d bd 2d 3a 82 3d d6 cf ed 3c 41 b9 a2 3b
       -0.053974576 0.063587524 0.029029768 0.0049659316
000090 51 cf ab bc eb 58 c8 3b da 69 47 3d a7 6d c7 3b
       -0.02097288 0.0061141155 0.048684932 0.0060860696
0000a0 8c 41 08 bd 78 ae c9 3c 0d 7e 87 bd bd 7f 25 bd
       -0.033265635 0.024619326 -0.06615839 -0.040405024
0000b0 87 e8 85 bd 5f 0a 66 bd d9 38 1b 3e 2d 55 3f 3d
       -0.06538492 -0.056162234 0.15158404 0.04671209
0000c0 29 f6 75 3d b6 68 12 3d 41 38 b1 bc 1c a2 2a 3c
       0.06004921 0.03574439 -0.02163327 0.010414626
0000d0 cb 65 b4 3c ee 09 9a bc fe 8c 0a 3d 4d ce 07 bc
       0.022021195 -0.018803563 0.033825867 -0.008288932
0000e0 e6 4d 71 bd cf 5c 13 3d 7f e8 64 bd 59 89 45 3d
       -0.05891218 0.03597718 -0.055885788 0.048226688
0000f0 63 d7 f3 bb 79 46 18 3d 9d 81 8e bd 3f 28 2d 3d
       -0.0074414476 0.037176583 -0.069583155 0.04227471
000100 42 46 83 3d d6 f3 98 3c 84 da a6 bd 02 36 ac 3c
       0.06409885 0.018670958 -0.08147147 0.021021847
000110 f0 17 32 bd 4a ca a6 3c cc 0e de 3b 90 a6 48 bd
       -0.04347986 0.02036013 0.0067766663 -0.04898697
000120 1f d0 5b 3d 82 8d 64 bd 6c bb 36 bd 3e 77 91 bd
       0.053665277 -0.055799015 -0.044612333 -0.07102822
000130 84 b0 e2 bd e2 d0 62 bd 85 38 2b bb c7 b9 e6 bb
       -0.11068824 -0.055374987 -0.0026126218 -0.0070411894
000140 09 10 15 bd 9c eb a9 3d 24 41 84 bb d7 6e 20 bd
       -0.036392245 0.08296892 -0.0040360857 -0.039168205
000150 d0 96 e5 bc ab cb 1e 3d f2 bf 13 bd e2 29 5f bd
       -0.028026015 0.03876845 -0.036071725 -0.054483302
000160 d9 d0 ef bc fd dc 61 3d 2a 04 95 bd 04 47 d3 bb
       -0.029274391 0.05514239 -0.07276185 -0.0064476747
000170 b0 84 46 3d 28 32 e6 bc c9 6c 3c 3c 89 5b 24 bd
       0.048466384 -0.028100088 0.011500546 -0.040126357
000180 e9 3b ae 3c a1 a0 11 3c 8b bb e9 3c ae e3 77 3c
       0.021268802 0.008888395 0.02853181 0.015129967
000190 2b e5 ea 3c 70 42 21 bd 7f 35 75 3c 56 96 b8 3a
       0.028673729 -0.03937 0.014966368 0.001408289
0001a0 50 1a ce bc 61 b2 47 3c 79 86 e5 3b 6f 15 d5 bc
       -0.025159031 0.012188525 0.007004556 -0.026011197
0001b0 42 9b 73 bd 21 ac e7 bc bd 5d 02 bd 43 00 e7 3c
       -0.059474237 -0.02828032 -0.031827677 0.028198367
0001c0 5c b1 33 3d b7 c4 dd 3c 6e ae 84 bd a6 09 cc bc
       0.043870315 0.02707134 -0.06478582 -0.024906944
0001d0 b2 78 a1 bb 2c 94 15 be e6 17 93 bd 49 5d fa bc
       -0.004927718 -0.14607304 -0.07182293 -0.03056206
0001e0 cc 89 4d ba b3 2b 19 3d ca 2a e9 3b ab 57 2d 3c
       -0.0007840663 0.03739519 0.0071156966 0.010579984
0001f0 33 a4 8c 3a a3 14 ae bd 3f 0c 4b bd af 8b 71 bc
       0.0010730088 -0.0850003 -0.049572226 -0.014742776
000200 95 e2 37 3d 14 0a 81 bd f5 28 0f 3d d5 06 7c bd
       0.04489382 -0.063007504 0.03495117 -0.061529953
000210 30 35 0d 3d 9e b9 14 3d e9 ce 91 bd 35 71 92 bd
       0.03447455 0.03630983 -0.07119543 -0.07150499
000220 e0 59 34 3d b5 21 b4 bc e3 51 18 3b 93 dc a5 3b
       0.044031024 -0.021988729 0.0023242168 0.005061695
000230 b3 5b 68 3d ae ff 87 3b 0d af 01 bd 8e 8a 82 bd
       0.056728076 0.0041503524 -0.031661082 -0.063740835
000240 b7 4c 4d 39 5a 66 5a 3d 26 51 16 3d 49 53 53 3d
       0.00019578902 0.053320266 0.036698483 0.0515931
000250 f0 c1 a3 bc 2c 5c 43 bd ff fe 86 bd 84 95 7d bc
       -0.019989938 -0.047695324 -0.065916054 -0.015477542
000260 a2 32 9e bd 46 0a 91 3c 2d 62 bc 3c 4e 77 6c 3d
       -0.07724501 0.017705094 0.022996033 0.057730965
000270 20 32 d4 bd 4c 08 99 3d b8 fe 48 3d cd c6 23 3d
       -0.10361123 0.07472286 0.049071044 0.039984513
000280 b4 2a 4b bd 5d 95 90 bb fd 0b 15 bc b4 b2 14 bd
       -0.04960127 -0.0044123367 -0.0090970965 -0.036303237
000290 80 71 12 bd 40 31 60 3d a4 bd 4d bd 77 f9 13 3b
       -0.035752773 0.05473447 -0.050229684 0.0022579113
0002a0 03 ca a5 3a 69 f3 2f 3c 9c 59 48 bc f5 e0 7a bd
       0.0012648705 0.010739186 -0.012228396 -0.061249692
0002b0 5e a8 a6 bd 42 99 51 bb f8 88 86 ba 63 0c 15 3d
       -0.08137582 -0.0031982218 -0.0010264209 0.036388766
0002c0 84 50 10 3d 73 bb 02 bd 80 2d 8b 3d 64 60 53 bd
       0.035233036 -0.031917047 0.06795788 -0.051605597
0002d0 9b 44 ea bc 3a c5 0b 3d d8 61 8e bd 2e b1 f0 3b
       -0.028597167 0.034123637 -0.06952256 0.00734534
0002e0 43 5c 65 bb c1 04 db 3b eb e7 8a bd 48 a8 61 3c
       -0.003499762 0.0066839163 -0.06782516 0.0137730315
0002f0 f0 b5 6c bd ac 27 1f bc 01 1e 7e bd 9d ef 02 bc
       -0.057790697 -0.009714048 -0.062040333 -0.007991699
000300 f9 d4 c7 3c 01 8d 9d 3c cd c9 1b bd ba 61 55 bd
       0.024393545 0.019232275 -0.03803425 -0.052095152
000310 77 32 89 bd 9f 90 27 3d 7b 53 8c 3c 6d 48 e4 bc
       -0.066990785 0.040909406 0.01712965 -0.027866567

layers.4.weight f4 [200, 200]
000000 5c ef 77 bc e5 64 02 3c 8c 95 1b bd d6 7c f4 3c
       -0.015132751 0.007958625 -0.037984416 0.029844683
000010 81 2a f5 3c 0d bf 09 3b 1f 1c f9 3c 92 e4 dc 3c
       0.029927494 0.0021018416 0.030408917 0.02696446
000020 e8 aa 3d 3c 92 8c a7 bd ab cd dc 3b 72 49 26 bd
       0.011576392 -0.081811085 0.0067383847 -0.040597387
000030 ba ff 6e bd 0b ad d8 3c c6 48 0d bd 45 3a 64 be
       -0.05834935 0.0264497 -0.03449323 -0.22287853
000040 6f a6 2c 3d 80 ee 86 bd 49 40 b2 bd e2 16 6a bd
       0.04215091 -0.06588459 -0.08703668 -0.05715073
000050 18 fe 27 3d ee 4a 32 3d b7 2e 21 bb 0b 10 26 bb
       0.041013807 0.04352849 -0.0024594495 -0.0025339152
000060 b2 d7 03 bd 4c 5b f3 3b 77 08 fb bc 78 ad c6 3c
       -0.032188125 0.007426655 -0.030643685 0.024252638
000070 86 b1 22 3c 24 88 5c 3c 2b 87 29 3e 70 82 68 bd
       0.00993002 0.013460193 0.16555469 -0.05676502
000080 95 39 56 bc 45 85 7a bd 01 7c 69 bd 6f 1c 54 bd
       -0.013075252 -0.061162252 -0.057003025 -0.05178493
000090 7e f6 3d bd 68 ae 83 bd 39 55 54 bd 62 9f 18 3d
       -0.04637765 -0.0642975 -0.051839087 0.037261374
0000a0 c8 ef 9d 3d 77 f4 37 3d 1f 7d c6 bb 7e b6 85 3d
       0.0771175 0.044910874 -0.006057396 0.06528948
0000b0 ef 9d 54 3d 10 a1 45 bd 60 f8 94 3c 5e b9 54 3d
       0.05190843 -0.048249304 0.01818484 0.051934592
0000c0 18 65 28 3d 3f 8a 8e bd 58 b2 77 bd 55 d7 db 3b
       0.041112036 -0.06959962 -0.060472816 0.006709019
0000d0 76 e9 9f 3c e6 26 11 3d 8a 5b 95 bd b4 89 a4 bd
       0.019520503 0.035437487 -0.0729285 -0.08034077
0000e0 df 84 d9 3b e7 fa 81 bd f0 3e 5f bd bf 0d 98 3d
       0.006638154 -0.06346684 -0.05450338 0.07424497
0000f0 3f ea 75 bd 11 31 ec bc b3 50 2f bd f6 f8 0c 3d
       -0.060037848 -0.02883199 -0.04280157 0.034417115
000100 c7 d6 3a bc 1a 67 19 bc 81 b7 a4 3c d2 03 62 bd
       -0.011403746 -0.00936296 0.020107033 -0.055179425
000110 88 a4 4d bd 46 73 82 3c 66 ea b1 bd c0 b7 77 bd
       -0.050205737 0.015924107 -0.08687286 -0.060477972
000120 c2 d5 53 3d 86 60 38 3b 9b a2 a3 bd ab be 7f 3d
       0.051717527 0.0028133704 -0.07989999 0.062437695
000130 7e eb 33 3d c4 63 cb bd 30 38 ec bc fc ac c5 bc
       0.043925755 -0.09931138 -0.028835386 -0.024130337
000140 8a 1c 44 3d e6 3d 64 3d 9c 45 05 bd 01 2f 21 bd
       0.04787878 0.055723093 -0.032537088 -0.039351467
000150 30 6b 34 bd 4d 10 fa bc c7 42 79 3d 68 0d 8f 3d
       -0.044047534 -0.030525351 0.0608547 0.06984979
000160 60 9e 56 bd fb 39 c1 bc 20 7f 55 bd 61 0c ae bc
       -0.052397132 -0.023587218 -0.05212319 -0.021246137
000170 08 09 96 bd 29 e7 c7 bc 79 0f 11 3d 88 78 67 3d
       -0.07325941 -0.024402218 0.035415146 0.056511432
000180 55 4f bc bb 4a 94 42 3d 05 64 a3 bd f1 40 18 bd
       -0.005746762 0.0475047 -0.079780616 -0.037171308
000190 c7 fe be 3d f5 15 3f be c0 b7 da 3c 02 84 e3 bd
       0.09325939 -0.1866072 0.026698947 -0.11109163
0001a0 8d 81 3c 3e e0 c3 e9 bb 46 a6 2e bd e4 81 58 bd
       0.18408795 -0.007133946 -0.04263904 -0.05285825
0001b0 29 9c 46 bc 6e ef 86 bc 84 74 87 bd dd 7f 85 3d
       -0.012122192 -0.01647159 -0.066140205 0.065185286
0001c0 46 ac 30 bd 88 96 6b bb 0e bc 7a 3d be b1 a9 bb
       -0.043133043 -0.0035947878 0.0612145 -0.005178659
0001d0 bd 8f 15 3d 03 ec 02 be 09 18 a8 3d 04 2d e7 bc
       0.036514033 -0.12785344 0.08207709 -0.028219707
0001e0 22 cd 90 bd 4b 89 e8 bb e8 e5 27 bd 12 a6 10 3d
       -0.07070376 -0.0070964447 -0.04099074 0.035314627
0001f0 a9 6d d3 3c c3 7d 2d bd 26 8f 93 3d 00 79 23 3d
       0.025809126 -0.042356264 0.07205038 0.039910316
000200 13 6c 02 bd 2e 0c 8f bc 0e b6 ed bd 46 9e 72 bd
       -0.03184135 -0.017461862 -0.1160699 -0.059232973
000210 40 dc 7f bd 45 b0 2d 3d e2 1f 80 3d bc a8 53 3d
       -0.062465906 0.04240443 0.06256081 0.05167459
000220 46 41 27 3c 3b 71 35 bc 44 a6 ef bd 97 8e 44 3d
       0.0102084335 -0.0110743595 -0.117016345 0.047987547
000230 42 f7 05 bc 5b 1c 8e 3c 33 cd ff bc f5 5c a8 bd
       -0.008176627 0.017347505 -0.031225776 -0.08220855
000240 9d 8f e3 3c 47 0d 89 bc 47 02 31 bc d1 3b b4 bd
       0.027778441 -0.016729964 -0.010803766 -0.088004716
000250 d4 44 16 3d 3a e3 08 be 48 03 90 bd 79 5c 6f 3d
       0.036686733 -0.1336793 -0.07031876 0.0584378
000260 21 a6 df bc e2 d2 db 3c 31 f9 1a bd 81 a7 7b bd
       -0.027300896 0.026833955 -0.037835304 -0.06143904
000270 f8 af 99 3d 0b 4d 91 3d 6f fc ba bc 6a a4 18 bd
       0.075042665 0.07094773 -0.022825448 -0.037266172
000280 02 bb 96 3d eb cd eb bc 70 95 8d bd a7 dc 3b bd
       0.07359888 -0.028784713 -0.069132686 -0.045864727
000290 7c 8c f1 bc 48 89 9f 3c 5b 06 23 3d 89 22 73 bd
       -0.029485933 0.01947464 0.039800983 -0.059359107
0002a0 be 4c b4 3c 80 c7 47 3d ff 90 5d 3c 6d 3d bd ba
       0.02200925 0.048774242 0.013523339 -0.0014437862
0002b0 76 74 cd 3d fd 93 16 3d 63 66 22 bd 51 92 90 bd
       0.10031979 0.036762226 -0.039648425 -0.07059158
0002c0 81 83 a6 3c b1 78 80 3d 60 28 a6 bd bf a3 03 3d
       0.020326378 0.0627302 -0.0811317 0.032138582
0002d0 b3 24 9f bd 30 bc f8 3c c5 62 9f 3c 7c a2 8d bc
       -0.07770672 0.030363172 0.019456277 -0.017289393
0002e0 c8 75 84 3d 16 e0 93 bd 3f 7a 9c 3c 35 f0 7d 3d
       0.064677775 -0.072204754 0.01910126 0.061996657
0002f0 82 0b ab 3c b8 f5 17 3c 5d c6 01 be 55 25 c4 bd
       0.02087951 0.0092748925 -0.12673326 -0.09577433
000300 84 8b 1f bb 5e 92 47 3c 98 c6 19 bd c5 58 5c bc
       -0.0024344632 0.012180893 -0.03754291 -0.013448899
000310 e6 04 34 bd f1 97 ea 3c 6b 1b b8 bd 72 48 4d bd
       -0.043949984 0.028636904 -0.089896046 -0.050117917
000320 01 81 e0 bd 0f a3 39 3d 35 0e 00 3d 0a 4b 44 bd
       -0.109621055 0.04532152 0.03126355 -0.047923125
000330 10 82 fa 3c 9f f5 f8 bc 38 f1 6f bd f1 14 f0 3b
       0.030579597 -0.030390559 -0.058579654 0.007326715
000340 e7 24 8e 3c 67 fe 6c be 07 41 37 bc 8d a4 93 be
       0.01735158 -0.23143922 -0.011184937 -0.2883648
000350 e2 30 d0 3c d8 5d 56 3d b0 44 61 3d a0 76 4f bd
       0.025413934 0.05233559 0.054997146 -0.05065024
000360 f4 22 ab 3b 63 e0 54 3a 81 02 56 bd 0c 35 3b 3c
       0.0052226726 0.00081205944 -0.05224848 0.011426222
000370 94 9f 8b bc cb ab 4e 3e a9 41 7f be 4b b2 9e 3d
       -0.017043866 0.20182721 -0.24927391 0.077488504
000380 11 a5 e2 3b b2 65 65 3c 83 22 8b bd 54 6f 29 bd
       0.00691665 0.014001297 -0.06793692 -0.041365936
000390 bd 87 de bb d2 43 83 be f4 d4 cb 3d cd 70 52 3d
       -0.0067910836 -0.2563768 0.09952727 0.051377106
0003a0 e2 8d 1f bd 75 2a 40 3d f5 66 c9 3b 2d 27 cb bd
       -0.03895367 0.04691549 0.0061463066 -0.099195816
0003b0 31 99 9a 3c 0b 90 ae 3c 2e c3 17 bd 39 bc 10 bd
       0.018871875 0.02130892 -0.037051372 -0.035335753
0003c0 7a 4d 55 3e b8 44 92 bd 39 c6 b5 bc 2c e2 6a 3c
       0.20830336 -0.07142013 -0.022189246 0.01433615
0003d0 11 96 86 3d 7d b7 e9 bc ae 35 54 3d ca 01 cb 3b
       0.06571592 -0.028529877 0.051809005 0.0061952816
0003e0 31 58 ba 3d f1 f6 61 bc 17 b1 92 bb 39 a2 ef be
       0.090988524 -0.013791786 -0.004476677 -0.46803454
0003f0 52 6f bf be 3b c7 53 bd 1d 07 41 be 4c e4 0b be
       -0.37389618 -0.051703673 -0.1885037 -0.13661307

layers.4.bias f4 [200]
000000 6f 78 fc bb f4 c6 11 3d 08 2f 9f bc 1d a8 8e bd
       -0.0077047865 0.035590127 -0.019431606 -0.06965659
000010 51 a4 81 3c c1 fa b2 3d 24 71 b1 3c ec e7 8d 3d
       0.015825422 0.08739234 0.021660395 0.06929001
000020 35 44 c9 3d 4d c6 f8 bc 1b a3 b9 3c 7e c7 81 3c
       0.098274626 -0.030367995 0.022660783 0.015842196
000030 ad 51 3b 3d 9f ff 93 bd 84 98 bb 3c b0 76 3a 3c
       0.04573219 -0.0722649 0.022899874 0.011380836
000040 20 80 c0 bd e4 64 14 bd 19 fc a0 3d 07 24 a1 bd
       -0.09399438 -0.03622903 0.07860584 -0.078682
000050 18 12 cb bd 7b 00 32 bd 30 62 5a 3d 34 5c 5c bd
       -0.099155605 -0.04345749 0.053316295 -0.05379887
000060 d4 3d 60 bc d2 ea 63 bb 57 30 41 3d 25 23 c6 3c
       -0.013686616 -0.0034777415 0.04716524 0.02418668
000070 38 a7 a9 bd b0 dd 0a bd 89 25 19 3d 3e 5e 06 3d
       -0.082838476 -0.033902824 0.037389312 0.03280472
000080 ea 71 8b bd 70 d9 32 3d 68 7f 92 bb f8 2a 92 bd
       -0.06808837 0.043664396 -0.0044707544 -0.07137102
000090 1b 82 89 bd c8 e5 a3 3d 2d 15 8e 3c 4b c1 08 bc
       -0.06714269 0.08002812 0.017344082 -0.008346866
0000a0 b2 07 2a bc bf 93 a1 3d a3 28 96 bd 05 89 ea bb
       -0.010377811 0.078895085 -0.073319696 -0.0071574473
0000b0 f8 fb 6f bc 1f 8f 0c 3d d6 51 14 bd 22 c0 b6 bd
       -0.014647476 0.03431618 -0.036210857 -0.08923365
0000c0 54 57 12 bc 4d 16 a3 bc ed 2d 09 3c 1e e3 13 bd
       -0.008931953 -0.019908095 0.008372766 -0.036105268
0000d0 20 37 69 bd 48 e0 3c 3c 95 c4 7e bd a3 b4 90 bd
       -0.056937337 0.011528082 -0.062199194 -0.07065704
0000e0 7d a1 d8 bb 86 75 f9 bc 7b 2d 84 3d 08 7a 8c bc
       -0.006611048 -0.030451547 0.06453987 -0.017148033
0000f0 00 d9 fb bb e9 09 57 bd c7 46 04 3d 0b f4 3d 3d
       -0.0076857805 -0.052499685 0.03229406 0.046375316
000100 18 a3 85 bd 38 08 aa 3d a8 d1 1b bd fc 36 49 3d
       -0.06525248 0.08302349 -0.03804174 0.049124703
000110 b8 6c 9f 3d 58 ea 8b 3d 8e cb 15 3d 7e b6 b5 bd
       0.07784408 0.06831807 0.036571078 -0.08872698
000120 5f d0 6e 3c 1c 22 07 bd 5e c5 88 3d 68 f9 4d bb
       0.014576047 -0.032991514 0.0667827 -0.0031429175
000130 b0 c2 0f 3d 4e 11 cd 3d 1f 5e 0d bb c0 c7 46 bd
       0.035097778 0.10013066 -0.0021570993 -0.04853034
000140 3d 45 e8 bc 10 36 de bc a1 dc b5 3d 7e 47 9a bb
       -0.028353328 -0.027125388 0.08879972 -0.0047082296
000150 ae 4b 87 3d 18 7a 72 bd 6f 46 f8 bc 97 63 b5 3d
       0.06606232 -0.05919847 -0.030307023 0.08856886
000160 41 9a 42 3d 13 61 9f 3d ca c8 2b 3d 26 8a 30 bd
       0.04751039 0.07782187 0.041939534 -0.0431005
000170 f8 c8 68 bd c5 64 e5 3c 4b 1c 37 3d fc 0c 9c 3d
       -0.056832284 0.028002152 0.044704717 0.07619664
000180 1b 7d 8e 3c e0 5f be bc 82 0e e0 bc 2b 40 66 bd
       0.01739364 -0.023239076 -0.027350668 -0.05621354
000190 1a 3a cc 3c 12 44 72 3d b8 f6 af bc 2c 1e 76 bd
       0.024930049 0.05914695 -0.02147995 -0.060087368
0001a0 39 f3 4a bd 9b c3 28 bd 07 c3 25 bd 96 aa 2e bd
       -0.04954836 -0.04120217 -0.040469196 -0.042643152
0001b0 a4 af 21 3d 07 49 9a bd 86 8b 70 3c 94 f8 7c 3d
       0.039474145 -0.0753346 0.0146817025 0.0617605
0001c0 7d 81 8d bd d4 5a b0 3c 33 ae 4c be f2 09 95 36
       -0.069094636 0.021527685 -0.19988327 4.441704e-06
0001d0 2b b2 8c bd ca 71 90 3d 60 94 f0 bb 35 9f 98 bd
       -0.0686992 0.070529535 -0.0073419064 -0.07452241
0001e0 65 1a 4c 3d bc 69 a9 bd e6 5f 31 bd b9 dd 6a bd
       0.04982986 -0.0827212 -0.043304347 -0.057340357
0001f0 a9 0d 80 bd 8a 56 be 3d a2 bb 45 bd 69 3b 3d 3d
       -0.062526055 0.0929385 -0.048274644 0.046199236
000200 8e a2 2c 3c 91 f3 6e bc e4 74 95 bd e4 10 ac 3c
       0.010536803 -0.014584438 -0.07297686 0.021004148
000210 84 0b 44 bd a7 41 05 be e8 5a ba bd 68 e4 9f bc
       -0.047862545 -0.13013326 -0.0909937 -0.019518092
000220 28 e5 a2 3c e8 e5 56 bd d5 29 4d 3d df 26 1e 3c
       0.01988466 -0.05246535 0.050088722 0.009652822
000230 bb e5 71 bd 16 f5 82 bd a4 b6 6e 3b 11 16 58 bd
       -0.05905698 -0.06394403 0.003642478 -0.05275542
000240 91 8e 51 bd 0a 59 78 bd 5d 3f 50 bd de c7 12 bd
       -0.051161353 -0.06063179 -0.050841678 -0.03583514
000250 c9 07 98 3d a4 01 84 bd da 0b 3a bd db 40 99 3d
       0.0742336 -0.064456254 -0.04542146 0.07483073
000260 67 4b b2 3c 70 6e 2c bd 97 27 88 bb a2 33 a2 bd
       0.02176447 -0.04209751 -0.00415511 -0.079200044
000270 67 5e 3b bd 7b ea e0 bd f7 15 f7 3b 7d 27 57 bd
       -0.045744326 -0.109822236 0.00754046 -0.052527893
000280 fd 71 a1 bd d9 48 7f bd 9f 7d 4b bd b0 51 6d bd
       -0.0788307 -0.062325332 -0.04968035 -0.05793923
000290 3a 71 df bc 14 78 a1 3d 73 cf a5 bc 66 50 48 3d
       -0.02727567 0.07884231 -0.020240521 0.0489048
0002a0 d6 4f 7b 3d 72 d4 53 3d 2e 10 e2 3c 5d 2f 8b bc
       0.061355434 0.051716276 0.027595606 -0.016990358
0002b0 70 64 07 bc d1 9f 9e bd 9f 39 44 bd 5d cd e3 3c
       -0.008263692 -0.07745326 -0.047906514 0.027807886
0002c0 e0 f5 c5 3d 1e 92 f5 3c 2b cd 7d bd b0 15 d7 b9
       0.096660376 0.0299769 -0.06196324 -0.00041024154
0002d0 5a 94 3b bd 8c 93 93 3d ed 8d 2a 3d d5 73 68 3d
       -0.045795776 0.07205877 0.041639257 0.05675109
0002e0 96 65 61 3b 1b 7a a8 bc 59 0a d8 bc ea 37 89 bc
       0.0034392825 -0.020566037 -0.026372122 -0.016750295
0002f0 e5 f5 ba 3c ef af a2 bd 50 b9 ab 3d 13 28 28 3d
       0.02282233 -0.07943713 0.08384955 0.041053843
000300 f7 79 af bd cf 3e 24 bd b0 b0 00 3c 10 aa 32 3d
       -0.08568185 -0.04009896 0.007854626 0.043619215
000310 00 9c 6f 3d 0c 09 ff bd 28 4d b6 3b 05 80 9d bd
       0.058498383 -0.124528974 0.005563397 -0.076904334

out.weight f4 [1, 200]
000000 38 02 09 3a 6f f2 83 3d ac a6 c8 3c e5 e4 9a 3d
       0.0005226466 0.06442725 0.024493538 0.075631894
000010 24 46 0a bd ad 89 13 bd 7b 1e ff bc 88 dc 12 bd
       -0.033758298 -0.03601997 -0.031142464 -0.035854846
000020 6f 9f 76 3d f6 12 f6 3c a5 54 c4 3d ad ee 9c 3d
       0.06021064 0.030038338 0.09586457 0.07662711
000030 3e 0f d9 bd 72 34 73 3d a7 6a b9 3c 6c 3a 38 bd
       -0.1059861 0.059376188 0.022633864 -0.04497759
000040 32 01 37 bd 84 6b 2d 3d 12 a4 a4 bd 25 df 76 bd
       -0.044678874 0.042338863 -0.080391064 -0.0602714
000050 cc dc 38 3d a0 01 5e 3d 7b cd ff 3d 27 ad 00 3d
       0.045132443 0.05420077 0.12490364 0.03141513
000060 d1 4e 19 3d ea 17 98 3d 20 2a 93 3d 81 f3 dd 3c
       0.03742868 0.07426436 0.07185769 0.02709365
000070 51 f9 64 3d a6 89 b7 ba 01 7e 29 bd f9 cd d0 bc
       0.05590183 -0.0014002814 -0.041379932 -0.02548884
000080 56 13 bc 3b 28 7d bc 3c 34 9a 12 3e 8a 8d 3f bd
       0.0057396097 0.023008898 0.14316636 -0.04676584
000090 2f 25 bc 3d 5c db ac bd ed 24 11 bd b0 46 8b bd
       0.0918678 -0.08440277 -0.035435606 -0.06800592
0000a0 fc 2d 07 3d af 08 00 bd 17 b7 86 bc 6a ed cc 3c
       0.03300284 -0.03125828 -0.016444726 0.025015552
0000b0 08 70 3d 3d b0 c9 b9 bd 4f 1f 2c 3b 9c cb a2 bc
       0.04624942 -0.09071672 0.0026263779 -0.01987248
0000c0 89 49 e9 bd 41 c8 4a 3d b6 24 61 3d 4a 84 1a 3d
       -0.11390979 0.049507383 0.05496665 0.037723817
0000d0 ab dc 86 bd b9 79 a7 3c 54 3f 20 bd 85 5e 9e bb
       -0.06585058 0.020443784 -0.039122894 -0.004833045
0000e0 5e 8b 96 bc a2 9c 22 bd 22 77 35 3d 76 d8 75 bd
       -0.018377002 -0.039700158 0.044303067 -0.060020886
0000f0 0c 76 58 3b 41 50 16 3d b7 ca 03 bd 10 54 46 3d
       0.0033029346 0.03669763 -0.032175746 0.048420012
000100 ee e9 90 bc e6 be 6b bc f9 d0 4a 3d 9d 6e 87 bc
       -0.017689671 -0.014388775 0.049515698 -0.016532237
000110 9f e1 49 bc 5c 69 f6 3c a4 3a be bd c0 70 1c 3f
       -0.012321859 0.030079536 -0.092885286 0.6110954
000120 d0 86 68 bd 64 0d 01 bb 51 fe 96 bd 9c ca 0b 3d
       -0.056769192 -0.001969182 -0.07372726 0.03412877
000130 f4 95 34 3d 37 8d 8d 3d d3 92 d8 bc 89 bc a0 3c
       0.04408832 0.069117 -0.026437199 0.01962115
000140 5d c8 20 bb 27 53 34 bd cb 0d 8a bd f7 60 b8 3c
       -0.0024533488 -0.044024613 -0.06740912 0.022507174
000150 15 84 9e bd e5 08 e9 3c 14 e3 0b bd 43 7b 2d bd
       -0.077400364 0.028446624 -0.034152105 -0.04235388
000160 76 32 0b 3d a9 28 56 bd 6d a4 64 bc c3 a7 7d bc
       0.03398367 -0.05228487 -0.013955218 -0.015481892
000170 b5 0d 7a b9 85 a8 0d bd d1 e7 12 bd b8 58 91 3d
       -0.00023846964 -0.03458454 -0.03586561 0.07097
000180 12 b0 c2 be 00 d6 8c bd c8 b1 06 3d 14 21 62 bd
       -0.38024956 -0.06876755 0.03288439 -0.055207327
000190 71 0c 1a 3d 55 1a d2 bc 56 62 4f bd 72 ac 81 3d
       0.03760952 -0.025647322 -0.05063089 0.063317195
0001a0 2d c9 81 3b 3f 88 08 3d 41 d5 9e ba 0b 2c 7d bd
       0.0039607496 0.03333306 -0.0012117998 -0.06180958
0001b0 6f e5 21 3d db 73 25 3c d3 79 3e bc 5a 76 9f bc
       0.039525446 0.010098423 -0.011625725 -0.019465614
0001c0 93 33 db 3c ba 30 94 bd 0f 91 ce bd 42 b9 d7 bc
       0.026757991 -0.07235856 -0.100862615 -0.026333455
0001d0 b6 36 48 bb 43 df db bc 8a d6 81 bd a6 3f 11 bd
       -0.0030550188 -0.026839858 -0.06339748 -0.03546109
0001e0 89 f7 ce bc 8c a6 e4 3c 41 74 04 bd cc 57 87 bc
       -0.025264518 0.027911447 -0.03233743 -0.016521357
0001f0 5a ad 0b 3e 66 5b f1 bc e7 4d 47 bc 56 84 c4 be
       0.13640347 -0.029462527 -0.012164569 -0.38382214
000200 7b 63 c2 3c 17 b9 01 3c 02 8d 83 bd 03 f2 65 3d
       0.023729077 0.007917664 -0.064233795 0.056139003
000210 fc db 1a 3d fa 3b 64 bd f8 41 c0 bb 08 a0 24 3d
       0.03780745 -0.05572126 -0.005867239 0.04019168
000220 ac a2 90 ba 37 fb a8 ba a8 43 76 bc 25 93 13 3d
       -0.0011034808 -0.0012892251 -0.015030779 0.036029
000230 6e 55 f8 3c 6e e0 e2 3c a8 f8 1c 3f 93 d0 06 3d
       0.030314174 0.027694907 0.6131692 0.032913756
000240 bd c9 64 bc 73 7e 5d bc 12 00 38 bd 7d ba 28 bd
       -0.013964114 -0.013518917 -0.044921942 -0.041193474
000250 bd 22 e9 bc fb 8e f7 bc 94 a9 39 3d 0c 78 28 3d
       -0.028458947 -0.030219546 0.045327738 0.04113011
000260 d1 b7 cf 3c b4 d0 a8 3c 0d f5 cd 3d 3f 1a 31 bc
       0.025356205 0.02060733 0.10056505 -0.01080948
000270 6b 5a 47 3d 95 1a 01 3e c4 59 be bc cd 6a db be
       0.048670214 0.12607796 -0.023236163 -0.4285492
000280 da c9 78 3d 48 c5 34 bd 2f 32 06 3e bd ca 5c bd
       0.060739376 -0.044133455 0.13105081 -0.053904284
000290 9d 43 bc 3c 73 11 05 3d f1 53 e4 3c a3 d2 83 bd
       0.02298146 0.032487344 0.027872058 -0.0643666
0002a0 10 b1 07 bc 6b fe 58 3c de 42 6e 3d 9e 5c 67 ba
       -0.008281961 0.013244252 0.05816924 -0.0008825752
0002b0 1f ae e7 3c e5 65 72 3b e1 29 0f bd 5a 10 36 3d
       0.02828127 0.0036987003 -0.03495205 0.044449188
0002c0 76 aa a1 3d 9b 4a 59 3d 9a 02 30 ba 1e 24 9a 3c
       0.07893841 0.053049665 -0.0006714255 0.01881605
0002d0 2c a2 59 bd 4e 62 37 bd 1a b7 d1 bc 6b 0e 5f bd
       -0.053133175 -0.044771485 -0.025600005 -0.05445711
0002e0 8c 3c 76 3d b4 0e 84 bd 07 ac 01 3d ba 74 10 be
       0.060116336 -0.06448117 0.0316582 -0.14107028
0002f0 99 5b 99 3d 10 d1 b1 bc 1e a1 0a bd 4f db 31 3d
       0.07488174 -0.021706134 -0.03384506 0.04342204
000300 3d 1e 1a bd 38 8c 58 bb c4 16 d0 bd 57 58 13 3d
       -0.037626494 -0.0033042561 -0.10160592 0.03597292
000310 27 02 d8 3c 16 8a 37 bd 2e dc 2c bd 80 f7 24 3c
       0.026368214 -0.044809423 -0.042202167 0.010068774
