models/model_1000000_train_10000_epoch_192_neurons_boxcox_scaler.pt (torch, 38077 bytes, 7 tensors)

layers.0.weight f4 [64, 5]
0.21381995 0.21129334 -0.52381325 0.28488323 0.21274777 -0.07210277 0.06684639 0.14355868
-0.13382359 0.46253967 0.430993 0.41220546 0.21909763 0.25690037 0.2946248 0.32066768
-0.07754491 0.26666275 -0.22829293 -0.60023314 0.0021792785 -0.33125156 0.12481381 0.45120412
-0.2648655 0.33860156 -0.29943714 -0.34036136 -0.15606877 -0.17530136 0.26709688 -0.32043976
0.016052902 -0.29420727 -0.17358683 -0.83255327 0.08820633 -1.1608845 0.023921575 0.14352697
-0.0019147337 0.003249366 -2.4905717 0.00020556452 0.005403954 0.35821468 -0.22017969 -0.39775383
0.2389914 -0.34179232 0.10687438 -0.15950148 0.18691686 0.25942054 -0.5280981 -0.57144135
-0.13838406 0.37061855 -0.033617172 -0.32904205 0.20085567 0.37415662 0.37002718 -0.2568147
0.46423522 0.44042304 -0.45962584 0.24365203 -0.07180826 -0.035037827 0.23269396 -0.45604023
0.38883045 -0.0846546 0.33888185 -0.13972746 -0.14269018 0.35060418 0.43019956 0.37067586
-0.34024164 0.22665688 -0.51905227 -0.2438809 -0.079755016 -0.23276487 0.18810661 0.23278525
0.03116138 -0.41889852 0.16649254 0.005188059 0.39457816 0.021925783 -0.586001 0.3284625
-0.116712876 0.42477152 -0.16575979 0.44858953 0.11510129 0.18532093 -0.41645598 0.0003680303
-0.12910907 -0.2110714 -0.04926795 0.24109341 0.454619 -0.3428098 0.08595147 -0.0759016
0.25697705 0.47558653 0.64244616 0.13128734 0.006144282 0.36130577 0.019714756 -0.30090195
-0.16316006 0.29377005 -0.8942555 -0.019744534 0.4879631 0.3622968 0.43251327 -0.33463714
0.0111702 -0.14335527 -0.19201122 -0.21347821 -0.5310271 0.3184985 -0.03255243 -0.017712839
0.40112326 0.44651833 0.025814125 0.44880763 -0.07524331 0.040694866 -2.2108629 -0.008499075
0.46393397 0.106816664 0.29730126 0.3456049 0.3072075 0.44814068 -0.15874979 0.4177092
-0.09941536 0.4214971 0.28546908 0.38269815 -0.5202009 0.20438838 0.22555055 -0.04596346
0.11698542 0.4021207 0.16223286 0.007917404 0.17635895 0.13441437 0.06224006 0.19318719
0.15179527 0.07160346 -0.018608138 0.21635419 0.21007136 -0.0009222909 -0.43310192 -0.121579506
0.4082641 0.25660968 0.13274164 -0.080073446 -0.0032218911 -0.2847287 0.09903038 0.00094877265
0.26682 -0.19645455 -0.3130354 -0.09493462 -0.4163649 0.1165374 0.03676481 0.07242762
-1.3800238 0.04354222 -0.013698787 0.10549828 -0.2384311 0.29054615 0.14551973 0.06543283
-0.07522919 0.01980427 0.5748152 0.040699694 -0.6100514 -0.1926681 0.32743275 0.24419163
0.030284084 -0.16622917 -0.6304222 0.24712224 -0.038441364 -0.0056860694 -0.057803776 0.17112297
-0.20095578 -0.635938 -0.07387166 0.013834494 0.18092676 0.35883272 0.13424014 0.0246638
-0.3205174 -0.031165712 0.030867096 -2.0882628 -0.0024086097 0.18787952 -0.56443465 0.18274139
0.017752666 0.003959058 -0.058817666 -0.7045809 0.32230935 -0.25847107 0.0017046215 -0.17059875
0.35587892 -0.36817983 -0.51451075 -0.10726266 0.20197038 -0.7282185 0.2885638 -0.06616186
-0.03542656 -0.277825 0.25372165 0.39165965 -0.34325117 -0.0010797486 -0.4639441 0.4000891
00000000: 9ef3 5a3e 485d 583e a018 06bf 37dc 913e
00000010: 8dda 593e 9eaa 93bd c3e6 883d 0c01 133e
00000020: 0d09 09be 00d2 ec3e 1dab dc3e 980c d33e
00000030: 215b 603e 7288 833e 10d9 963e 8e2e a43e
00000040: decf 9ebd 0588 883e 9fc5 69be e1a8 19bf
00000050: 3ad2 0e3b ce99 a9be 629e ff3d 3a04 e73e
00000060: 739c 87be 2f5d ad3e d34f 99be d843 aebe
00000070: 7ed0 1fbe 3382 33be ecc0 883e ae10 a4be
00000080: 6081 833c 56a2 96be bfc0 31be 3622 55bf
00000090: 85a5 b43d dd97 94bf 2ef7 c33c bcf8 123e
000000a0: cdf7 faba 51f3 543b 8765 1fc0 ce8c 5739
000000b0: a713 b13b ea67 b73e c976 61be 64a6 cbbe
000000c0: 29ba 743e 67ff aebe f4e0 da3d 5b54 23be
000000d0: 2267 3f3e c5d2 843e 7031 07bf fb49 12bf
000000e0: 8db4 0dbe b7c1 bd3e 29b2 09bd 3378 a8be
000000f0: 1cad 4d3e 7591 bf3e 3474 bd3e 377d 83be
00000100: 3db0 ed3e 217f e13e 1454 ebbe eb7f 793e
00000110: 3610 93bd d383 0fbd 5347 6e3e 1b7e e9be
00000120: c914 c73e 645f adbd ec81 ad3e b714 0fbe
00000130: 601d 12be 6482 b33e 1e43 dc3e 3ac9 bd3e
00000140: 2734 aebe be18 683e 9ce0 04bf eabb 79be
00000150: 9956 a3bd ea59 6ebe 059f 403e 425f 6e3e
00000160: 2646 ff3c de79 d6be 057d 2a3e 9800 aa3b
00000170: 2606 ca3e b39d b33c 2904 16bf 3d2c a83e
00000180: 2907 efbd a77b d93e efbc 29be 87ad e53e
00000190: 3aba eb3d c5c4 3d3e b839 d5be 31f4 c039
000001a0: 2b35 04be 1a23 58be 31cd 49bd 31e1 763e
000001b0: d2c3 e83e c484 afbe 5307 b03d 4c72 9bbd
000001c0: 7f92 833e 1480 f33e 5a77 243f 3070 063e
000001d0: f955 c93b 12fd b83e d780 a13c d20f 9abe
000001e0: 6e13 27be 0769 963e eeed 64bf 4abf a1bc
000001f0: 4dd6 f93e f77e b93e 6172 dd3e 8f55 abbe
00000200: 3703 373c b9cb 12be 979e 44be 089a 5abe
00000210: 64f1 07bf 3c12 a33e b255 05bd 841a 91bc
00000220: 0760 cd3e 0d9e e43e 2578 d33c 1dca e53e
00000230: 2a19 9abd a9af 263d c77e 0dc0 b43f 0bbc
00000240: c188 ed3e b2c2 da3d df37 983e 20f3 b03e
00000250: 4d4a 9d3e b272 e53e 4e8f 22be fbdd d53e
00000260: 489a cbbd 78ce d73e 0129 923e 03f1 c33e
00000270: e32b 05bf 304b 513e b9f6 663e 2e44 3cbd
00000280: 0d96 ef3d c4e2 cd3e 5f20 263e 00b8 013c
00000290: 7197 343e eca3 093e 6fef 7e3d ddd2 453e
000002a0: 3870 1b3e d6a4 923d 1870 98bc f48b 5d3e
000002b0: f21c 573e e5c5 71ba 89bf ddbe adfe f8bd
000002c0: fe07 d13e 5862 833e 6ded 073e 8cfd a3bd
000002d0: 5d26 53bb f6c7 91be 71d0 ca3d 0eb7 783a
000002e0: a29c 883e 622b 49be 2d46 a0be 156d c2bd
000002f0: c82d d5be 29ab ee3d b396 163d ef54 943d
00000300: 9fa4 b0bf 5459 323d e170 60bc 7b0f d83d
00000310: 4827 74be 77c2 943e 2003 153e a601 863d
00000320: c311 9abd 903c a23c 1727 133f b9b4 263d
00000330: 542c 1cbf c94a 45be 44a5 a73e 5f0d 7a3e
00000340: 5416 f83c fb37 2abe 5963 21bf 9d0d 7d3e
00000350: b174 1dbd 3552 babb a7c3 6cbd dc3a 2f3e
00000360: 5ac7 4dbe d5cc 22bf 064a 97bd 13aa 623c
00000370: dd44 393e ecb8 b73e 3f76 093e bd0b ca3c
00000380: db1a a4be 3c4f ffbc fedc fc3c 19a6 05c0
00000390: c4d9 1dbb 7d63 403e ca7e 10bf 8f20 3b3e
000003a0: 0a6e 913c fcba 813b cbea 70bd 6a5f 34bf
000003b0: bb05 a53e 5256 84be 9b6d df3a 70b1 2ebe
000003c0: c335 b63e 1182 bcbe fab6 03bf 87ac dbbd
000003d0: 53d1 4e3e 876c 3abf a2be 933e df7f 87bd
000003e0: 711b 11bd 143f 8ebe cee7 813e 9d87 c83e
000003f0: 9ebe afbe 5a86 8dba 158a edbe 7ad8 cc3e

layers.0.bias f4 [64]
-0.17929704 0.51542354 -0.23275717 0.09247067 0.47444427 0.43926433 0.4632528 0.20661044
0.00392986 0.31727317 0.039723 0.032195304 0.38826412 -0.015525304 0.3698595 0.1604029
0.4165956 0.47765622 -0.13488872 0.0058608097 -0.32084027 0.5121415 -0.0487049 -0.08664198
-0.2757955 -0.28164008 0.4064081 0.1296045 0.027717046 -0.23740672 0.46084714 -0.27929386
0.030599095 0.14422257 0.42039704 0.42587167 -0.07464715 -0.14473663 0.00637525 -0.0476094
-0.008672518 0.21678899 0.3221092 0.2060292 -0.25404808 -0.012335522 0.3951679 0.22000061
0.25900444 0.33302847 0.35358924 0.14692762 -0.28709376 0.18533196 0.31836644 -0.17630646
-0.0017746459 0.41856408 0.30515638 0.025911849 -0.4306441 0.32795772 0.19584021 0.25648022
00000000: a599 37be ccf2 033f e557 6ebe 4361 bd3d
00000010: 5cea f23e 41e7 e03e 792f ed3e b091 533e
00000020: 0ec6 803b a171 a23e 96b4 223d 39df 033d
00000030: 8eca c63e d85d 7ebc 395e bd3e a840 243e
00000040: 054c d53e 5b8f f43e 4520 0abe 090c c03b
00000050: 2d45 a4be b51b 033f ca7e 47bd 5a71 b1bd
00000060: 1135 8dbe 2133 90be b914 d03e 0bb7 043e
00000070: dc0e e33c bf1a 73be 28f4 eb3e 9bff 8ebe
00000080: f4aa fa3c 15af 133e 483e d73e da0b da3e
00000090: 9be0 98bd d735 14be 79e7 d03b 1302 43bd
000000a0: 2d17 0ebc effd 5d3e 7feb a43e 52f9 523e
000000b0: 9712 82be ee1a 4abc 7253 ca3e d747 613e
000000c0: 3b9c 843e b582 aa3e a609 b53e 3274 163e
000000d0: f4fd 92be a9c7 3d3e ed00 a33e ae89 34be
000000e0: 3c9b e8ba 084e d63e 753d 9c3e 1645 d43c
000000f0: 627d dcbe 13ea a73e 568a 483e 6051 833e

layers.2.weight f4 [64, 64]
0.068109475 -0.13321808 -0.06306241 -0.009926572 0.12925275 0.090263054 0.08178594 -0.1127876
0.84816694 0.06196193 0.030663172 -0.008241612 -0.018904265 -0.034924723 0.07647771 0.033376876
-0.035232104 -0.073234975 0.0063190362 -0.12610993 0.116592646 0.009158308 -0.1398539 0.13057077
-0.054089244 0.12660126 -0.008289436 -0.093956135 0.28932562 -0.14883485 0.0032391811 0.013028728
-0.00477025 0.097093254 0.111524396 0.041527607 0.018914953 0.11096546 -0.015569516 0.044200864
0.19331197 -0.13661803 -0.37562123 0.09904252 0.0050344137 0.18360595 -0.2609756 -1.1073346
0.07608746 -0.09365553 0.22361033 0.012673344 -0.043679528 0.0854249 -0.011136069 -0.0012872368
0.23250313 0.08876296 -0.39519078 -0.0044310563 -0.020578891 -0.07945248 -0.00013099487 -0.4256128
-0.027064482 0.08024579 -0.14477353 0.10000878 0.03768683 0.19712736 -0.0064527676 -0.3992672
0.3007616 0.14836232 0.08529214 -0.10913756 0.029886408 -0.016315412 0.0524673 0.045410387
-0.032603096 -0.069274805 0.069987044 -0.1267939 0.027285725 0.027997475 -0.059818983 0.012216569
0.32819435 0.080545045 0.036456052 -0.026873868 0.085874654 -0.078968205 -0.03595445 0.02871172
-0.07660722 -0.08583048 -0.051759508 -0.05411179 -0.039855182 -0.07853414 0.063921615 0.09236509
0.177884 -0.027475648 -0.23038553 0.23804957 0.16335973 0.39387646 -0.07450131 -0.93845534
0.10010298 -0.13515009 0.15722716 0.09018696 -0.12294446 0.15170373 0.12243022 0.033603266
0.07119155 0.19701692 -0.43870962 0.42261884 0.11676769 0.14344719 -0.06322018 -0.92577887
-0.12876894 0.34195125 -0.1649108 0.14168063 0.049226347 0.0025930407 0.120066606 -0.36188218
0.20347881 0.13899389 0.1672933 -0.07167613 0.011886432 0.076377384 0.030467367 -0.13072783
-0.027703108 0.09582404 -0.06742479 -0.14391963 -0.06342618 -0.056218226 0.054646797 0.12967774
0.33234543 -0.005796537 0.23498525 0.08756809 0.20691067 -0.083556116 0.09788495 -0.17937209
0.031589843 -0.092296906 0.05047469 0.021374388 0.028331079 0.05976446 0.02075461 8.606433e-06
0.010667854 -0.09131151 -0.03314047 0.02292019 0.09928543 0.16959894 0.058914464 -0.6742242
0.060733497 -0.13196656 0.23440659 0.14419697 -0.27646732 0.2099137 -0.007820139 -0.07870525
0.06756653 0.07555597 -0.31980336 -0.05691566 -0.017497733 0.095730014 -0.014733417 -0.24746731
-0.11406982 -0.4935625 -0.14816996 0.23325732 0.10755788 0.22731711 0.13683112 -0.0037515373
0.29098043 0.2196874 0.25126576 -0.18663156 -0.19326018 0.0028435306 -0.10432295 -0.20694509
-0.30162513 0.18756922 0.14742345 -0.369993 -0.039730933 0.27164733 -0.31021756 0.14133158
0.010783964 0.04432087 -0.11204505 -0.11958543 0.30911717 -0.14399149 -0.16990684 0.053787958
-0.18827732 -0.11741018 0.11564507 0.01918173 0.1300497 -0.06927192 -0.2791529 -0.064089835
0.26551026 0.16013522 -0.060299806 -0.5912584 0.18968947 0.46885645 -0.33056763 -0.25422323
-0.38929114 -0.48332006 0.2837876 0.18580355 -0.05382976 0.4042948 0.32827666 -0.01896216
-0.94723237 0.12073069 -0.28351295 0.54514253 -0.06221655 0.15206353 -0.15790588 -0.52746755
00000000: fb7c 8b3d 526a 08be dd26 81bd 10a3 22bc
00000010: d55a 043e d6db b83d 637f a73d 2ffd e6bd
00000020: 7821 593f cbcb 7d3d 5531 fb3c d407 07bc
00000030: 1edd 9abc 3a0d 0fbd 58a0 9c3d 31b6 083d
00000040: 8a4f 10bd 38fc 95bd eb0f cf3b f622 01be
00000050: 20c8 ee3d ba0c 163c dc35 0fbe 58b4 053e
00000060: af8c 5dbd c3a3 013e 6ad0 07bc 136c c0bd
00000070: 7d22 943e 2a68 18be 7148 543b 7276 553c
00000080: c24f 9cbb d4d8 c63d e766 e43d da18 2a3d
00000090: 88f3 9a3c dc41 e33d 4917 7fbc f70b 353d
000000a0: 93f3 453e 99e5 0bbe 6d51 c0be ced6 ca3d
000000b0: b9f7 a43b 3303 3c3e 989e 85be 24bd 8dbf
000000c0: bed3 9b3d 78ce bfbd 1bfa 643e dca3 4f3c
000000d0: 4ee9 32bd 40f3 ae3d 0f74 36bc 80b8 a8ba
000000e0: 4d15 6e3e 5bc9 b53d 7256 cabe 6532 91bb
000000f0: 1095 a8bc fbb7 a2bd ab5b 09b9 ece9 d9be
00000100: 55b6 ddbc e857 a43d 833f 14be 67d1 cc3d
00000110: 815d 1a3d c1db 493e bd71 d3bb c06c ccbe
00000120: 6dfd 993e 4bec 173e a5ad ae3d 8383 dfbd
00000130: 57d4 f43c e6a7 85bc f4e7 563d 3e00 3a3d
00000140: d38a 05bd f3df 8dbd 5e55 8f3d 43d6 01be
00000150: 5086 df3c f65a e53c c004 75bd 0128 483c
00000160: 1709 a83e cdf4 a43d f152 153d 9626 dcbc
00000170: 0ddf af3d 15ba a1bd f944 13bd d734 eb3c
00000180: 3fe4 9cbd e4c7 afbd c701 54bd 53a4 5dbd
00000190: 303f 23bd 82d6 a0bd 56e9 823d e929 bd3d
000001a0: 3927 363e 9c14 e1bc 2fea 6bbe 44c3 733e
000001b0: c647 273e 2daa c93e 2594 98bd 9c3e 70bf
000001c0: cb02 cd3d c964 0abe 2800 213e f1b3 b83d
000001d0: 4eca fbbd 3958 1b3e b2bc fa3d 94a3 093d
000001e0: e0cc 913d cebe 493e 8c9e e0be 7f61 d83e
000001f0: e623 ef3d d2e3 123e 9579 81bd d8ff 6cbf
00000200: 01dc 03be 3c14 af3e 60de 28be ba14 113e
00000210: 91a1 493d 01f0 293b 7be5 f53d 9f48 b9be
00000220: c05c 503e 6a54 0e3e ef4e 2b3e efca 92bd
00000230: 4fbf 423c bf6b 9c3d b396 f93c 84dd 05be
00000240: a1f1 e2bc 653f c43d 0216 8abd ab5f 13be
00000250: 96e5 81bd 1545 66bd 52d5 5f3d 3eca 043e
00000260: 2e29 aa3e e0f0 bdbb f99f 703e e656 b33d
00000270: 64e0 533e 781f abbd e877 c83d 51ad 37be
00000280: 5a64 013d 2906 bdbd 8cbe 4e3d 5719 af3c
00000290: 9416 e83c 94cb 743d 9205 aa3c 5964 1037
000002a0: 39c8 2e3c 8701 bbbd 4dbe 07bd 1fc3 bb3c
000002b0: 2956 cb3d 58ab 2d3e 4b50 713d f599 2cbf
000002c0: b0c3 783d 3e22 07be 4808 703e 5fa8 133e
000002d0: 208d 8dbe 9ef3 563e 0a20 00bc 3830 a1bd
000002e0: 5260 8a3d 17bd 9a3d 44bd a3be 6520 69bd
000002f0: 6857 8fbc 190e c43d 6e64 71bc 1268 7dbe
00000300: 709d e9bd 39b4 fcbe deb9 17be 02db 6e3e
00000310: 4e47 dc3d d1c5 683e 751d 0c3e 5adc 75bb
00000320: 63fb 943e bcf5 603e e8a5 803e 581c 3fbe
00000330: ffe5 45be 875a 3a3b 45a7 d5bd 6ae9 53be
00000340: 9c6e 9abe 2512 403e 2cf6 163e b96f bdbe
00000350: e7bc 22bd 5c15 8b3e d6d4 9ebe 3ab9 103e
00000360: 39af 303c cd89 353d e077 e5bd 35e9 f4bd
00000370: 9b44 9e3e 8172 13be 0ffc 2dbe c350 5c3d
00000380: c5cb 40be c074 f0bd 53d7 ec3d 0123 9d3c
00000390: c02b 053e 70de 8dbd 21ed 8ebe 8841 83bd
000003a0: f6f0 873e 7dfa 233e eefc 76bd b65c 17bf
000003b0: f53d 423e f40d f03e 2940 a9be 8c29 82be
000003c0: 2b51 c7be ba75 f7be 9c4c 913e 4943 3e3e
000003d0: 987c 5cbd baff ce3e e113 a83e 8856 9bbc
000003e0: d27d 72bf a741 f73d 9c28 91be 768e 0b3f
000003f0: c8d6 7ebd 8bb6 1b3e 14b2 21be 1d08 07bf

layers.2.bias f4 [64]
0.052450206 0.06500673 0.11267822 -0.098970436 0.037442707 -0.14383215 -0.060949244 -0.006841695
-0.03247051 0.016399167 -0.080107935 0.068849124 0.0136333695 0.085580364 -0.07950401 -0.05953643
-0.019793823 -0.01908715 0.09258274 0.17143598 -0.13277596 -0.081785455 -0.044534773 -0.04703114
-0.012799586 -0.019541793 -0.045569293 -0.055117857 -0.0504723 -0.113579415 0.08731823 -0.032133803
0.056274343 0.09681662 0.16168126 0.1918381 -0.02945967 -0.05247314 -0.050490096 0.10163047
0.0650089 -0.061467126 0.0043598064 0.09759518 -0.12824915 -0.1065454 -0.03161622 0.08503081
0.063335955 -0.050806522 -0.05167334 -0.01999312 0.11487747 -0.06611645 0.221467 0.0004974278
-0.11741865 -0.071149886 0.12483052 0.010972923 0.0048072194 -0.06287401 -0.061582193 -0.0027824985
00000000: 07d6 563d 4022 853d d7c3 e63d 03b1 cabd
00000010: 865d 193d bc48 13be eaa5 79bd 4c30 e0bb
00000020: ccff 04bd 8c57 863c a10f a4bd c500 8d3d
00000030: 7f5e 5f3c c244 af3d 00d3 a2bd 79dc 73bd
00000040: a826 a2bc a85c 9cbc 059c bd3d ea8c 2f3e
00000050: 6cf6 07be 227f a7bd 186a 36bd baa3 40bd
00000060: 5bb5 51bc 1c16 a0bc dea6 3abd 43c3 61bd
00000070: 0bbc 4ebd 539c e8bd e6d3 b23d bc9e 03bd
00000080: ed7f 663d cb47 c63d c68f 253e 3571 443e
00000090: 6855 f1bc 13ee 56bd b4ce 4ebd a323 d03d
000000a0: 6323 853d f4c4 7bbd b5dc 8e3b fbdf c73d
000000b0: bf53 03be 7a34 dabd 0280 01bd a224 ae3d
000000c0: 48b6 813d 801a 50bd 6da7 53bd 9dc8 a3bc
000000d0: e144 eb3d 1068 87bd 3fc8 623e d165 023a
000000e0: 3079 f0bd 08b7 91bd 25a7 ff3d c6c7 333c
000000f0: e185 9d3b 17c4 80bd 9c3d 7cbd 945a 36bb

layers.4.weight f4 [64, 64]
0.23285826 0.066337496 0.017833814 0.3634053 0.17210831 0.386416 -0.031050866 0.10371438
0.029561609 0.7200278 0.13362806 0.09850569 0.13273749 -0.07730543 0.12044703 0.11422265
-0.24500474 0.35165748 0.038461033 0.0048607667 0.30497095 0.40548685 0.013494125 0.16287683
0.16422254 0.12093961 0.21509415 0.16175903 0.13451344 0.23018633 -0.041445967 0.22901438
0.025896206 0.17831835 0.13735989 0.091775976 0.039514944 0.086540736 0.06931913 0.09990223
1.2202425 0.24119839 0.12522371 0.10173167 0.021316666 -0.01202561 0.20292829 0.08527939
-0.042735647 -0.079707965 0.3394647 0.17445138 0.032117274 0.16966203 0.020875147 0.33151397
-0.052372128 0.412491 0.09981876 -0.018138133 0.16846456 0.31119692 -0.01097852 0.12162385
-0.4314876 -0.13089268 0.24031025 -0.35042834 -0.799332 -2.3270476 -0.043459725 -0.08551549
-0.019597277 -1.3980064 0.0076595326 0.024807218 -0.04860203 0.16246943 -0.77734494 -0.8277814
0.01695592 -1.8284627 0.09265254 0.048522577 -1.1845081 -0.204858 0.021486046 -1.0368494
0.23966208 0.10059065 -0.36563882 -0.38169736 0.16989207 -2.5107322 -0.083455116 -1.1919523
-0.12988012 0.032380585 -0.013074439 0.2542221 -0.075445786 -0.02247038 -0.0042420924 0.1906051
-1.5928855 -0.80808604 -1.3832321 -0.68248945 0.005760375 -0.123435155 0.045295276 0.011914678
-0.032770857 0.020324782 -1.4638307 0.20379734 0.109460376 -0.088151425 0.10511616 -2.2258983
-0.090563685 -2.546774 -0.057380415 0.009263063 0.20085126 -1.9101806 0.09667887 -0.48591486
-0.0010526815 -0.040146563 0.0013579773 -0.04217677 -0.09756466 0.020409394 0.025233284 0.056459904
0.0213767 -0.047243416 0.069670595 -0.048342925 -0.13227688 0.025189012 0.08522361 -0.12547824
-0.091031745 0.0144045055 -0.018047107 -0.12847151 -0.10717814 -0.12084763 -0.07498799 0.01759513
0.011682806 -0.062626354 0.07726537 -0.025405254 0.0075932466 0.04603313 -0.04858859 -0.033316642
0.064484924 -0.05953223 0.041678708 -0.06497957 -0.08056186 0.050568108 0.06342724 -0.013051771
0.100885496 -0.0875523 0.03216561 -0.0048270165 0.07428528 0.03778194 0.034567665 0.042760283
0.067426726 0.046630636 0.054521408 -0.0827165 -0.08731182 0.0845882 -0.092401475 0.020563211
-0.094203815 -0.09231517 0.09150844 -0.04454714 -0.011632527 -0.067015626 -0.0059076548 0.04454863
0.08870302 -0.1387025 -0.015058193 -0.1337722 0.034970883 -0.002779787 -0.07570434 -0.007684365
-0.101458356 -0.07428302 -0.037794817 -0.068065114 -0.08421912 0.026976699 0.017311988 0.039175063
-0.043925025 0.060124654 -0.027790735 0.05733391 -0.0835821 0.10080204 0.049200997 -0.073606774
0.025414817 0.0016304456 -0.11464289 0.015849741 0.091991685 -0.041790567 -0.113747545 -0.1334686
0.08469039 -0.0606589 0.03824492 0.020565525 -0.0060278242 0.040312327 0.06964457 -0.10117418
-0.010383216 -0.04700507 -0.11327748 -0.055742186 -0.11414279 -0.04380682 0.04368237 0.066734485
-0.08195876 -0.0846148 0.037944436 0.064293906 -0.13084045 -0.086257465 -0.024414716 -0.07166136
-0.02423735 0.046546828 -0.026880085 -0.0067569106 -0.025762876 -0.026518753 0.0922821 0.035728022
00000000: 6572 6e3e f4db 873d 3818 923c 4210 ba3e
00000010: 293d 303e 51d8 c53e 635e febc 3468 d43d
00000020: 302b f23c be53 383f cbd5 083e 5abd c93d
00000030: 56ec 073e 4f52 9ebd efac f63d 91ed e93d
00000040: 86e2 7abe 730c b43e 5189 1d3d 1147 9f3b
00000050: 2725 9c3e f99b cf3e 7616 5d3c 2fc9 263e
00000060: f429 283e 30af f73d a441 5c3e 29a4 253e
00000070: e4bd 093e f7b5 6b3e 3fc3 29bd bf82 6a3e
00000080: 4824 d43c 1699 363e 12a8 0c3e 0bf5 bb3d
00000090: 6cda 213d 453c b13d 30f7 8d3d 8a99 cc3d
000000a0: e830 9c3f b6fc 763e a53a 003e b258 d03d
000000b0: 4aa0 ae3c 1007 45bc 6fcc 4f3e f6a6 ae3d
000000c0: 930b 2fbd ee3d a3bd 51ce ad3e 62a3 323e
000000d0: 678d 033d e2bb 2d3e 5b02 ab3c 33bc a93e
000000e0: 2884 56bd 0532 d33e c76d cc3d 6c96 94bc
000000f0: f981 2c3e 3455 9f3e 40df 33bc ed15 f93d
00000100: f1eb dcbe bb08 06be e413 763e 586b b3be
00000110: 06a1 4cbf 59ee 14c0 d302 32bd bf22 afbd
00000120: 788a a0bc e0f1 b2bf d1fc fa3b 8238 cb3c
00000130: ec12 47bd 635e 263e 1400 47bf 7be9 53bf
00000140: 24e7 8a3c 110b eabf 9dc0 bd3d 9cbf 463d
00000150: f69d 97bf 4cc6 51be 8103 b03c 7bb7 84bf
00000160: fa69 753e 7902 ce3d 0335 bbbe d66d c3be
00000170: 30f8 2d3e d6af 20c0 84ea aabd e591 98bf
00000180: 4bff 04be 81a1 043d 2c36 56bc 6629 823e
00000190: 5283 9abd cd13 b8bc 4001 8bbb fc2d 433e
000001a0: ace3 cbbf bade 4ebf c00d b1bf a1b7 2ebf
000001b0: 87c1 bc3b 92cb fcbd 8a87 393d c835 433c
000001c0: bc3a 06bd 2880 a63c ce5e bbbf 40b0 503e
000001d0: c32c e03d bc88 b4bd 2447 d73d 1e75 0ec0
000001e0: 7479 b9bd 58fe 22c0 ba07 6bbd 1ac4 173c
000001f0: f4ab 4d3e cc80 f4bf 92ff c53d d5c9 f8be
00000200: 21fa 89ba b970 24bd 28fe b13a 8cc1 2cbd
00000210: fbcf c7bd 9a31 a73c 08b6 ce3c 8042 673d
00000220: 301e af3c 5082 41bd 75af 8e3d 3b03 46bd
00000230: 9773 07be 3059 ce3c b789 ae3d 5e7d 00be
00000240: da6e babd e000 6c3c 87d7 93bc 098e 03be
00000250: 3680 dbbd f67e f7bd 4e93 99bd a923 903c
00000260: 3d69 3f3c 3f42 80bd 4e3d 9e3d ae1e d0bc
00000270: c5d0 f83b 3c8d 3c3d d404 47bd 0877 08bd
00000280: ac10 843d 11d8 73bd 4bb7 2a3d 0214 85bd
00000290: 9efd a4bd 8120 4f3d 24e6 813d 18d7 55bc
000002a0: 0e9d ce3d 9f4e b3bd 16c0 033d f32b 9ebb
000002b0: e222 983d 3cc1 1a3d d396 0d3d 6825 2f3d
000002c0: 0617 8a3d c4ff 3e3d d751 5f3d 4567 a9bd
000002d0: 8ad0 b2bd 943c ad3d fc3c bdbd 2e74 a83c
000002e0: eeed c0bd bc0f bdbd c768 bb3d 1077 36bd
000002f0: 5b96 3ebc 7d3f 89bd 0095 c1bb a078 363d
00000300: eea9 b53d 0708 0ebe a4b6 76bc 94fb 08be
00000310: a13d 0f3d 162d 36bb e10a 9bbd 20cd fbbb
00000320: 66c9 cfbd b221 98bd bdce 1abd b965 8bbd
00000330: 137b acbd 3dfe dc3c dfd1 8d3c 0876 203d
00000340: baea 33bd 4545 763d 65a9 e3bc f6d6 6a3d
00000350: 182d abbd 4d71 ce3d fc86 493d 26bf 96bd
00000360: bc32 d03c adb4 d53a e4c9 eabd 51d7 813c
00000370: 2366 bc3d 962c 2bbd 79f4 e8bd feab 08be
00000380: 2872 ad3d 7775 78bd b5a6 1c3d 0879 a83c
00000390: 0e85 c5bb 8a1e 253d d0a1 8e3d 6934 cfbd
000003a0: 5d1e 2abc 6388 40bd 06fe e7bd eb51 64bd
000003b0: b2c3 e9bd c86e 33bd 49ec 323d 17ac 883d
000003c0: ffd9 a7bd 864a adbd a06b 1b3d 86ac 833d
000003d0: 0afb 05be c1a7 b0bd 5f01 c8bc 31c3 92bd
000003e0: 688d c6bc e3a7 3e3d a033 dcbc 1369 ddbb
000003f0: ab0c d3bc db3d d9bc 66fe bc3d 8c57 123d

layers.4.bias f4 [64]
-0.073821 -0.22760366 0.005916047 0.09784535 0.0585129 0.059008427 -0.0045778644 -0.053107228
-0.07186698 -0.04179811 0.07126341 0.03926798 0.03221858 0.09498534 -0.053060953 -0.11522648
0.10807937 0.13753496 -0.04800305 -0.014612064 -0.15444995 0.015615151 0.11950036 0.124044724
-0.062930435 -0.058551032 0.07356012 -0.07305908 -0.13073091 -0.11220446 -0.10156541 0.04119388
0.011806533 -0.053784177 0.11663574 0.084490485 -0.026621006 -0.08820683 0.017385464 -0.19903155
-0.122341335 0.03984357 0.040916365 -0.059647113 0.024014676 0.030971536 0.22029552 -0.038772065
-0.07552993 -0.014813861 0.084427886 -0.03831907 -0.094426714 -0.088915214 0.011951141 0.09263137
0.015740246 0.03753934 0.015560786 0.03512358 0.035655748 0.0963438 -0.24338238 -0.090085745
00000000: 772f 97bd ef10 69be 66db c13b 2563 c83d
00000010: 39ab 6f3d d2b2 713d e901 96bb f786 59bd
00000020: ff2e 93bd 7f34 2bbd 8df2 913d 76d7 203d
00000030: a1f7 033d ad87 c23d 7156 59bd dcfb ebbd
00000040: b758 dd3d f7d5 0c3e d99e 44bd 7067 6fbc
00000050: 2128 1ebe b1d6 7f3c 9bbc f43d 290b fe3d
00000060: ace1 80bd 35d3 6fbd b0a6 963d 00a0 95bd
00000070: 53de 05be 74cb e5bd 8701 d0bd eaba 283d
00000080: 3070 413c cc4c 5cbd b8de ee3d 5909 ad3d
00000090: 4c14 dabc c8a5 b4bd f66b 8e3c edce 4bbe
000000a0: 188e fabd 0333 233d eb97 273d 8850 74bd
000000b0: 6dba c43c 05b8 fd3c 2695 613e 75cf 1ebd
000000c0: 70af 9abd d6b5 72bc 87e8 ac3d 75f4 1cbd
000000d0: cb62 c1bd 2e19 b6bd b8ce 433c 84b5 bd3d
000000e0: b0f1 803c dac2 193d abf2 7e3c bedd 0f3d
000000f0: c30b 123d e64f c53d 3b39 79be e07e b8bd

out.weight f4 [1, 64]
-0.15250242 0.74465066 0.103010975 0.10824367 -0.25349444 -0.21425352 -0.17318323 -0.06430498
-0.3057894 -0.2331845 0.06943846 0.02554393 0.005245579 -0.1279576 0.09295961 0.30783114
-0.15480104 -0.19354823 0.0018276023 0.11580047 1.3311133 -0.2459568 -0.16131623 -0.19336316
0.03891918 -0.25750569 0.09904736 -0.029480448 0.73964196 -0.11008409 0.56623 -0.2060148
-0.065690845 -0.23002167 -0.18389273 -0.17697394 0.092160635 -0.079274125 0.05348114 0.72487146
0.05245703 0.022764537 -0.141183 0.07930433 0.044998925 -0.2174317 -0.21259977 0.47637022
0.009663284 -0.0023711661 -0.15530872 -0.21528766 -0.04630361 0.0048919017 -0.17256662 -0.20587991
-0.19239886 0.04845601 -0.18759513 0.0008701296 0.085239165 -0.21646939 0.7659907 -0.23791659
00000000: 9829 1cbe 6da1 3e3f 6bf7 d23d dbae dd3d
00000010: 06ca 81be 4665 5bbe f256 31be 54b2 83bd
00000020: 6e90 9cbe ebc7 6ebe c035 8e3d 8141 d13c
00000030: 1be3 ab3b 5107 03be 9c61 be3d 0b9c 9d3e
00000040: 2a84 1ebe 8231 46be 288c ef3a cc28 ed3d
00000050: ec61 aa3f 19dc 7bbe 1530 25be fe00 46be
00000060: b869 1f3d c9d7 83be 58d9 ca3d fb80 f1bc
00000070: 2d59 3d3f c473 e1bd 73f4 103f 8bf5 52be
00000080: ec88 86bd cd8a 6bbe 604e 3cbe a838 35be
00000090: b7be bc3d 795a a2bd 0a0f 5b3d 2d91 393f
000000a0: 2fdd 563d b27c ba3c 4792 10be 4f6a a23d
000000b0: cb50 383d 6aa6 5ebe c1b3 59be cce6 f33e
000000c0: c052 1e3c 9165 1bbb 4009 1fbe 5e74 5cbe
000000d0: dba8 3dbd 3f4c a03b 4eb5 30be 2fd2 52be
000000e0: 3504 45be cf79 463d f018 40be 6919 643a
000000f0: df91 ae3d 27aa 5dbe f717 443f 68a0 73be
