models/model_1900000_train_22700_epoch_192_neurons_boxcox_scaler.pt (torch, 38067 bytes, 7 tensors)

layers.0.weight f4 [64, 5]
000000 a5 9f 87 3e f7 11 89 3d 2d b5 1a bf 5d c4 51 3e
       0.26488987 0.0669288 -0.604327 0.20485063
000010 c0 2f 7e 3e 4e d9 b7 bd 8a 08 9e 3c a8 6e c1 3d
       0.24822903 -0.089769945 0.019291181 0.09444934
000020 9b f4 07 be f8 c6 f0 3e e6 a4 d3 3e 03 9c cb 3e
       -0.13276903 0.470268 0.41336745 0.39767465
000030 3d 5e 86 3e 71 a4 75 3e 60 a5 a2 3e 48 87 be 3e
       0.26243773 0.2398851 0.31766796 0.37212586
000040 ad 50 0d be af 71 5d 3e d7 2a bd bd 00 df 36 bf
       -0.13800307 0.21625398 -0.09236687 -0.7143402
000050 2a 6d 1f 3d b7 ae a0 be 0b d3 8f 3d ce 07 e1 3e
       0.038922466 -0.31383297 0.07022675 0.43951267
000060 2a 58 51 be 37 5d b5 3e 4b 7e 98 be 32 d1 bb be
       -0.20443788 0.3542268 -0.29783854 -0.3668304
000070 87 4c fa bd 85 fc 25 be 2b fd 8d 3e de 42 a5 be
       -0.12221628 -0.1620961 0.27732214 -0.32277578
000080 12 00 46 bd b8 bf 8a be d5 5d 1e be 5d 9e 6b bf
       -0.04833991 -0.27099395 -0.15465482 -0.9203852
000090 23 c7 eb 3e a2 2d 66 bf e3 6d c9 b8 95 65 cb ba
       0.46050367 -0.8991338 -9.604895e-05 -0.0015517945
0000a0 78 b2 54 3b 99 e4 53 bc 73 82 8f c0 c9 ad ec bb
       0.0032455008 -0.01293292 -4.484674 -0.0072228652
0000b0 ae 40 9e bb 9a bf be 3e 81 c2 50 be 8a 0a c6 be
       -0.0048294878 0.37255555 -0.20386697 -0.38679916
0000c0 56 81 68 3e a6 72 bb be ef 9b 32 3e 74 ea f2 bd
       0.22705588 -0.36610907 0.17442296 -0.11861125
0000d0 ec ac 3d 3e 6e 85 3d 3e 23 99 3a bf 52 ac 02 bf
       0.18522996 0.1850793 -0.7288992 -0.5104419
0000e0 cd d3 f0 3d 03 a6 c7 3e 3e 7a 06 be 00 39 9a be
       0.11759148 0.38993844 -0.13132569 -0.30121613
0000f0 82 d7 32 3e bd 4c b0 3e f6 e0 b8 3e 69 aa 90 be
       0.17465022 0.34433547 0.36109132 -0.28255013
000100 f6 d4 f5 3e 94 62 02 3f e4 38 b6 be aa 14 bc 3b
       0.4801404 0.5093167 -0.3559028 0.005739768
000110 96 59 85 3b 41 68 73 3a bb 59 63 3e 9b 15 fb be
       0.0040695174 0.00092852494 0.22202198 -0.4903992
000120 4d 98 bd 3e 96 18 ab bd ff ab ba 3e cf dd ec bd
       0.3703026 -0.08354299 0.36459348 -0.11565744
000130 70 07 de bd 7c 45 ba 3e c1 76 d2 3e a2 da cd 3e
       -0.10841262 0.36381137 0.41106227 0.40205866
000140 55 31 d5 be d1 96 a4 3e 83 bf dc be f1 17 2c be
       -0.416392 0.32146314 -0.43114862 -0.16806008
000150 9e ee 96 bd 16 f1 4c be 74 d1 96 3d be b5 00 3e
       -0.07369731 -0.20013842 0.07364169 0.12569329
000160 6a a2 b2 bb 57 3e c5 be 4a 24 22 3e 07 b1 63 3c
       -0.00545149 -0.38524124 0.15834156 0.013897187
000170 79 23 ca 3e 38 3d 85 3c 75 28 82 bf ba c6 a2 3e
       0.39480188 0.016264543 -1.0168597 0.3179224
000180 c3 6c f5 bd 77 9c ef 3e 1c 40 22 be 19 21 f5 3e
       -0.11983635 0.4679906 -0.15844768 0.47876814
000190 3a ba eb 3d c5 c4 3d 3e b8 39 d5 be 31 f4 c0 39
       0.11510129 0.18532093 -0.41645598 0.0003680303
0001a0 2b 35 04 be 0f f8 36 be ff cf 17 bd b1 19 41 3e
       -0.12910907 -0.17868064 -0.037063595 0.18857457
0001b0 28 66 d7 3e 31 a8 98 be c7 cd c0 3d f5 45 8b bd
       0.42070127 -0.2981582 0.09414249 -0.068004526
0001c0 78 64 8e 3e 3d a2 f0 3e 9b da 2d 3f bc e7 17 3e
       0.27811027 0.46998778 0.6791169 0.14834493
0001d0 98 0e 65 3c 7e 9a be 3e 1b 97 0f 3d 86 38 00 bf
       0.01398053 0.37227243 0.035056215 -0.5008625
0001e0 b3 2f 4a be ff d0 72 3e 98 9f 6f c0 06 38 82 3b
       -0.19744758 0.23712538 -3.7441158 0.0039739637
0001f0 d9 47 05 3f b3 93 8a 3e 56 01 fb 3e df 00 bd be
       0.52062756 0.2706581 0.49024457 -0.36914727
000200 e3 c8 19 bb 57 89 35 be c2 5d 2e be f2 a7 30 be
       -0.0023465685 -0.17728172 -0.17027953 -0.17251566
000210 b3 89 e0 be a7 5f b6 3e 40 0e cf bc c1 4d 3c bd
       -0.43855056 0.35619852 -0.02527535 -0.04597259
000220 18 d6 c8 3e cd e0 f2 3e 0d 7b cf 3b 61 8f ef 3e
       0.3922584 0.47437134 0.0063318075 0.46789077
000230 80 d1 f7 bb bd 14 20 3c a2 87 b4 c0 45 9e 2a 3b
       -0.007562816 0.009770569 -5.6415567 0.0026034277
000240 63 d0 eb 3e e1 09 d2 3d 13 1c 95 3e b1 bf c7 3e
       0.46057424 0.102557905 0.2912298 0.39013436
000250 41 a7 8c 3e f1 df f2 3e 7a 66 57 be ed f6 c2 3e
       0.27471355 0.4743648 -0.21035185 0.38079014
000260 9a bd b8 bd c3 ce c6 3e 13 3b 8a 3e 8b ff 08 3f
       -0.09020539 0.38829622 0.26998195 0.5351493
000270 29 af 13 bf a8 b6 48 3d f4 9d d5 3d b0 84 f9 bc
       -0.5768915 0.04900232 0.10430518 -0.030458778
000280 6d 2d af 3d 1e 92 c6 3e bb 15 35 3e fa 51 08 bd
       0.08553586 0.38783354 0.17684071 -0.033281304
000290 a0 ab 42 3e 52 7e 70 3d 8c b3 d3 3a 94 70 d6 3d
       0.19010782 0.05871422 0.0016151532 0.10470691
0002a0 81 ab 63 3d a4 24 53 3d 42 a6 aa bc 0e 8f 30 3e
       0.05558348 0.051548615 -0.020831231 0.17242071
0002b0 7c 6e 11 3e 01 dd b2 bc b4 10 cc be 94 9d 53 be
       0.14202303 -0.021833898 -0.39856493 -0.2066558
0002c0 f2 e9 bb 3e 93 e2 64 3e c6 1e 21 3d 41 1d 09 be
       0.36701924 0.22352056 0.03933599 -0.13390066
0002d0 8a 21 77 bd 6b fd 0c bf 57 49 23 3d 39 23 11 3c
       -0.06033472 -0.55074185 0.039864864 0.008858495
0002e0 78 5e 02 3e 62 2b 49 be 2d 46 a0 be 15 6d c2 bd
       0.1273135 -0.19645455 -0.3130354 -0.09493462
0002f0 c8 2d d5 be 29 ab ee 3d 7f c7 34 3d 6d de fc 3c
       -0.4163649 0.1165374 0.044135567 0.03086778
000300 cd c3 34 c1 50 09 d7 3c 47 8b fb bc 02 7d 02 3d
       -11.297803 0.026249558 -0.030706061 0.031857498
000310 62 f9 48 be 17 4f b8 3e 8a 59 95 3c da 1d 83 3d
       -0.19626382 0.3599784 0.018231172 0.06402178
000320 e8 d0 14 bd 36 43 22 bb b3 74 1d 3f b4 4d c9 3b
       -0.03633204 -0.00247593 0.61506194 0.006143296
000330 49 35 26 bf 93 16 84 be b7 cd 6b 3e 49 3b 6d 3e
       -0.64925057 -0.25798473 0.23027693 0.23167147
000340 69 13 e6 bc ce b7 87 bd 57 51 28 bf 71 0c 8e 3e
       -0.028085427 -0.06626855 -0.65749115 0.27743867
000350 24 c0 2f bd 63 30 23 bc 9d a1 96 bd cd b2 5b 3e
       -0.04290785 -0.009960267 -0.07355044 0.21454926
000360 b6 b0 4b be 70 6d 4f bf ca 53 90 bd b0 32 fd 3c
       -0.19891629 -0.81026363 -0.070472315 0.030907959
000370 41 62 b5 3d 00 0e ca 3e 5d e6 a6 3d da fb c6 3c
       0.08856631 0.39463806 0.08149407 0.024290014
000380 65 b7 65 be c7 0f 0f bc 5a cd 78 3c 8b 16 07 c1
       -0.2243324 -0.008731789 0.015185678 -8.443004
000390 b6 9d 05 bb b0 0f 5e 3e cb 28 0c bf 21 76 41 3e
       -0.0020388192 0.21685672 -0.54749745 0.18892719
0003a0 1b d7 ce bc bb 8f 70 3b 2d cc 05 bd 01 58 48 bf
       -0.025249055 0.0036706764 -0.03266542 -0.78259283
0003b0 3f 4e b8 3e aa c6 e5 bd 2b a7 ca 3b a4 4e 35 be
       0.35997197 -0.11219533 0.0061844788 -0.1770578
0003c0 ac 46 a4 3e 2b c4 96 be 6d 18 1f bf e5 d3 e9 bd
       0.32085168 -0.2944654 -0.62146646 -0.11417369
0003d0 c9 d2 10 3e c7 fc 51 bf ae 2d b8 3e 77 ad 45 bd
       0.14142908 -0.8202633 0.3597235 -0.048261132
0003e0 94 4c 83 ba 3d e8 a8 bd 65 8a 83 3e eb 0d cc 3e
       -0.0010017329 -0.08247421 0.25691524 0.3985437
0003f0 35 d6 ac be 46 c0 8e 3c d1 02 de be 90 ab b5 3e
       -0.33757177 0.017425667 -0.43361524 0.35482454

layers.0.bias f4 [64]
000000 34 83 32 be 56 d9 03 3f c6 ec 50 be 42 95 b2 3d
       -0.17432863 0.51503503 -0.20402822 0.08719875
000010 e8 e6 f3 3e 0c a7 de 3e 2e 62 e1 3e 97 0a 6f 3e
       0.47637105 0.43486822 0.44020218 0.23343883
000020 c2 dc 70 bb 87 cf a6 3e e9 ae 19 3d a4 c4 6b 3c
       -0.0036752676 0.32580206 0.037520323 0.0143901445
000030 e5 82 bc 3e 3d 75 35 bd 73 05 b9 3e 7a 6c 41 3e
       0.36818615 -0.04430126 0.3613697 0.18889037
000040 e1 f5 ac 3e 4a 14 da 3e 65 ac df bd aa f9 66 3c
       0.3378134 0.42593604 -0.109215535 0.0140976105
000050 2d 45 a4 be 4f 62 00 3f 20 5f c3 bc f0 1a 9b bd
       -0.32084027 0.50150007 -0.02384907 -0.07573497
000060 d3 11 39 be 78 23 6b be f8 cc c1 3e 62 cc f4 3d
       -0.18073206 -0.22962749 0.3785169 0.119530454
000070 31 11 58 3c f7 62 47 be 0b 6a dc 3e e8 9f 33 be
       0.0131876925 -0.19471346 0.43049654 -0.17541468
000080 ad 1e 36 3c 18 bf 9b 3d 62 39 ce 3e 52 55 c0 3e
       0.011115712 0.076048076 0.40278155 0.37565094
000090 dd 6c 97 3d d7 35 14 be 7b 93 0c 3d 29 e5 10 bc
       0.07393811 -0.14473663 0.034320336 -0.008843699
0000a0 a5 e4 58 ba ed 05 42 3e d2 0b 9c 3e 48 ad 25 3e
       -0.0008273817 0.18947573 0.30477768 0.16179383
0000b0 37 69 7e be c0 a9 fb bb e2 81 d2 3e 40 d4 72 3e
       -0.24844824 -0.007680148 0.41114718 0.2371378
0000c0 a8 2e 7a 3e f9 ab 94 3e bd af bf 3e ae 3a 25 3e
       0.2443186 0.29037455 0.37438765 0.16135666
0000d0 e1 70 97 be be c8 04 3e 24 78 aa 3e ae 89 34 be
       -0.29578307 0.12967202 0.33294785 -0.17630646
0000e0 a5 5e c3 3c 18 7a d0 3e d4 20 6b 3e 5a 59 00 3e
       0.023848841 0.4071815 0.22961742 0.12534085
0000f0 62 7d dc be 69 23 56 3e cf 1f 41 3e 13 23 7c 3e
       -0.4306441 0.20911945 0.1885979 0.24622755

layers.2.weight f4 [64, 64]
000000 6b 8b d0 3d 77 70 0f be 74 75 51 bd 6d a6 c6 bc
       0.10182842 -0.14007746 -0.051137403 -0.02424928
000010 db 51 dd 3d 49 18 09 3e 4d d9 a8 3d c1 0b 8d bf
       0.10806628 0.1338817 0.08244572 -1.1019212
000020 c0 1f 13 3f 41 2f d6 3d c8 34 03 3d 30 bc ab 3d
       0.5747032 0.10458232 0.032032758 0.08385503
000030 22 ee dc bc f2 73 df 3a a3 54 86 3d 84 77 a2 3b
       -0.02696902 0.0017048104 0.06559112 0.004958095
000040 b7 6c db bc 4d 31 c5 bd 3e 1c 8d bc 30 b5 0b be
       -0.026785238 -0.09628544 -0.017225381 -0.13643336
000050 20 c8 ee 3d 72 99 04 bd fc 5b 11 be 69 4e 77 3e
       0.116592646 -0.0323729 -0.14195246 0.24151005
000060 88 eb 97 3d 9c b9 18 3d 1b 2b 02 3d e0 42 f3 bd
       0.07417971 0.037286386 0.03177939 -0.1187799
000070 82 aa 2c 3e 06 66 16 be 9a 9b 66 3b 68 45 07 3d
       0.16861919 -0.14687356 0.003518796 0.033025175
000080 12 8c 09 bc 0a 34 bc 3d c5 23 96 3d 10 81 85 3c
       -0.008395212 0.09189613 0.07331041 0.016296893
000090 a8 bc c2 3d dc 41 e3 3d c5 61 7e be ba bf ee 3c
       0.095086396 0.11096546 -0.24841984 0.029144157
0000a0 5f 57 7d 3e 74 fb 31 be d7 05 d7 be 93 31 10 3e
       0.2474036 -0.17381078 -0.41996643 0.14081411
0000b0 3c 4a 9c 3d 92 97 31 be 89 56 7c be 4d d4 9b bf
       0.076313466 -0.17342976 -0.24642386 -1.2174164
0000c0 97 5b ff 3c fd 7b ed be c9 fc 79 3e a0 8f 0f bb
       0.031171603 -0.46383658 0.24412836 -0.0021905676
0000d0 4a bb 34 be e1 11 c4 3d 47 b7 32 bd 80 b8 a8 ba
       -0.1764957 0.09573723 -0.04363182 -0.0012872368
0000e0 a6 9e c0 3e 93 80 e6 3d 22 23 9b be 87 c1 96 bb
       0.3762104 0.11254992 -0.30300242 -0.004600707
0000f0 10 95 a8 bc 14 3c a8 bd 23 16 34 bd d3 5f 33 3e
       -0.020578891 -0.08214584 -0.043966424 0.17517023
000100 dc b6 09 3c 84 45 52 3d db 1e fe bd 5a 69 81 3d
       0.0084054135 0.051335827 -0.12408229 0.06318922
000110 49 59 1a 3d 24 a8 68 3e b3 94 08 bc 02 45 17 bf
       0.037682805 0.2272039 -0.008336234 -0.5908967
000120 64 f0 d2 be b7 ce 4d 3e 7a 43 44 3d 68 a3 f9 bd
       -0.41199028 0.20098387 0.047915913 -0.121893704
000130 6a 84 68 3c 6f 7e 24 3d b5 93 07 3d 25 5a a8 3c
       0.014191726 0.04015964 0.03309985 0.020550797
000140 c9 6a a3 bd 79 3b 62 bd 23 36 b7 3d 86 8d 14 be
       -0.07979352 -0.0552325 0.08945873 -0.14507112
000150 50 86 df 3c 6d b5 73 3c b4 9c 94 bd 2d c0 fb 3c
       0.027285725 0.014874798 -0.07256451 0.030731285
000160 17 68 16 3e c4 e9 b8 3d 14 64 23 bd 31 78 53 bd
       0.14688145 0.09028962 -0.039890364 -0.051628295
000170 ed 02 c9 3d 1a dc 90 bd 72 36 2e bd df 31 3b 3d
       0.09815011 -0.07073231 -0.04253239 0.045701858
000180 2b 6b a2 bd 24 2a a6 bd b3 e0 6e bd b5 d1 84 bd
       -0.07930597 -0.081135064 -0.05831976 -0.06485311
000190 ac bb d6 3d 82 d6 a0 bd 60 75 28 be 37 c9 10 3e
       0.10485014 -0.07853414 -0.16451025 0.14139257
0001a0 a5 03 49 3e a1 2f 2c bd 31 53 d9 be af 50 17 3e
       0.19630297 -0.04203761 -0.42446283 0.14776872
0001b0 ba 44 28 3d 7d dc 52 3e 64 f1 5b be 63 4e 8a bf
       0.041081168 0.20591922 -0.21478802 -1.0805172
0001c0 e3 5b 5c 3d 99 2d 74 be e6 67 48 3e e9 f3 94 3d
       0.053798568 -0.23845519 0.19570884 0.07273085
0001d0 d5 c7 a5 be c1 0a 16 3e 55 47 44 3c 94 a3 09 3d
       -0.32379022 0.1465254 0.0119798975 0.033603266
0001e0 22 4c 8b 3e 59 2f 78 3e ff 38 78 be dc ef 05 3d
       0.27206522 0.24236812 -0.24240492 0.03269945
0001f0 e6 23 ef 3d a2 47 23 3e 1e 26 d0 bd 34 98 8d be
       0.11676769 0.15945294 -0.1016352 -0.27655184
000200 ce 49 82 3c 26 81 b0 3e f6 51 15 be c8 aa 09 3e
       0.015904333 0.34473532 -0.14582047 0.13444054
000210 11 3c 24 3d fb d0 c6 3d 87 58 59 3d dd 6c bb be
       0.040096346 0.097078286 0.053062942 -0.36606494
000220 85 4c f4 bf b3 44 91 3e 64 86 af 3d 26 1f 74 3e
       -1.9085852 0.28372726 0.08570555 0.23840007
000230 da f1 e0 3c 13 30 23 3e 95 d0 95 bc 4e 81 2d be
       0.027459074 0.15936308 -0.018287936 -0.16943857
000240 aa 3b 80 be b4 a2 84 3d 85 15 73 bd 4c e9 38 be
       -0.2504552 0.06476346 -0.059346694 -0.18057746
000250 96 e5 81 bd e1 44 35 bd 9d bd 2f 3c 07 4d 18 3e
       -0.06342618 -0.04425514 0.01072636 0.14873134
000260 c7 d9 bc 3e b0 a9 8e bd 7f 08 17 3e ef 0d c3 3d
       0.368849 -0.06965959 0.14749335 0.09524142
000270 58 f5 97 3b d2 e5 31 bd 51 07 f4 3d ac 9b 85 3e
       0.0046374016 -0.043432064 0.11915458 0.2609533
000280 c0 b8 83 3d ee e1 af bd bd 3e ee 3d 7e f2 90 3d
       0.06431723 -0.085880145 0.1163306 0.07077502
000290 4f 13 dd 3d 94 cb 74 3d 4d 7b 32 bf 9c 62 95 bd
       0.107946984 0.05976446 -0.6971939 -0.07294199
0002a0 fd fb aa 3d 94 57 4b bd 68 65 25 be 61 d1 fc 3d
       0.08348844 -0.049644068 -0.16151965 0.12344623
0002b0 d1 1e be be c0 0f 3f bf c1 c1 a6 3c 19 14 55 bf
       -0.37132886 -0.7463341 0.020356061 -0.8323379
0002c0 59 50 8a 3d 8b 28 c6 bc af 51 9e 3e b8 bc a9 3d
       0.06753606 -0.024189254 0.30921695 0.08287948
0002d0 50 37 fa bd 60 a4 4a 3e 6c cc 82 3d 38 30 a1 bd
       -0.12217581 0.19789267 0.06386647 -0.07870525
0002e0 ff 6f 37 3e 2c 34 80 3e 52 b4 89 be f5 5c 28 3e
       0.17913817 0.25039804 -0.26895386 0.1644171
0002f0 68 57 8f bc f9 80 15 3e 70 53 9d bc 83 15 7f bf
       -0.017497733 0.1459998 -0.019204825 -0.996422
000300 8e 9c 9c bc 56 7a 06 bf 5b dd fd bd 1c 13 8b 3e
       -0.01911762 -0.5253042 -0.12395736 0.27163017
000310 46 66 bd 3d bd 4b 2b 3e e5 04 e2 3d 90 a0 d9 3e
       0.09248023 0.1672811 0.1103609 0.42505312
000320 61 d7 9c bf c3 eb 53 3e 4e ed 90 3e bf 33 a1 bd
       -1.2253228 0.20695405 0.2830605 -0.07871198
000330 f9 6c 48 be 2b 08 89 3b 35 3b 01 be 04 74 64 be
       -0.1957282 0.004181882 -0.12620242 -0.22309881
000340 09 e6 e6 bc 9d 29 3d 3e bb 35 78 3e 74 07 bc be
       -0.028185861 0.18472905 0.24239247 -0.36724436
000350 e7 bc 22 bd e8 cd 86 3e 29 4d a7 be f4 2b 41 3e
       -0.039730933 0.2632897 -0.32676056 0.18864423
000360 82 5f fc be 28 56 50 3d 84 aa 7d bd 82 9c f0 bd
       -0.49291617 0.050863415 -0.061930194 -0.117486015
000370 c3 8b 51 3f 00 cf ec bd 01 65 3b be 19 6f 68 3d
       0.81853884 -0.115629196 -0.18300249 0.056746576
000380 91 5b 2f be 77 ab de bd e7 a4 f5 3d 70 e7 da 3c
       -0.17124774 -0.10872548 0.11994343 0.026721686
000390 40 e1 36 3e 70 de 8d bd c8 d9 20 c0 58 21 e2 bc
       0.17859364 -0.06927192 -2.5132923 -0.02760379
0003a0 92 c4 a3 3e b0 d5 2b 3e 0a 3f a8 be 3c 1d a8 be
       0.3198591 0.16780734 -0.32860595 -0.32834804
0003b0 e6 02 d7 3d 0d fc 2a c0 a0 5f 63 be f6 19 30 c0
       0.104986 -2.671634 -0.22204447 -2.7515845
0003c0 17 d7 73 be 83 c7 53 be b6 6f 96 3e 54 80 82 3d
       -0.23812519 -0.20681576 0.29382104 0.06372133
0003d0 6b 85 07 be 9a 3d dc 3e 36 f3 f2 3e 88 56 9b bc
       -0.13234489 0.43015748 0.4745118 -0.01896216
0003e0 35 91 65 40 10 e9 e0 3d e5 b7 a7 c0 73 42 c0 3e
       3.5869877 0.10981953 -5.241198 0.37550697
0003f0 c8 d6 7e bd 09 72 2b 3e 4f 1d 28 be ee 7e 8e 3e
       -0.06221655 0.1674272 -0.1641743 0.27831215

layers.2.bias f4 [64]
000000 c7 4e 3e 3d 04 85 6a 3d 9f 89 0b 3e d3 39 ed bd
       0.046461847 0.05725576 0.13626717 -0.11583295
000010 7a aa 92 3c 3a 36 09 be 45 f5 83 bd f7 66 75 bc
       0.017903555 -0.13399592 -0.06443266 -0.014978162
000020 cc ff 04 bd 7d 33 3c 3c e2 f6 ce bd 3e 42 88 3d
       -0.03247051 0.011486885 -0.10105683 0.0665326
000030 7f 5e 5f 3c 03 4d b4 3d f8 e8 a4 bd 6c a2 74 bd
       0.0136333695 0.08803751 -0.08052248 -0.05972521
000040 bf 59 7c bc af 63 0b bd 8f 25 a5 3d c1 74 15 3e
       -0.0154022565 -0.034030613 0.08063804 0.1459532
000050 55 19 18 be 53 32 cb bd 18 6a 36 bd a3 37 85 bd
       -0.14853413 -0.09921708 -0.044534773 -0.065047525
000060 b1 ad c6 3a 1c 16 a0 bc 75 ef 39 bd 36 6e 8d bd
       0.0015157965 -0.019541793 -0.04539438 -0.06905787
000070 66 bf 30 bd 2d 3b f5 bd 90 11 a3 3d c9 8d 0f bd
       -0.04315128 -0.119741775 0.07962334 -0.035047326
000080 ed 7f 66 3d 97 91 13 3d fa 0b 43 3e 17 23 55 3e
       0.056274343 0.036027517 0.19047537 0.20814167
000090 68 55 f1 bc 13 ee 56 bd c7 11 8a bd 63 eb eb 3d
       -0.02945967 -0.05247314 -0.06741672 0.11519506
0000a0 41 6e 87 3d 9f 0a 8d bd 10 ad 0b bb 34 81 b9 3d
       0.06612826 -0.068867914 -0.002131287 0.09057847
0000b0 cc 81 0a be 7a 34 da bd 84 22 06 bd a2 24 ae 3d
       -0.13526076 -0.1065454 -0.03274776 0.08503081
0000c0 e9 3f 62 3d 80 1a 50 bd 89 68 54 bd 16 b7 38 bd
       0.05523673 -0.050806522 -0.051857505 -0.04509648
0000d0 08 7c d3 3d e6 1b a8 bd 73 dd 25 3e f4 b4 4f bd
       0.103263915 -0.08208446 0.16197757 -0.05070968
0000e0 30 79 f0 bd 2c 4f d2 bd b4 23 f2 3d 47 9e d7 3a
       -0.11741865 -0.10269007 0.11823216 0.0016450369
0000f0 e6 85 34 3d b6 bb 8a bd 9c 3d 7c bd 52 ab cb bc
       0.044073008 -0.06774084 -0.061582193 -0.024861965

layers.4.weight f4 [64, 64]
000000 35 dd 75 3e d5 1b a8 3d 7c f9 3a 3d 16 ef bd 3e
       0.24010165 0.082084335 0.045648083 0.3709647
000010 2b 42 a0 3e c7 0a 98 3f bd e5 fb bc 4e 5c d4 3d
       0.31300482 1.1878289 -0.030749196 0.10369168
000020 30 2b f2 3c 4c aa 5d 3f 99 d8 ec 3d 1b 4e d4 3d
       0.029561609 0.8658798 0.1156475 0.1036646
000030 56 ec 07 3e 82 43 0b bd e4 93 ea 3d 81 76 ba 3d
       0.13273749 -0.033999927 0.11453989 0.09104634
000040 a6 d6 58 be 11 b7 5b 3f 7c 53 4a 3d 5e c3 e7 3c
       -0.21175632 0.8582621 0.049396023 0.0282914
000050 6c 18 e5 3e 4c 81 b1 3e 76 16 5d 3c 84 01 1d 3e
       0.44745195 0.34668958 0.013494125 0.1533261
000060 81 fa 4a 3e 30 af f7 3d 9e 73 6a 3e 9a 54 2b 3e
       0.19822122 0.12093961 0.22895667 0.16731492
000070 60 07 11 3e 3c 14 24 40 9d c2 29 bd a4 13 7b 3e
       0.1416297 2.563735 -0.041445363 0.24519211
000080 48 24 d4 3c 16 fd 55 3e a7 be 0f 3e ae b7 07 3e
       0.025896206 0.20897326 0.14037572 0.13253662
000090 6c da 21 3d 45 3c b1 3d 2f 48 ea bb be cd 0e 3e
       0.039514944 0.086540736 -0.0071497182 0.13945672
0000a0 e6 cf 17 3f e7 90 7c 3e 74 76 11 3e c9 fe b7 3d
       0.593016 0.24664651 0.14205343 0.08984143
0000b0 08 d1 ab 3c 10 07 45 bc af 07 58 3e f6 a6 ae 3d
       0.020973697 -0.01202561 0.21096681 0.08527939
0000c0 2a f1 01 bd ee 3d a3 bd b2 76 fc 3e 08 2e 57 3e
       -0.031724133 -0.079707965 0.49309307 0.21013653
0000d0 69 47 f1 3c 83 01 1c 3e 75 78 09 3d ba c6 f6 3e
       0.029452996 0.15234952 0.033562142 0.4819849
0000e0 28 84 56 bd be d9 47 40 db 75 d0 3d fd ae 80 bc
       -0.052372128 3.122665 0.10178729 -0.01570844
0000f0 ad a7 48 3e 1f a5 1a 3f 40 df 33 bc 97 e8 0f 3e
       0.19595213 0.60408205 -0.01097852 0.1405357
000100 dd 5c c5 be c4 3d e3 bd b9 1f 6e 3e 22 1c ee be
       -0.38547412 -0.11095765 0.23254289 -0.4650584
000110 9f 4c e3 bf 28 18 9c c0 6c c3 37 bd 34 93 ae bd
       -1.7757758 -4.8779488 -0.044864103 -0.085241705
000120 78 8a a0 bc d0 ec f5 bf 85 b5 73 3c dd e7 d9 3c
       -0.019597277 -1.9212894 0.014874821 0.026599819
000130 ec 12 47 bd 8b a2 16 3e b7 10 41 bf 52 53 48 bf
       -0.04860203 0.14710443 -0.7541613 -0.78252137
000140 2f 5f 58 3c 82 6a ed c0 0f 81 d1 3d c5 56 2c 3d
       0.013206287 -7.4192514 0.10229694 0.042074937
000150 7f 1e 2d c0 df db 19 be 81 03 b0 3c 0f 87 75 bf
       -2.7049863 -0.1502528 0.021486046 -0.9590921
000160 d7 53 61 3e 79 02 ce 3d 85 fa ae be 27 52 9d be
       0.22004639 0.10059065 -0.34175506 -0.3072674
000170 5c 73 3a 3e 27 e5 32 c1 1e ec aa bd 05 e6 d4 bf
       0.18208069 -11.180945 -0.08345817 -1.6632696
000180 4b ff 04 be 2b 9a 30 3c 43 f5 12 3c 12 b4 78 3e
       -0.12988012 0.010778944 0.008969608 0.24287441
000190 52 83 9a bd cd 13 b8 bc eb 7e 45 3d 59 fd 34 3e
       -0.075445786 -0.02247038 0.04821674 0.1767477
0001a0 04 48 dc bf 2b 15 77 bf af db 99 bf ea 11 1d bf
       -1.7209477 -0.96516675 -1.2020167 -0.6135546
0001b0 dd 80 e9 3b 92 cb fc bd 7a e2 66 3d c8 35 43 3c
       0.0071259574 -0.123435155 0.05636833 0.011914678
0001c0 36 2c c0 bc 28 80 a6 3c d7 83 c3 c0 bb bf 42 3e
       -0.023458581 0.020324782 -6.1098437 0.19018452
0001d0 3f 0d 00 3e 0e 82 71 bd 7f fb ce 3d 9f bb 4e c0
       0.12505053 -0.05896192 0.10106563 -3.2302015
0001e0 74 79 b9 bd 30 8a 37 c1 a4 af 2d bd b0 ef e3 3c
       -0.090563685 -11.471237 -0.042403832 0.027824253
0001f0 76 d8 45 3e b1 eb 4b c0 92 ff c5 3d fc 1a 6b bf
       0.19320855 -3.1862605 0.09667887 -0.9183805
000200 21 fa 89 ba b9 70 24 bd d6 72 47 bc 8c c1 2c bd
       -0.0010526815 -0.040146563 -0.012173375 -0.04217677
000210 fb cf c7 bd 9a 31 a7 3c 08 b6 ce 3c 80 42 67 3d
       -0.09756466 0.020409394 0.025233284 0.056459904
000220 30 1e af 3c 50 82 41 bd 82 87 63 3d be dc 84 bd
       0.0213767 -0.047243416 0.055549152 -0.06487416
000230 97 73 07 be fc f8 78 3c b7 89 ae 3d 5e 7d 00 be
       -0.13227688 0.015196081 0.08522361 -0.12547824
000240 cc 2e df bd e0 00 6c 3c aa eb 03 bd f4 23 0a be
       -0.10897598 0.0144045055 -0.03220717 -0.13490278
000250 36 80 db bd f6 7e f7 bd 4e 93 99 bd a9 23 90 3c
       -0.10717814 -0.12084763 -0.07498799 0.01759513
000260 6f df ec 3b 3f 42 80 bd 4e 3d 9e 3d ae 1e d0 bc
       0.007228784 -0.062626354 0.07726537 -0.025405254
000270 9b 90 00 bc 3c 8d 3c 3d d4 04 47 bd 08 77 08 bd
       -0.007846977 0.04603313 -0.04858859 -0.033316642
000280 ac 10 84 3d 11 d8 73 bd 87 04 10 3d 02 14 85 bd
       0.064484924 -0.05953223 0.035160568 -0.06497957
000290 9e fd a4 bd 81 20 4f 3d 24 e6 81 3d 17 71 b1 bc
       -0.08056186 0.050568108 0.06342724 -0.02166037
0002a0 0e 9d ce 3d 9f 4e b3 bd 16 c0 03 3d f3 2b 9e bb
       0.100885496 -0.0875523 0.03216561 -0.0048270165
0002b0 e2 22 98 3d 3c c1 1a 3d a0 9c a5 3c 68 25 2f 3d
       0.07428528 0.03778194 0.020216286 0.042760283
0002c0 0a 46 49 3d c4 ff 3e 3d d7 51 5f 3d ee 47 af bd
       0.04913906 0.046630636 0.054521408 -0.085586414
0002d0 b8 82 ce bd 30 c7 92 3d ef e0 bd bd 2e 74 a8 3c
       -0.100835264 0.07166898 -0.09271418 0.020563211
0002e0 ee ed c0 bd bc 0f bd bd c0 0f a0 3d 0d 88 60 bd
       -0.094203815 -0.09231517 0.07815504 -0.054817248
0002f0 78 30 90 bc 7d 3f 89 bd 00 95 c1 bb a0 78 36 3d
       -0.017601237 -0.067015626 -0.0059076548 0.04454863
000300 ee a9 b5 3d 07 08 0e be ab 5e 8d bc 94 fb 08 be
       0.08870302 -0.1387025 -0.017257055 -0.1337722
000310 a1 3d 0f 3d 16 2d 36 bb e1 0a 9b bd 20 cd fb bb
       0.034970883 -0.002779787 -0.07570434 -0.007684365
000320 66 c9 cf bd b2 21 98 bd 06 12 1c bd 0e 56 8d bd
       -0.101458356 -0.07428302 -0.038103126 -0.06901179
000330 13 7b ac bd 47 7b c0 3c df d1 8d 3c 08 76 20 3d
       -0.08421912 0.023496283 0.017311988 0.039175063
000340 16 12 4d bd 45 45 76 3d 65 a9 e3 bc f6 d6 6a 3d
       -0.050066076 0.060124654 -0.027790735 0.05733391
000350 18 2d ab bd 4d 71 ce 3d fc 86 49 3d 26 bf 96 bd
       -0.0835821 0.10080204 0.049200997 -0.073606774
000360 23 b5 c5 3c ad b4 d5 3a e4 c9 ea bd 51 d7 81 3c
       0.024134224 0.0016304456 -0.11464289 0.015849741
000370 fa fc b8 3d 96 2c 2b bd 79 f4 e8 bd fe ab 08 be
       0.090326265 -0.041790567 -0.113747545 -0.1334686
000380 28 72 ad 3d 28 a8 78 bd 3e 6d 18 3d 59 2c 95 3c
       0.08469039 -0.06070724 0.037213556 0.018209623
000390 0e 85 c5 bb 8a 1e 25 3d d0 a1 8e 3d 30 07 d5 bd
       -0.0060278242 0.040312327 0.06964457 -0.104017615
0003a0 5d 1e 2a bc 63 88 40 bd 06 fe e7 bd eb 51 64 bd
       -0.010383216 -0.04700507 -0.11327748 -0.055742186
0003b0 b2 c3 e9 bd c8 6e 33 bd 4f 82 2c 3d 17 ac 88 3d
       -0.11414279 -0.04380682 0.04211646 0.066734485
0003c0 64 16 ad bd 86 4a ad bd a0 6b 1b 3d 86 ac 83 3d
       -0.08451536 -0.0846148 0.037944436 0.064293906
0003d0 4a fe 05 be c1 a7 b0 bd b7 c9 e2 bc 31 c3 92 bd
       -0.13085285 -0.086257465 -0.027684076 -0.07166136
0003e0 68 8d c6 bc e3 a7 3e 3d 04 fc e1 bc 62 a2 ee bb
       -0.02423735 0.046546828 -0.02758599 -0.007282541
0003f0 ab 0c d3 bc db 3d d9 bc 66 fe bc 3d 8c 57 12 3d
       -0.025762876 -0.026518753 0.0922821 0.035728022

layers.4.bias f4 [64]
000000 df 47 2f bd fd 10 68 be a1 d9 4e bc 8d cb bc 3d
       -0.04279315 -0.2266273 -0.012625129 0.09218512
000010 0c 02 75 3d 97 9e 9a 3d 76 69 31 3c f7 86 59 bd
       0.059816405 0.0754978 0.0108283665 -0.053107228
000020 c1 6d aa bd 3f 71 95 bb 8d f2 91 3d 76 d7 20 3d
       -0.08321715 -0.004560619 0.07126341 0.03926798
000030 66 1b 7d bd 80 79 de 3d 0c 46 79 bd 90 f4 ea bd
       -0.061793707 0.10863018 -0.060857818 -0.11472428
000040 66 88 fb 3d c5 0b 1d 3e d9 9e 44 bd 70 67 6f bc
       0.12281875 0.15336521 -0.04800305 -0.014612064
000050 9c f1 3b be 4d 7d 09 3d 43 bc 09 3e d4 57 0f 3e
       -0.18353885 0.03356676 0.13450722 0.13998348
000060 ac e1 80 bd e7 de 3e bd 97 6a 41 3d 00 a0 95 bd
       -0.062930435 -0.046599295 0.047220793 -0.07305908
000070 96 cb 02 be 74 cb e5 bd c5 7d b4 bd e6 f1 86 3d
       -0.12772974 -0.11220446 -0.08813051 0.06589107
000080 30 70 41 3c a2 12 a4 bc 83 a0 07 3e 6a 0a cd 3d
       0.011806533 -0.020028416 0.13244824 0.10011752
000090 76 f0 28 bd c6 ab d5 bd a3 80 c0 3b ec cf 4b be
       -0.041244946 -0.10433154 0.0058747097 -0.19903535
0000a0 18 8e fa bd 03 33 23 3d 97 aa 7f 3d fa 96 a1 bd
       -0.122341335 0.03984357 0.062418547 -0.078901246
0000b0 e1 a9 ab 3c dc 77 42 3d 4a 66 72 3e 62 36 ee bc
       0.020955028 0.047477588 0.23671833 -0.029078666
0000c0 70 af 9a bd db 00 e8 bc dc aa ca 3d 3f f7 f2 bb
       -0.07552993 -0.02832072 0.0989587 -0.007414728
0000d0 cb 62 c1 bd db 06 e6 bd 1f b2 23 3d 30 44 e1 3d
       -0.094426714 -0.11231776 0.03996479 0.10999334
0000e0 a5 62 07 3d da c2 19 3d 74 3b 00 3d be dd 0f 3d
       0.03305306 0.03753934 0.0313067 0.03512358
0000f0 9a 51 b4 3d 18 5f fa 3d 62 24 7a be 78 53 5f bd
       0.08804627 0.12225169 -0.24427941 -0.05452296

out.weight f4 [1, 64]
000000 0f d9 22 be 2f 1c 50 3f 88 ed d1 3d 4f a5 dd 3d
       -0.15903114 0.81293005 0.102503836 0.10822546
000010 1e 63 de be f0 3c 69 be b9 e4 3d be 54 b2 83 bd
       -0.43434995 -0.22777152 -0.18544282 -0.06430498
000020 1d 5b ba be 2d 96 77 be c0 35 8e 3d 81 41 d1 3c
       -0.3639764 -0.24178381 0.06943846 0.02554393
000030 86 28 30 40 53 d6 11 be 63 07 4c 40 59 91 d0 3e
       2.7524734 -0.14241914 3.1879508 0.4073589
000040 bf cd 28 be 12 41 4d be 28 8c ef 3a cc 28 ed 3d
       -0.16484736 -0.20044354 0.0018276023 0.11580047
000050 d9 06 eb 3f e2 99 81 be 2c 29 30 be 9d 9a 52 be
       1.8361465 -0.25312716 -0.17203206 -0.20566793
000060 b8 69 1f 3d 7c 1d 88 be 67 c4 c6 3d fb 80 f1 bc
       0.03891918 -0.26584995 0.097054295 -0.029480448
000070 80 8c 4c 3f c4 73 e1 bd a4 9e 22 3f 86 00 54 be
       0.79901886 -0.11008409 0.63523316 -0.20703325
000080 ec 88 86 bd 93 5d 7c be 3b d1 4b be 46 2c 44 be
       -0.065690845 -0.2464507 -0.19904034 -0.19157514
000090 a4 41 bc 3d a9 8f a1 bd 32 d7 5a 3d 31 ad 47 3f
       0.091922075 -0.07888729 0.053427882 0.77998644
0000a0 2f dd 56 3d b2 7c ba 3c fa 63 20 be 29 26 a0 3d
       0.05245703 0.022764537 -0.15663138 0.078197785
0000b0 db 4a 38 3d 00 58 6c be dd 5c 67 be 5a 99 1b 3f
       0.044993263 -0.23080444 -0.22594018 0.6078087
0000c0 c0 52 1e 3c 2e de d5 3b fc 75 2b be e2 36 66 be
       0.009663284 0.00652673 -0.16744226 -0.22481874
0000d0 db a8 3d bd 95 7d bb bb bf 74 3a be fc 9c 5f be
       -0.04630361 -0.0057217577 -0.18208598 -0.21837229
0000e0 37 a9 4f be cf 79 46 3d 52 7b 46 be 69 19 64 3a
       -0.20279394 0.04845601 -0.1938298 0.0008701296
0000f0 21 2e c7 3e ec de 65 be 78 24 54 3f 60 fd 6c be
       0.3890238 -0.22448319 0.82868147 -0.2314353
