models/model_1000000_train_19000_epoch_192_neurons_boxcox_scaler.pt (torch, 38067 bytes, 7 tensors)

layers.0.weight f4 [64, 5]
0	0x3e8be1a7	0.27320597
1	0x3e0e7411	0.13911463
2	0xbefb0da0	-0.49033833
3	0x3e7a8e5e	0.24468371
4	0x3e87c73d	0.26519194
5	0xbdad7917	-0.08470362
6	0x3d31d235	0.04341336
7	0x3ddb95f3	0.1072196
8	0xbe05d901	-0.13071062
9	0x3ee73eb7	0.45165035
10	0x3eda8243	0.42677507
11	0x3ed47e37	0.41502544
12	0x3e6a4989	0.22879614
13	0x3e8184d0	0.2529664
14	0x3e9f7377	0.3114278
15	0x3eb0e798	0.34551692
16	0xbdba307c	-0.09091279
17	0x3e7b2a7b	0.24527924
18	0xbe3c30b8	-0.1837796
19	0xbf137586	-0.576012
20	0x3c621c21	0.013800652
21	0xbea6fb12	-0.32613426
22	0x3deec8f5	0.11659423
23	0x3ee7abcc	0.45248258
24	0xbe83ef93	-0.25768718
25	0x3eb070d1	0.34461072
26	0xbe9d26f5	-0.30693784
27	0xbeb37106	-0.35047168
28	0xbe1035c3	-0.14083008
29	0xbe2c4d5b	-0.16826384
30	0x3e8dce9c	0.27696693
31	0xbea01ae8	-0.31270528
32	0x3bb2d104	0.0054570455
33	0xbe8fb0b2	-0.28064495
34	0xbe27463d	-0.16335388
35	0xbf5f6dac	-0.8727672
36	0x3e7c71be	0.24652764
37	0xbf65de44	-0.89792275
38	0x3d193b3f	0.037410017
39	0x3cac0116	0.020996612
40	0x3c257f1a	0.010101104
41	0xbbb6f7a1	-0.005583719
42	0xc08f3282	-4.4749155
43	0xb91dac28	-0.0001503682
44	0x3b0a929e	0.002114452
45	0x3ebb77e3	0.36614904
46	0xbe5b1357	-0.21394096
47	0xbec70f98	-0.38879085
48	0x3e751e14	0.23937255
49	0xbeaf3970	-0.3422351
50	0x3e0b4a68	0.13602602
51	0xbe1bb829	-0.1520697
52	0x3e42da10	0.19028497
53	0x3e6f120c	0.23346728
54	0xbf103d02	-0.5634309
55	0xbf022c52	-0.5084888
56	0xbd9efe26	-0.07763319
57	0x3ed2da4b	0.4118217
58	0xbd8af44c	-0.06784877
59	0xbe8e1a4d	-0.2775444
60	0x3e437887	0.19088946
61	0x3ebc5e9e	0.36790937
62	0x3eb97bdb	0.36227307
63	0xbe85bd88	-0.26121163
64	0x3ef0ea8b	0.47053942
65	0x3ee882e9	0.45412377
66	0xbed66635	-0.41874853
67	0x3e44524c	0.19172019
68	0xbd13ff6c	-0.03613226
69	0xbc305c4b	-0.010764192
70	0x3e61da43	0.22055916
71	0xbef51942	-0.47870833
72	0x3ebc1fd5	0.36743036
73	0xbdc538d5	-0.096299805
74	0x3eae672b	0.34063086
75	0xbe0cafbf	-0.13738917
76	0xbe018e47	-0.12651931
77	0x3eb1c35b	0.34719357
78	0x3ed8adf7	0.42320225
79	0x3ec24c56	0.37948865
80	0xbec5ea9a	-0.3865555
81	0x3e8d666c	0.27617204
82	0xbf055e5f	-0.52097124
83	0xbe480091	-0.19531466
84	0xbdc25c57	-0.09490269
85	0xbe6d3e69	-0.23168339
86	0x3e071537	0.13191687
87	0x3e5e54ec	0.21712083
88	0x3c2bb8de	0.0104810875
89	0xbeba673f	-0.36406896
90	0x3e25c7e9	0.16189541
91	0x3c491174	0.012272228
92	0x3ec6c676	0.3882329
93	0x3ca3a9fe	0.01997852
94	0xbf33a861	-0.701788
95	0x3ea6e5a2	0.3259707
96	0xbde57627	-0.112041764
97	0x3edd2b95	0.43197313
98	0xbe1ab0a4	-0.15106446
99	0x3eeb45fd	0.45951834
100	0x3debba3a	0.11510129
101	0x3e3dc4c5	0.18532093
102	0xbed539b8	-0.41645598
103	0x39c0f431	0.0003680303
104	0xbe04352b	-0.12910907
105	0xbe4d1b2c	-0.20029896
106	0xbd550625	-0.052007813
107	0x3e6d35ad	0.23165007
108	0x3ee6fb35	0.4511353
109	0xbeadc0e3	-0.33936223
110	0x3da8dca6	0.0824521
111	0xbd972064	-0.07379225
112	0x3e85555b	0.26041684
113	0x3ef2c913	0.47419032
114	0x3f27e24a	0.65579665
115	0x3e103b3d	0.14085098
116	0x3c7f85cc	0.0155958645
117	0x3eb6bfa1	0.35693076
118	0x3ca04038	0.019561872
119	0xbeb79978	-0.35859275
120	0xbe2943ce	-0.16529772
121	0x3e8bd338	0.27309585
122	0xbf5ca251	-0.86185175
123	0xbc67903f	-0.014133512
124	0x3f0ae97a	0.54262507
125	0x3ea542c6	0.32277507
126	0x3ef99388	0.4874537
127	0xbeb5defd	-0.3552169
128	0x3bb1ec0b	0.00542975
129	0xbe3e1a6e	-0.1856477
130	0xbe4e053e	-0.20119187
131	0xbe461a98	-0.19346082
132	0xbf060349	-0.5234876
133	0x3ea26b00	0.3172226
134	0xbcaea2a1	-0.021317782
135	0xbcd9934b	-0.026559493
136	0x3ecdb504	0.40177166
137	0x3ee70029	0.4511731
138	0x3ca9f9c7	0.020748986
139	0x3ee9210b	0.45533022
140	0xbd3304ec	-0.043705866
141	0x3cfcc171	0.030853959
142	0xc0158565	-2.3362668
143	0xbb69c963	-0.0035673014
144	0x3eede069	0.46460274
145	0x3ddd0e32	0.10793723
146	0x3e99f8f5	0.30072752
147	0x3eb82da8	0.35972333
148	0x3e9923b6	0.29910058
149	0x3eece624	0.46269333
150	0xbe2a2fd6	-0.1661981
151	0x3ed51770	0.41619444
152	0xbdce059b	-0.10059663
153	0x3ed50b79	0.41610315
154	0x3e958629	0.2920392
155	0x3ee986bd	0.4561061
156	0xbf16aa61	-0.5885373
157	0x3e2ad15a	0.16681424
158	0x3e28402a	0.16430727
159	0xbda8705c	-0.08224556
160	0x3de1241f	0.10993218
161	0x3ed02f09	0.40660885
162	0x3e231933	0.15927581
163	0xbac19548	-0.0014769221
164	0x3e3a9e71	0.18224503
165	0x3df0f01a	0.11764546
166	0x3d78ef0c	0.060774848
167	0x3e3a899b	0.18216555
168	0x3e08ff07	0.13378535
169	0x3d88f5a3	0.066874765
170	0xbc96b3f8	-0.018396363
171	0x3e51f0ba	0.20501986
172	0x3e4873f2	0.1957548
173	0xbb9a4cb4	-0.0047088508
174	0xbee1049d	-0.43948832
175	0xbe094eb3	-0.13408928
176	0x3ed2f161	0.41199782
177	0x3e77f7d3	0.24215631
178	0x3df29cda	0.11846323
179	0xbdab144f	-0.08353483
180	0xbd51eb44	-0.051249757
181	0xbee2a380	-0.44265366
182	0x3d87b211	0.0662576
183	0x3b8d233c	0.004307179
184	0x3e5beaf0	0.2147634
185	0xbe492b62	-0.19645455
186	0xbea0462d	-0.3130354
187	0xbdc26d15	-0.09493462
188	0xbed52dc8	-0.4163649
189	0x3deeab29	0.1165374
190	0x3d4c827a	0.04992912
191	0x3d2dd1cc	0.042436406
192	0xbfb4aa12	-1.4114401
193	0x3d2f5920	0.042809606
194	0xbcaf674f	-0.021411566
195	0x3e093d3f	0.1340227
196	0xbe602fec	-0.2189328
197	0x3e97f3cf	0.296782
198	0x3dee1cf7	0.11626618
199	0x3d87a028	0.06622344
200	0xbd8e82c0	-0.06958532
201	0x3cba58e0	0.022747457
202	0x3f159a09	0.58438164
203	0x3cb76236	0.022385698
204	0xbf1acc2e	-0.60467803
205	0xbe528b07	-0.20560847
206	0x3e90138c	0.28139913
207	0x3e842928	0.2581265
208	0x3c55f016	0.013057729
209	0xbe1888b6	-0.14895901
210	0xbf222670	-0.633399
211	0x3e7f2d97	0.24919735
212	0xbd32a67c	-0.043615803
213	0xbba02a69	-0.004887868
214	0xbd6d1daf	-0.057889637
215	0x3e44ecaf	0.19230913
216	0xbe5f4c87	-0.21806537
217	0xbf1b7c2a	-0.60736334
218	0xbd98f0f0	-0.0746783
219	0x3cbafd34	0.022825815
220	0x3e23abf2	0.1598356
221	0x3ebc4e5d	0.36778536
222	0x3df3b54a	0.118998125
223	0x3cd7f331	0.02636108
224	0xbea45f65	-0.3210403
225	0xbc9af843	-0.018917209
226	0x3ccc2c82	0.024923567
227	0xc00421e6	-2.064569
228	0x3a4302e4	0.00074390904
229	0x3e508727	0.20364057
230	0xbf0b6543	-0.5445139
231	0x3e2a71eb	0.16645019
232	0xbbb6a621	-0.0055740033
233	0x3a8a8124	0.0010567051
234	0xbd3d3c1b	-0.0461999
235	0xbf3a9109	-0.72877556
236	0x3eadd166	0.3394882
237	0xbe54dc7b	-0.20787232
238	0xbae66703	-0.0017578307
239	0xbe3529f6	-0.17691788
240	0x3eb071c9	0.3446181
241	0xbebac5be	-0.3647899
242	0xbf03a9be	-0.5143088
243	0xbddb7060	-0.10714793
244	0x3e45e1d1	0.19324423
245	0xbf3f20ce	-0.7465943
246	0x3e98170a	0.29705077
247	0xbda47c19	-0.08031482
248	0xbc8d1f1b	-0.017226746
249	0xbe3ac13f	-0.1823778
250	0x3e8245fb	0.25444016
251	0x3ecc2090	0.39868593
252	0xbead5198	-0.33851314
253	0x3c1a550d	0.009419692
254	0xbee75b7c	-0.45186985
255	0x3ec80aa9	0.39070633

layers.0.bias f4 [64]
0	0xbe412864	-0.18863064
1	0x3f03635c	0.51323485
2	0xbe5dbe35	-0.2165459
3	0x3db60487	0.08887582
4	0x3ef437ba	0.47698766
5	0x3ee00211	0.43751577
6	0x3eee6543	0.46561632
7	0x3e85a8c8	0.26105332
8	0x3b5c53f2	0.0033619371
9	0x3ea5188e	0.32245296
10	0x3d1602ff	0.03662395
11	0xbc255aa1	-0.010092408
12	0x3ec4478d	0.3833584
13	0xbd561e05	-0.052274723
14	0x3eb8e3d2	0.36111313
15	0x3e2d15c6	0.16902837
16	0x3ec70c04	0.38876355
17	0x3ef276f6	0.47356385
18	0xbe010c79	-0.12602414
19	0x3c8736e7	0.016505672
20	0xbea4452d	-0.32084027
21	0x3f030720	0.51182747
22	0xbd2d3269	-0.042284403
23	0xbdac01aa	-0.08398755
24	0xbe7d2aeb	-0.24723403
25	0xbe7fbfbe	-0.24975488
26	0x3ec8a280	0.39186478
27	0x3e02dec5	0.12780292
28	0x3c59f13c	0.013302144
29	0xbe5d7295	-0.21625741
30	0x3eea144c	0.4571861
31	0xbe48c5e1	-0.19606735
32	0x3ce4d1ff	0.027932165
33	0x3e0b5390	0.13606095
34	0x3ed48b5d	0.41512576
35	0x3ed723a7	0.42019388
36	0x3b4a4ea7	0.0030869634
37	0xbe1435d7	-0.14473663
38	0x3ccdea1b	0.025136044
39	0xbd6513a0	-0.05592692
40	0xbc035517	-0.0080158925
41	0x3e55abd1	0.20866324
42	0x3ea50439	0.32229784
43	0x3e444e08	0.19170392
44	0xbe839f28	-0.25707364
45	0xbc8e10ee	-0.017342057
46	0x3ed4239a	0.41433412
47	0x3e5f7698	0.21822584
48	0x3e87ecdf	0.26547906
49	0x3eabc19c	0.3354615
50	0x3eb90ed5	0.36144128
51	0x3e14c783	0.14529233
52	0xbe979615	-0.2960669
53	0x3e2fd1ef	0.17169927
54	0x3ea78565	0.3271896
55	0xbe3489ae	-0.17630646
56	0x3c87aba3	0.016561335
57	0x3ed79f45	0.421137
58	0x3e91f792	0.28509194
59	0x3d473854	0.048637703
60	0xbedc7d62	-0.4306441
61	0x3e895444	0.26822102
62	0x3e466953	0.19376116
63	0x3e8a3468	0.26993108

layers.2.weight f4 [64, 64]
0	0x3d7f2e70	0.062300146
1	0xbe0c9098	-0.13727033
2	0xbd78ad2b	-0.06071202
3	0xbc9f3f72	-0.019439433
4	0x3e00a94b	0.1256458
5	0x3dc7fed6	0.09765403
6	0x3da82d84	0.082118064
7	0xbe1776af	-0.14791368
8	0x3f150414	0.5820935
9	0x3d94490c	0.07240495
10	0x3cbbe691	0.022937091
11	0xbcce1162	-0.025154773
12	0xbcb405bf	-0.021975396
13	0xbcd4b221	-0.025963845
14	0x3d9555db	0.07291766
15	0x3cd8c00e	0.026458766
16	0xbd37622a	-0.04477135
17	0xbda357cb	-0.079757296
18	0xbc3182be	-0.010834394
19	0xbe048317	-0.12940632
20	0x3deec820	0.116592646
21	0x3b16066a	0.0022892007
22	0xbe125d0e	-0.1429331
23	0x3e21174e	0.15731546
24	0xbc47ecb3	-0.01220243
25	0x3dcc72ed	0.09982858
26	0x3bebfdd1	0.007201888
27	0xbdcd943a	-0.100380376
28	0x3e860a61	0.26179793
29	0xbe1853e9	-0.14875759
30	0x3b10cf1e	0.0022096108
31	0x3cee07fd	0.029056543
32	0xbbbd42e9	-0.0057757986
33	0x3dc4b8f7	0.09605592
34	0x3dd97073	0.10617151
35	0x3d197ea9	0.03747431
36	0x3cf6ae19	0.030112313
37	0x3de341dc	0.11096546
38	0xbda9cdf0	-0.082912326
39	0x3d19da2f	0.03756159
40	0x3e5a0ea5	0.21294649
41	0xbe132a49	-0.143716
42	0xbe9d93b0	-0.3077674
43	0x3dccce7f	0.100003235
44	0x3d122e67	0.035688784
45	0xbd82d9f9	-0.06389231
46	0xbe7d576d	-0.24740382
47	0xbf88ea83	-1.0696567
48	0x3d69ebc6	0.057109617
49	0xbe21abe3	-0.15788226
50	0x3e6ba47f	0.23011969
51	0x3b28d186	0.0025759651
52	0xbdb8d350	-0.0902468
53	0x3d9da833	0.07698097
54	0xbd664891	-0.05622155
55	0xbaa8b880	-0.0012872368
56	0x3e8f8845	0.28033653
57	0x3dc23d16	0.094843075
58	0xbecda0de	-0.40161794
59	0xbd74e4b1	-0.05978841
60	0xbca89510	-0.020578891
61	0xbda0703e	-0.078339085
62	0xbc25586b	-0.010091881
63	0xbe869086	-0.26282138
64	0xbc8c7955	-0.0171477
65	0x3d932d6c	0.07186398
66	0xbe0fe499	-0.14052047
67	0x3d9de18b	0.077090345
68	0x3d1b06a6	0.037848137
69	0x3e4fa232	0.20276716
70	0xbc6dca15	-0.014513512
71	0xbe5d626f	-0.2161958
72	0xbecf0673	-0.40434608
73	0x3e1dd0a1	0.15411617
74	0x3da9b17b	0.08285805
75	0xbd98ba41	-0.074574
76	0x3cc82dde	0.024435934
77	0xbc69a628	-0.014260806
78	0x3d29b985	0.04143669
79	0x3d243aae	0.040095024
80	0xbcb4553a	-0.022013295
81	0xbd882d74	-0.066492945
82	0x3d79f8bd	0.06102823
83	0xbe0d5831	-0.13803174
84	0x3cdf8650	0.027285725
85	0x3cf2f7ea	0.02965923
86	0xbd85770c	-0.06516847
87	0x3cea714e	0.028618481
88	0x3e64e85b	0.22354262
89	0x3d862236	0.06549494
90	0xbc7b9923	-0.015356335
91	0xbd030e52	-0.03199608
92	0x3c8e7549	0.01738991
93	0xbd9acbce	-0.07558404
94	0xbd0d8190	-0.03454739
95	0x3d508c91	0.050915305
96	0xbd9b08cc	-0.07570037
97	0xbdaf427d	-0.085576035
98	0xbd474f35	-0.048659522
99	0xbd574f51	-0.052565876
100	0x3dfa4f18	0.12222117
101	0xbda0d682	-0.07853414
102	0xbe18293b	-0.14859478
103	0x3db77bf4	0.08959189
104	0x3e4f23c5	0.20228489
105	0xbcb8cb9c	-0.022558026
106	0xbea6db25	-0.3258907
107	0x3e634d05	0.2219735
108	0x3db069ae	0.08613907
109	0x3eb16d13	0.3465353
110	0xbd9a4dbb	-0.07534357
111	0xbf6eb5a7	-0.9324593
112	0x3db52097	0.08844107
113	0xbe783668	-0.24239504
114	0x3e2f50d0	0.17120671
115	0x3db97c02	0.09056856
116	0xbe6b5624	-0.22982079
117	0x3e1a3214	0.15058166
118	0x3e5d2770	0.21597075
119	0x3d09a394	0.033603266
120	0x3de940c0	0.11389303
121	0x3e4f4ffb	0.20245354
122	0xbeebbae1	-0.46041015
123	0x3eb8d1bc	0.36097515
124	0x3def23e6	0.11676769
125	0x3e1769a4	0.14786392
126	0xbd92b6f9	-0.071638055
127	0xbf4487c0	-0.7676964
128	0xbdcbf221	-0.09958292
129	0x3eb0f2af	0.34560153
130	0xbe1f4938	-0.15555274
131	0x3e1d86d1	0.1538346
132	0x3d2fdb6c	0.042933866
133	0x3c91f93e	0.017819043
134	0x3df84abd	0.1212363
135	0xbe9d764f	-0.30754325
136	0xbff37bc8	-1.902215
137	0x3e28b4de	0.16475245
138	0x3dd6698d	0.10469351
139	0xbe7154f2	-0.2356756
140	0x3cb580ed	0.022156203
141	0x3dc62dcb	0.09676703
142	0x3ca2d04d	0.019874716
143	0xbe1131c0	-0.14179134
144	0xbd8e1a69	-0.06938631
145	0x3dde44a0	0.10852933
146	0xbde2ef88	-0.11080843
147	0xbe1a4f9f	-0.15069436
148	0xbd81e596	-0.06342618
149	0xbd63a968	-0.05558148
150	0x3d3846a6	0.04498925
151	0x3e415ebb	0.18883793
152	0x3e825836	0.25457925
153	0xbdd5deae	-0.104428634
154	0x3e3ae723	0.18252234
155	0x3dc0aba9	0.094077416
156	0x3d7c4bd8	0.061595768
157	0xbda971a1	-0.08273626
158	0x3dd6e260	0.10492396
159	0x3d986441	0.07440997
160	0x3d3f7e8b	0.04675154
161	0xbdb5ae06	-0.08871083
162	0x3d945efa	0.07244678
163	0x3d067add	0.032832015
164	0x3e00e0e6	0.12585792
165	0x3d74cb94	0.05976446
166	0xbf084341	-0.5322762
167	0xbcf65516	-0.030069869
168	0x3d21e137	0.039521422
169	0xbda45434	-0.08023873
170	0xbd8f023a	-0.069828466
171	0x3e314290	0.17310548
172	0xbb7a0c1c	-0.003815419
173	0xbf202611	-0.62558085
174	0x3d1e9eb8	0.038725585
175	0xbf34a192	-0.70559037
176	0x3dd57229	0.10422165
177	0xbe104257	-0.14087807
178	0x3e922b4e	0.28548664
179	0x3d84c0e5	0.06482104
180	0xbe8714fa	-0.2638319
181	0x3e57f6de	0.21090266
182	0x3c8ccf88	0.017188802
183	0xbda13038	-0.07870525
184	0x3db19c01	0.086723335
185	0x3e05819f	0.13037728
186	0xbeb1e63f	-0.34745976
187	0xbd247cd7	-0.04015812
188	0xbc8f5768	-0.017497733
189	0x3de72b3e	0.11287545
190	0xbc7c0a7b	-0.015383358
191	0xbf14c03f	-0.58105844
192	0xbdba6dce	-0.09102975
193	0xbf01050d	-0.5039833
194	0xbe140df1	-0.14458443
195	0x3e7df93a	0.24802104
196	0x3ddc62b0	0.10761011
197	0x3e6e95af	0.23299287
198	0x3e104ddd	0.14092202
199	0xbb75dc5a	-0.0037515373
200	0xbf9d34a4	-1.228169
201	0x3e68db09	0.22739805
202	0x3e87217f	0.26392743
203	0xbe563bac	-0.209212
204	0xbe4b0be3	-0.19828753
205	0x3cb9a986	0.022663843
206	0xbdcbc94a	-0.09950502
207	0xbe577f79	-0.2104472
208	0xbeabd945	-0.335642
209	0x3e36cbee	0.1785123
210	0x3e2b26e0	0.16714048
211	0xbeb9daf6	-0.36299866
212	0xbd22bce7	-0.039730933
213	0x3e88a16a	0.2668565
214	0xbe9ee228	-0.3103192
215	0x3e1c7518	0.15279043
216	0xbe1db698	-0.15401685
217	0x3d5c479c	0.05377923
218	0xbdcd526f	-0.100254886
219	0xbe01e554	-0.12685138
220	0x3f5d5105	0.8645175
221	0xbe138ce7	-0.14409219
222	0xbe3932a8	-0.1808573
223	0x3d6e5efc	0.058196053
224	0xbe456920	-0.19278383
225	0xbdee78d7	-0.11644142
226	0x3de39b7e	0.11113642
227	0x3c47d6fa	0.0121972505
228	0x3efadf12	0.48998314
229	0xbd8dde70	-0.06927192
230	0xbfbbeb04	-1.4681096
231	0xbd4c163a	-0.049825884
232	0x3e8b6792	0.27227455
233	0x3e1a8810	0.15090966
234	0xbc4de4e4	-0.012566779
235	0xbec4dac0	-0.38448143
236	0x3e37ed69	0.17961659
237	0x3eae8565	0.34086147
238	0xbe7fcf7e	-0.24981496
239	0xbff422c3	-1.9073108
240	0xbeb876ab	-0.36028036
241	0xbf080f93	-0.53148764
242	0x3e8f4610	0.2798314
243	0x3e2e7396	0.1703628
244	0xbdb8923b	-0.09012266
245	0x3ed0a20f	0.4074864
246	0x3eacfb9d	0.33785716
247	0xbc9b5688	-0.01896216
248	0x4034a847	2.8227708
249	0x3e0395b1	0.12850071
250	0xbea3d9ea	-0.32002193
251	0x3f21c1ff	0.6318664
252	0xbd7ed6c8	-0.06221655
253	0x3e1bdd19	0.15221061
254	0xbe28fcf3	-0.16502742
255	0xbf24c5e4	-0.6436446

layers.2.bias f4 [64]
0	0x3d4f991d	0.05068313
1	0x3d801ec2	0.062558666
2	0x3df697e3	0.12040689
3	0xbdd73aa0	-0.10509229
4	0x3cec5abe	0.028851863
5	0xbe0a4e6e	-0.13506481
6	0xbd79a5ea	-0.060949244
7	0xbc0a0d39	-0.008426004
8	0xbd04ffcc	-0.03247051
9	0x3cbbe5cd	0.022936726
10	0xbdaa9488	-0.08329111
11	0x3d8df9cb	0.0693241
12	0x3c5f5e7f	0.0136333695
13	0x3dad7b58	0.084707916
14	0xbda1e5ab	-0.07905134
15	0xbd73cc3e	-0.059520952
16	0xbc97ee3c	-0.018546216
17	0xbc9c5724	-0.01908452
18	0x3dc5295b	0.096270286
19	0x3e255d67	0.16148911
20	0xbe099cd9	-0.13438739
21	0xbdb73eed	-0.08947549
22	0xbd366a18	-0.044534773
23	0xbd4dff8d	-0.05029254
24	0xbc3b21a7	-0.011421598
25	0xbca0161c	-0.019541793
26	0xbd3c424b	-0.04596166
27	0xbd6f856c	-0.05847685
28	0xbd48cb62	-0.049022086
29	0xbdebe9fc	-0.11519238
30	0x3db2d3e6	0.08731823
31	0xbcdfac94	-0.027303971
32	0x3d667fed	0.056274343
33	0x3d79899c	0.06092225
34	0x3e2dd18f	0.16974472
35	0x3e5606b4	0.20900995
36	0xbcf15568	-0.02945967
37	0xbd56ee13	-0.05247314
38	0xbd4eceb4	-0.050490096
39	0x3dcf581a	0.10124226
40	0x3d84ec4a	0.06490381
41	0xbd763252	-0.060106583
42	0x3ba1e750	0.0049409047
43	0x3dc5f609	0.09666068
44	0xbe0353bf	-0.12824915
45	0xbdda347a	-0.1065454
46	0xbd05500a	-0.032547034
47	0x3dae24a2	0.08503081
48	0x3d81ea0c	0.06343469
49	0xbd501a80	-0.050806522
50	0xbd3f319a	-0.046678163
51	0xbcd9ce52	-0.026587639
52	0x3de540ce	0.11194001
53	0xbd8e7aad	-0.06956992
54	0x3e4f1750	0.20223737
55	0x3b121d40	0.0022295266
56	0xbdf07930	-0.11741865
57	0xbd9d2a37	-0.076740675
58	0x3dfe7267	0.12424164
59	0x3c19ac67	0.009379483
60	0x3d0dec70	0.034649312
61	0xbd83fc30	-0.06444585
62	0xbd7c3d9c	-0.061582193
63	0xbc80d006	-0.015724193

layers.4.weight f4 [64, 64]
0	0x3e6bb86d	0.23019572
1	0x3d8b6c7c	0.06807801
2	0x3cc30b81	0.023809196
3	0x3ec2c44e	0.38040394
4	0x3e48acb3	0.1959713
5	0x3f147b98	0.5800109
6	0xbcfe5e63	-0.031050866
7	0x3dd46831	0.103714354
8	0x3cf22b30	0.029561609
9	0x3f387b02	0.72062695
10	0x3e0eadaf	0.13933443
11	0x3dd048ca	0.101701334
12	0x3e07ec56	0.13273749
13	0xbd85a313	-0.065252446
14	0x3de55e2e	0.11199604
15	0x3dd0335b	0.10166045
16	0xbe62fb13	-0.2216609
17	0x3ea4ffda	0.3222645
18	0x3d2245c2	0.039617307
19	0x3ba195e3	0.004931198
20	0x3e93eb6f	0.2889056
21	0x3ebf7e15	0.3740088
22	0x3c5d1676	0.013494125
23	0x3dcf65ae	0.10126816
24	0x3e315d17	0.17320667
25	0x3df7af30	0.12093961
26	0x3e5a7eb7	0.213374
27	0x3e15acee	0.14616749
28	0x3e0c03a2	0.13673261
29	0x3f293e5c	0.6611078
30	0xbd29c33f	-0.041445967
31	0x3e5d61f1	0.21619393
32	0x3cd42448	0.025896206
33	0x3e3fe10c	0.18738192
34	0x3e12fdd3	0.14354639
35	0x3dc8122f	0.09769093
36	0x3d21da6c	0.039514944
37	0x3db13c45	0.086540736
38	0x3d8df730	0.06931913
39	0x3de622b3	0.11237087
40	0x3f788189	0.97072655
41	0x3e5f1eae	0.21789047
42	0x3d255081	0.040359978
43	0x3dc78064	0.097412854
44	0x3caea04a	0.021316666
45	0xbc450710	-0.01202561
46	0x3e5236f5	0.20528777
47	0x3daea6f6	0.08527939
48	0xbd1ee36b	-0.0387911
49	0xbda33dee	-0.079707965
50	0x3ebf5315	0.37368074
51	0x3e3c22af	0.18372606
52	0x3d1595de	0.036519878
53	0x3e2d68f8	0.16934574
54	0x3d040f69	0.03224126
55	0x3f060e3d	0.52365476
56	0xbd568428	-0.052372128
57	0x3fa8e6de	1.3195455
58	0x3dcdfce8	0.10058004
59	0xbc9772f5	-0.018487433
60	0x3e357eab	0.17724101
61	0x3ed7f30b	0.42177615
62	0xbc33df40	-0.01097852
63	0x3de92d0c	0.11385545
64	0xbed8dc46	-0.42355555
65	0xbe011c8f	-0.1260855
66	0x3e745b02	0.23862842
67	0xbed10d85	-0.40830627
68	0xbfa2854e	-1.2696931
69	0xc03b699a	-2.9283204
70	0xbd3202d3	-0.043459725
71	0xbdaf22a3	-0.08551528
72	0xbca08a78	-0.019597277
73	0xbfa45a4e	-1.2840059
74	0x3c280705	0.01025558
75	0x3cdacaf7	0.02670811
76	0xbd4712ec	-0.04860203
77	0x3e22d95f	0.15903233
78	0xbf4334ae	-0.7625226
79	0xbf50926d	-0.8147343
80	0x3c6e9afa	0.0145633165
81	0xc007f927	-2.124582
82	0x3dc4fae8	0.09618169
83	0x3d5a6a1b	0.053323846
84	0xbf995aa5	-1.1980788
85	0xbe283f8a	-0.16430488
86	0x3cb00381	0.021486046
87	0xbf7717ea	-0.96520865
88	0x3e711c97	0.23546062
89	0x3dce0279	0.10059065
90	0xbeb69095	-0.35657182
91	0xbeb4acf3	-0.352882
92	0x3e3219a1	0.17392589
93	0xc0716288	-3.7716389
94	0xbdaaea84	-0.083455116
95	0xbf9d9426	-1.2310836
96	0xbe04ff4b	-0.12988012
97	0x3cf70af6	0.030156594
98	0xbc628932	-0.013826655
99	0x3e825cb3	0.2546135
100	0xbd9a8352	-0.075445786
101	0xbcb813cd	-0.02247038
102	0xbb8b0140	-0.0042420924
103	0x3e3f5c76	0.18687615
104	0xbfd3878c	-1.6525741
105	0xbf49ff2d	-0.7890499
106	0xbf989e8c	-1.1923385
107	0xbf2c7f73	-0.6738197
108	0x3bbcc187	0.005760375
109	0xbdfccb92	-0.123435155
110	0x3d4ce5d4	0.05002387
111	0x3c4335c8	0.011914678
112	0xbcee6802	-0.02910233
113	0x3ca68028	0.020324782
114	0xbfc16e65	-1.5111815
115	0x3e4ca1cd	0.19983597
116	0x3de332f7	0.11093705
117	0xbdabc8d8	-0.08387917
118	0x3dd92292	0.10602297
119	0xc04f0fc2	-3.2353368
120	0xbdb97974	-0.090563685
121	0xc0d6b272	-6.709283
122	0xbd5aded3	-0.053435158
123	0x3c81308f	0.015770225
124	0x3e4ca1f1	0.1998365
125	0xc00a5128	-2.1612034
126	0x3dc5ff92	0.09667887
127	0xbf16dc65	-0.58930045
128	0xba89fa21	-0.0010526815
129	0xbd2470b9	-0.040146563
130	0x3ab1fe28	0.0013579773
131	0xbd2cc18c	-0.04217677
132	0xbdc7cffb	-0.09756466
133	0x3ca7319a	0.020409394
134	0x3cceb608	0.025233284
135	0x3d674280	0.056459904
136	0x3caf1e30	0.0213767
137	0xbd418250	-0.047243416
138	0x3d8eaf75	0.069670595
139	0xbd46033b	-0.048342925
140	0xbe077397	-0.13227688
141	0x3cce5930	0.025189012
142	0x3dae89b7	0.08522361
143	0xbe007d5e	-0.12547824
144	0xbdba6eda	-0.091031745
145	0x3c6c00e0	0.0144045055
146	0xbc93d787	-0.018047107
147	0xbe038e09	-0.12847151
148	0xbddb8036	-0.10717814
149	0xbdf77ef6	-0.12084763
150	0xbd99934e	-0.07498799
151	0x3c9023a9	0.01759513
152	0x3c3f693d	0.011682806
153	0xbd80423f	-0.062626354
154	0x3d9e3d4e	0.07726537
155	0xbcd01eae	-0.025405254
156	0x3bf8d0c5	0.0075932466
157	0x3d3c8d3c	0.04603313
158	0xbd4704d4	-0.04858859
159	0xbd087708	-0.033316642
160	0x3d8410ac	0.064484924
161	0xbd73d811	-0.05953223
162	0x3d2ab74b	0.041678708
163	0xbd851402	-0.06497957
164	0xbda4fd9e	-0.08056186
165	0x3d4f2081	0.050568108
166	0x3d81e624	0.06342724
167	0xbc55d718	-0.013051771
168	0x3dce9d0e	0.100885496
169	0xbdb34e9f	-0.0875523
170	0x3d03c016	0.03216561
171	0xbb9e2bf3	-0.0048270165
172	0x3d9822e2	0.07428528
173	0x3d1ac13c	0.03778194
174	0x3d0d96d3	0.034567665
175	0x3d2f2568	0.042760283
176	0x3d8a1706	0.067426726
177	0x3d3effc4	0.046630636
178	0x3d5f51d7	0.054521408
179	0xbda96745	-0.0827165
180	0xbdb2d08a	-0.08731182
181	0x3dad3c94	0.0845882
182	0xbdbd3cfc	-0.092401475
183	0x3ca8742e	0.020563211
184	0xbdc0edee	-0.094203815
185	0xbdbd0fbc	-0.09231517
186	0x3dbb68c7	0.09150844
187	0xbd367710	-0.04454714
188	0xbc3e965b	-0.011632527
189	0xbd893f7d	-0.067015626
190	0xbbc19500	-0.0059076548
191	0x3d3678a0	0.04454863
192	0x3db5a9ee	0.08870302
193	0xbe0e0807	-0.1387025
194	0xbc76b6a4	-0.015058193
195	0xbe08fb94	-0.1337722
196	0x3d0f3da1	0.034970883
197	0xbb362d16	-0.002779787
198	0xbd9b0ae1	-0.07570434
199	0xbbfbcd20	-0.007684365
200	0xbdcfc966	-0.101458356
201	0xbd9821b2	-0.07428302
202	0xbd1acebd	-0.037794817
203	0xbd8b65b9	-0.068065114
204	0xbdac7b13	-0.08421912
205	0x3cdcfe3d	0.026976699
206	0x3c8dd1df	0.017311988
207	0x3d207608	0.039175063
208	0xbd33eaba	-0.043925025
209	0x3d764545	0.060124654
210	0xbce3a965	-0.027790735
211	0x3d6ad6f6	0.05733391
212	0xbdab2d18	-0.0835821
213	0x3dce714d	0.10080204
214	0x3d4986fc	0.049200997
215	0xbd96bf26	-0.073606774
216	0x3cd032bc	0.025414817
217	0x3ad5b4ad	0.0016304456
218	0xbdeac9e4	-0.11464289
219	0x3c81d751	0.015849741
220	0x3dbc6623	0.091991685
221	0xbd2b2c96	-0.041790567
222	0xbde8f479	-0.113747545
223	0xbe08abfe	-0.1334686
224	0x3dad7228	0.08469039
225	0xbd787577	-0.0606589
226	0x3d1ca6b5	0.03824492
227	0x3ca87908	0.020565525
228	0xbbc5850e	-0.0060278242
229	0x3d251e8a	0.040312327
230	0x3d8ea1d0	0.06964457
231	0xbdcf3469	-0.10117418
232	0xbc2a1e5d	-0.010383216
233	0xbd408863	-0.04700507
234	0xbde7fe06	-0.11327748
235	0xbd6451eb	-0.055742186
236	0xbde9c3b2	-0.11414279
237	0xbd336ec8	-0.04380682
238	0x3d32ec49	0.04368237
239	0x3d88ac17	0.066734485
240	0xbda7d9ff	-0.08195876
241	0xbdad4a86	-0.0846148
242	0x3d1b6ba0	0.037944436
243	0x3d83ac86	0.064293906
244	0xbe05fb0a	-0.13084045
245	0xbdb0a7c1	-0.086257465
246	0xbcc8015f	-0.024414716
247	0xbd92c331	-0.07166136
248	0xbcc68d68	-0.02423735
249	0x3d3ea7e3	0.046546828
250	0xbcdc33a0	-0.026880085
251	0xbbdd6913	-0.0067569106
252	0xbcd30cab	-0.025762876
253	0xbcd93ddb	-0.026518753
254	0x3dbcfe66	0.0922821
255	0x3d12578c	0.035728022

layers.4.bias f4 [64]
0	0xbd83235d	-0.064032294
1	0xbe6909cf	-0.22757648
2	0x3bc1db66	0.005916047
3	0x3dc86325	0.09784535
4	0x3d860afc	0.06545064
5	0x3d802288	0.06256586
6	0xbaa1c570	-0.0012342166
7	0xbd5986f7	-0.053107228
8	0xbda18302	-0.07886316
9	0xbd13210a	-0.03592018
10	0x3d91f28d	0.07126341
11	0x3d20d776	0.03926798
12	0xbd5c1831	-0.05373401
13	0x3dc893a6	0.09793787
14	0xbd466da9	-0.048444424
15	0xbde7f30b	-0.11325654
16	0x3de3e7bd	0.11128185
17	0x3e105cf7	0.14097963
18	0xbd449ed9	-0.04800305
19	0xbc6f6770	-0.014612064
20	0xbe23dbea	-0.1600186
21	0x3c9de98d	0.019276405
22	0x3dfb67dc	0.12275669
23	0x3e0290c6	0.12750539
24	0xbd80e1ac	-0.062930435
25	0xbd68170b	-0.0566626
26	0x3d96a6b0	0.07356012
27	0xbd95a000	-0.07305908
28	0xbe04c10b	-0.12964265
29	0xbde5cb74	-0.11220446
30	0xbdcdae62	-0.100430265
31	0x3d3f4498	0.046696275
32	0x3c417030	0.011806533
33	0xbd24a7a3	-0.040198933
34	0x3df5d79e	0.12004016
35	0x3db3edef	0.087856166
36	0xbcecb2c9	-0.028893845
37	0xbdbce135	-0.09222642
38	0x3c21fef4	0.009887446
39	0xbe4b9d40	-0.19884205
40	0xbdfa8e18	-0.122341335
41	0x3d233303	0.03984357
42	0x3d3443c1	0.044009928
43	0xbd745088	-0.059647113
44	0x3caba9e1	0.020955028
45	0x3d0d7ddb	0.034543853
46	0x3e65378c	0.2238447
47	0xbd1a9536	-0.037739955
48	0xbd9aaf70	-0.07552993
49	0xbc72b5d6	-0.014813861
50	0x3db37cf3	0.087640665
51	0xbd0e6316	-0.034762464
52	0xbdc162cb	-0.094426714
53	0xbdb6192e	-0.088915214
54	0x3c7a5954	0.015280087
55	0x3dc4e85f	0.09614634
56	0x3c9d3643	0.019190913
57	0x3d19c2da	0.03753934
58	0x3c9b813a	0.018982518
59	0x3d0fddbe	0.03512358
60	0x3d120bc3	0.035655748
61	0x3dcc9a36	0.09990351
62	0xbe796d42	-0.24358085
63	0xbd9e4111	-0.07727254

out.weight f4 [1, 64]
0	0xbe1c074f	-0.15237163
1	0x3f3dc6bc	0.7413137
2	0x3dd2f76b	0.103010975
3	0x3dddaedb	0.10824367
4	0xbeac802f	-0.33691546
5	0xbe5d7a44	-0.21628672
6	0xbe32a022	-0.17443898
7	0xbd83b254	-0.06430498
8	0xbe9f4664	-0.3110839
9	0xbe6f2af8	-0.23356235
10	0x3d8e35c0	0.06943846
11	0x3cd14181	0.02554393
12	0x3fb1d3fd	1.3892819
13	0xbe04e965	-0.12979658
14	0x3ee212d0	0.44154978
15	0x3e9fca6c	0.31209123
16	0xbe1f2213	-0.15540342
17	0xbe45b2e3	-0.19306521
18	0x3aef8c28	0.0018276023
19	0x3ded28cc	0.11580047
20	0x3fb32fb9	1.3998939
21	0xbe7ad08e	-0.2449362
22	0xbe259a41	-0.16172124
23	0xbe47a3ff	-0.19496153
24	0x3d1f69b8	0.03891918
25	0xbe824990	-0.2544675
26	0x3dcad958	0.09904736
27	0xbcf180fb	-0.029480448
28	0x3f3ca055	0.7368215
29	0xbde173c4	-0.11008409
30	0x3f0fe4c2	0.5620843
31	0xbe502f02	-0.20330432
32	0xbd8688ec	-0.065690845
33	0xbe6dcc68	-0.23222506
34	0xbe3dc4ea	-0.18532148
35	0xbe36fa6e	-0.17868969
36	0x3dbcbde0	0.09215903
37	0xbda1bc2d	-0.0789722
38	0x3d5af70a	0.05345825
39	0x3f38d603	0.72201556
40	0x3d56dd2f	0.05245703
41	0x3cba7cb2	0.022764537
42	0xbe120f85	-0.14263733
43	0x3da26a4f	0.07930433
44	0x3d384adb	0.044993263
45	0xbe607e02	-0.21923068
46	0xbe5b3d4e	-0.21410105
47	0x3ef0fcf8	0.47068
48	0x3c1e52c0	0.009663284
49	0xbb1b6591	-0.0023711661
50	0xbe1f6f0e	-0.15569708
51	0xbe5ccf48	-0.21563447
52	0xbd3da8db	-0.04630361
53	0x3ba04c3f	0.0048919017
54	0xbe30d31f	-0.17268036
55	0xbe540503	-0.20705037
56	0xbe45711a	-0.19281426
57	0x3d4679cf	0.04845601
58	0xbe4064d7	-0.18788467
59	0x3a641969	0.0008701296
60	0x3dae91df	0.085239165
61	0xbe5d62cd	-0.21619721
62	0x3f42f2da	0.7615181
63	0xbe71684e	-0.23574945
