models/model_1100000_train_20700_epoch_192_neurons_boxcox_scaler.pt (torch, 38077 bytes, 7 tensors)

layers.0.weight f4 [64, 5]
000000 56 52 8f 3e 5f 38 9c 3d 82 2b 27 bf 6c 05 72 3e
       0.27992505 0.076279394 -0.6530076 0.23634881
000010 35 13 89 3e 20 54 af bd 6e fa ba 3c 4a 65 bb 3d
       0.26772466 -0.085609674 0.022824492 0.09150179
000020 48 e2 fb bd 91 34 ef 3e 95 79 d3 3e 23 d1 cc 3e
       -0.12299019 0.46719792 0.41303697 0.4000331
000030 b8 b5 87 3e eb 40 77 3e 8a 42 a1 3e c4 e1 bf 3e
       0.26505828 0.24145858 0.31496078 0.37476933
000040 af 4c ff bd 39 70 61 3e d9 05 b7 bd c3 2f 2c bf
       -0.12465798 0.22015466 -0.08936662 -0.6726038
000050 54 14 e5 3c 54 0b aa be 1d b4 97 3d 2e 63 e3 3e
       0.027963795 -0.33211768 0.07407401 0.44411606
000060 03 57 80 be 99 73 b3 3e 7a 17 9b be 68 3f be be
       -0.25066385 0.35049132 -0.3029135 -0.3715775
000070 a7 2f 05 be fd 67 1e be ab 7b 8a 3e 8e 57 a7 be
       -0.13006459 -0.15469356 0.27047476 -0.32683986
000080 77 6e 09 bd f8 98 90 be df c5 63 be ff ba 65 bf
       -0.033552613 -0.28241706 -0.2224345 -0.8973846
000090 89 32 e2 3e 6a 6a 69 bf fe 0b 74 3a 58 be 8f bb
       0.4417918 -0.91178 0.00093096483 -0.0043867044
0000a0 78 b2 54 3b 99 e4 53 bc 73 82 8f c0 c9 ad ec bb
       0.0032455008 -0.01293292 -4.484674 -0.0072228652
0000b0 ae 40 9e bb 09 d7 bc 3e dc f1 56 be df ea c9 be
       -0.0048294878 0.3688281 -0.209907 -0.39437005
0000c0 c3 5a 67 3e 48 36 bb be 8c b2 31 3e 8a 2e f4 bd
       0.22593217 -0.3656485 0.17353266 -0.11922939
0000d0 65 72 41 3e b7 d1 44 3e 99 cf 2b bf 2c 8e 03 bf
       0.18891294 0.19220625 -0.67113644 -0.5138881
0000e0 5c 43 65 3d 7f 8b c8 3e 3b 66 d8 bd 6e bb af be
       0.055972442 0.39168927 -0.10566374 -0.34322685
0000f0 5c 30 35 3e 2c f0 b2 3e 3a 7b ba 3e 4c 85 8d be
       0.17694229 0.34948862 0.3642214 -0.2764076
000100 06 ed f4 3e 12 bb 01 3f c3 d3 b7 be 64 fc 39 3d
       0.47837085 0.5067607 -0.3590375 0.045406714
000110 e5 d0 22 b9 d0 3d 92 3a 75 da 60 3e 51 42 fe be
       -0.00015527343 0.0011157338 0.21958335 -0.4965997
000120 29 e8 bd 3e 61 3c be bd 17 df b7 3e c7 3f 06 be
       0.37091187 -0.0928886 0.35912392 -0.13110267
000130 82 66 fe bd 02 4e ba 3e 17 c5 d5 3e e0 4b cb 3e
       -0.124218956 0.3638764 0.4175193 0.39706326
000140 b1 c7 d1 be 06 d7 98 3e 9d 2f d3 be 28 73 47 be
       -0.40972665 0.2985155 -0.41247264 -0.19477522
000150 0a e4 a9 bd d6 f9 4e be 35 dd 9e 3d d9 c9 05 3e
       -0.08295448 -0.20212492 0.07757036 0.1306528
000160 93 b9 d7 3b 0f f3 c3 be 92 c2 21 3e aa 9d 87 3c
       0.0065834015 -0.38271376 0.15796879 0.016554672
000170 a1 23 ca 3e 9c e7 af 3c 52 b2 66 bf f9 20 a3 3e
       0.39480308 0.021472745 -0.90115845 0.31861094
000180 ef a6 f3 bd 8d 3d ef 3e 0a 9e 1e be aa fe f1 3e
       -0.118970744 0.46726647 -0.15489975 0.47264606
000190 3a ba eb 3d c5 c4 3d 3e b8 39 d5 be 31 f4 c0 39
       0.11510129 0.18532093 -0.41645598 0.0003680303
0001a0 2b 35 04 be 21 cd 45 be 93 0a 5c bd 46 96 45 3e
       -0.12910907 -0.19316532 -0.05372102 0.19295606
0001b0 99 7f d9 3e d0 d1 ae be 04 79 ae 3d 17 c9 a0 bd
       0.42480162 -0.3414445 0.08519176 -0.07850855
0001c0 82 5e 8e 3e e4 83 f2 3e 9c 61 2c 3f 66 91 18 3e
       0.2780648 0.4736625 0.6733644 0.14899215
0001d0 57 88 8d 3c 1e 37 be 3e 91 9c 0e 3d 0f da ee be
       0.017276926 0.37151426 0.034817282 -0.4665074
0001e0 48 47 4e be 41 66 79 3e 03 94 50 c0 35 b6 1a 3c
       -0.20144379 0.24355413 -3.259034 0.009442856
0001f0 e6 fa 05 3f 85 17 8b 3e 0a 6f fc 3e 26 94 ba be
       0.52335966 0.2716638 0.49303466 -0.36441153
000200 01 9f 80 bc 8f 57 ff bd d6 24 4e be cc 28 3d be
       -0.015700819 -0.12467872 -0.2013124 -0.18472594
000210 b1 f2 f9 be 65 21 a6 3e ca ed 03 bd 49 fa 31 bd
       -0.4881797 0.32447353 -0.032209195 -0.04345158
000220 42 c9 c9 3e 03 00 f3 3e a6 7b 32 3c 34 fe ed 3e
       0.3941136 0.47460946 0.010893738 0.46483004
000230 bd be 00 bc fa 35 6b 3c 4e ac ac c0 2a 04 15 3b
       -0.007857976 0.014356131 -5.3960333 0.0022738078
000240 fc ac ec 3e 62 b9 c9 3d fd 5e 95 3e aa 99 c7 3e
       0.46225727 0.09849812 0.29174033 0.38984424
000250 af 5e 8f 3e 57 74 f1 3e f0 ce 4b be d7 0f c8 3e
       0.28001925 0.47159073 -0.19903159 0.39074585
000260 e9 3e a4 bd 9b 7a c7 3e e9 9a 8d 3e df ba 07 3f
       -0.08019812 0.38960728 0.2765725 0.5301952
000270 da 7b 0d bf 76 9f a7 3d 1f 5d e6 3d 07 2c 4b bd
       -0.5526711 0.08184712 0.1124823 -0.049602535
000280 ba 44 b7 3d 90 db c7 3e 58 36 37 3e 61 11 d0 bc
       0.089486554 0.390347 0.17891824 -0.025398912
000290 ea 4c 41 3e ce ec 88 3d af 12 a8 3c 1a e7 09 3e
       0.18876997 0.06685792 0.020516722 0.13467064
0002a0 49 cc 7c 3d be 06 5a 3d fe d2 e6 bc 9a b0 33 3e
       0.06171826 0.053229086 -0.02817678 0.17547837
0002b0 67 b3 16 3e 2e 9b 91 bc 4f 47 cf be 2b 03 48 be
       0.14716874 -0.01777419 -0.40484092 -0.19532458
0002c0 41 bf c1 3e 2e e9 69 3e cf 05 6e 3d 73 07 f0 bd
       0.37841228 0.22842857 0.05811101 -0.11720171
0002d0 31 49 46 bd 55 ee 05 bf e2 fa fb 3c e6 73 c3 3a
       -0.048409645 -0.5231679 0.030759279 0.001491186
0002e0 c2 b2 2b 3e 62 2b 49 be 2d 46 a0 be 15 6d c2 bd
       0.1676741 -0.19645455 -0.3130354 -0.09493462
0002f0 c8 2d d5 be 29 ab ee 3d 02 76 36 3d 11 e5 0d 3d
       -0.4163649 0.1165374 0.044546135 0.034642283
000300 3b ec 10 c1 48 e7 0a 3d f1 cf 06 bd 0e 09 39 3d
       -9.057673 0.033911973 -0.032913152 0.04517465
000310 e6 de 51 be 85 20 af 3e 4f 9a c6 3c 62 ec f8 3d
       -0.20495185 0.34204498 0.024243502 0.121544614
000320 39 eb 22 bd 9b 7e f6 ba b5 6f 1d 3f cc 5e de 3b
       -0.039775107 -0.0018806042 0.61498576 0.006786203
000330 26 30 13 bf 9e 2c 86 be 27 38 83 3e da 02 85 3e
       -0.57495344 -0.26205915 0.25628778 0.25978738
000340 07 c4 df bc ce 71 c5 bd 6d 57 29 bf 6c a2 90 3e
       -0.027315153 -0.09640847 -0.66149026 0.28248918
000350 ba ec 15 bd a8 8c e0 bb 12 88 38 bd 66 b9 57 3e
       -0.036602713 -0.006852705 -0.04505164 0.21066818
000360 0b 21 4e be f0 68 46 bf 72 fe 94 bd 14 12 19 3d
       -0.20129792 -0.7750387 -0.07275094 0.037370756
000370 25 a7 bf 3d 13 10 c9 3e 7d ac b4 3d 8e e7 b9 3c
       0.09358052 0.39270076 0.08821962 0.022693422
000380 73 e6 95 be fb 43 b5 bb f2 46 3f 3c 01 76 e5 c0
       -0.2927738 -0.0055317855 0.0116746295 -7.170655
000390 20 37 e6 3a 8e dc 5d 3e 03 88 0c bf 59 72 40 3e
       0.0017564036 0.21666166 -0.5489504 0.1879362
0003a0 b1 2e 8f bc 46 0f d4 b9 40 d5 c8 bc 77 b1 43 bf
       -0.017478319 -0.0004044717 -0.024515748 -0.76442665
0003b0 52 71 ac 3e 84 de 01 be 75 14 55 3b 82 45 2f be
       0.33680207 -0.12682539 0.0032513414 -0.17116359
0003c0 d9 b8 a4 3e 54 0e 9a be a2 31 1d bf 28 ec e2 bd
       0.32172278 -0.30089056 -0.6140386 -0.110801995
0003d0 8e c0 25 3e 45 ae 4b bf d2 7f b1 3e 72 21 6b bd
       0.16186735 -0.7956279 0.34667832 -0.057404943
0003e0 84 fc f7 bb b1 20 e6 bd 9a a0 82 3e 0d fd cb 3e
       -0.007567944 -0.11236704 0.25513154 0.398415
0003f0 48 6c b0 be c0 7f e3 3b ae f1 e5 be c2 47 b9 3e
       -0.34457612 0.006942719 -0.4491095 0.3618756

layers.0.bias f4 [64]
000000 ef 15 30 be 4c 47 03 3f d9 4c 56 be 47 68 bd 3d
       -0.17195867 0.51280665 -0.20927753 0.09248405
000010 a8 7e ef 3e 57 6d dd 3e 01 a0 e0 3e 29 d7 77 3e
       0.4677632 0.43247482 0.43872073 0.24203171
000020 c2 dc 70 bb 6f bb a3 3e bf 03 15 3d 98 22 e5 3c
       -0.0036752676 0.31978938 0.036380526 0.027970597
000030 a7 8c bd 3e b8 5a 12 bd e2 5c b7 3e 12 a7 32 3e
       0.37021372 -0.035731047 0.3581305 0.17446545
000040 46 b8 b8 3e be 6b df 3e 1e f0 de bd e5 6a 79 3c
       0.3607809 0.43636888 -0.108856425 0.01522324
000050 2d 45 a4 be ad c3 fd 3e 22 87 16 bd 0e c5 9b bd
       -0.32084027 0.4956335 -0.036749966 -0.076059446
000060 97 46 42 be a5 51 6e be 1c 98 bd 3e 0f 94 f7 3d
       -0.1897224 -0.23273332 0.37030113 0.12088787
000070 84 88 68 3c 42 72 52 be bf 24 e0 3e f1 b1 3c be
       0.014192704 -0.20551398 0.43778035 -0.18427254
000080 a2 33 7a 3c a1 cf b7 3d dc 92 cd 3e 81 09 c2 3e
       0.015271099 0.08975149 0.40151107 0.37897876
000090 72 b4 88 3d d7 35 14 be 6a 93 d5 3c ca 29 0f bd
       0.06675042 -0.14473663 0.026071269 -0.034951963
0000a0 90 ad ac bb 2a 09 40 3e 1d eb 9b 3e 92 2d 2b 3e
       -0.0052697137 0.18753496 0.30452815 0.16716602
0000b0 36 e0 7c be b5 75 d0 bb 16 0c d1 3e 32 38 73 3e
       -0.24694905 -0.006361688 0.40829533 0.23751906
0000c0 6a e1 7c 3e 53 34 9a 3e 4a c6 ba 3e ac 95 1f 3e
       0.24695364 0.30118045 0.36479408 0.15584439
0000d0 d4 25 96 be dc 64 09 3e 3f e2 ae 3e ae 89 34 be
       -0.29325736 0.13417381 0.34156987 -0.17630646
0000e0 d4 dd e8 3c 0f 48 d2 3e ac 72 78 3e 4d 07 e3 3d
       0.028426088 0.410706 0.24262494 0.11085377
0000f0 62 7d dc be ef 28 4b 3e 7a fe 42 3e ae 16 83 3e
       -0.4306441 0.19839834 0.19042388 0.2560324

layers.2.weight f4 [64, 64]
000000 36 6b bb 3d d5 c8 0f be c6 93 4f bd d6 f1 11 bd
       0.09151308 -0.14041455 -0.050678037 -0.035631023
000010 e0 13 e4 3d e1 ee fe 3d e2 70 9f 3d a4 6e 34 bf
       0.11136603 0.12447906 0.077852026 -0.70481324
000020 c0 1f 13 3f ac 0b ca 3d 44 95 df 3c 9b 06 c7 3c
       0.5747032 0.098655075 0.027292855 0.024295142
000030 9c 29 d7 bc 2d 76 f0 bb 14 85 86 3d 21 57 33 3c
       -0.026264958 -0.0073383064 0.065683514 0.010946066
000040 8c f3 ca bc 16 2c c2 bd 9d 43 28 bc 08 19 08 be
       -0.024774335 -0.09481065 -0.0102700265 -0.13290799
000050 20 c8 ee 3d 3b 59 d8 bc d8 01 0e be 6d 26 6f 3e
       0.116592646 -0.026409736 -0.13867891 0.23354502
000060 86 98 95 3d 90 22 40 3d 26 d8 da 3c e3 14 eb bd
       0.07304482 0.04690796 0.026714396 -0.11478593
000070 9c 1c 4b 3e 55 20 17 be 85 bd 94 3b de d9 0f 3d
       0.19835132 -0.14758427 0.004539194 0.035119884
000080 ec 99 e1 bb 95 13 bd 3d 42 7c 9d 3d 97 6e 9f 3c
       -0.006884804 0.092322506 0.07689716 0.019461913
000090 de 7c 69 3d dc 41 e3 3d 65 cb 88 be a8 fb 0a 3d
       0.05700385 0.11096546 -0.26717678 0.033931404
0000a0 6f 33 7f 3e d3 3f 31 be 23 2d ce be 9f 45 0f 3e
       0.24921964 -0.17309503 -0.40268812 0.13991402
0000b0 48 26 91 3d 53 07 27 be 4e d2 72 be 02 ae 9e bf
       0.0708738 -0.16311388 -0.23713037 -1.2396853
0000c0 dd fa 08 3d 5d f1 d3 be 06 6c 77 3e 8f 0a 91 bb
       0.033442367 -0.41395083 0.24162301 -0.0044263075
0000d0 49 91 27 be f9 50 c0 3d b7 e2 5a 3d 80 b8 a8 ba
       -0.16364016 0.09390444 0.05343887 -0.0012872368
0000e0 34 93 af 3e ff f3 dd 3d 3a 70 56 be db fa 39 bc
       0.34291995 0.10837554 -0.20941249 -0.0113513125
0000f0 10 95 a8 bc 13 60 a6 bd de bf 1d bd 50 b3 1a 3e
       -0.020578891 -0.081237935 -0.038513057 0.15107465
000100 17 9b 2b 3c c2 10 54 3d ac ff 01 be a1 33 89 3d
       0.010473988 0.051773794 -0.12695187 0.066993006
000110 ae c8 1b 3d 96 61 5b 3e 79 37 68 bc 03 8c c7 be
       0.03803318 0.21423945 -0.014173382 -0.38974008
000120 64 f0 d2 be c8 12 48 3e c2 99 66 3d 48 13 02 3d
       -0.41199028 0.19538414 0.05629898 0.03175667
000130 3b d4 64 3c c1 5b e4 3c 6a c4 03 3d 3c 68 c8 3c
       0.013966615 0.027875783 0.032169737 0.024463765
000140 49 35 97 bd 8c cc 74 bd a3 9b d0 3d 22 03 13 be
       -0.0738321 -0.059765384 0.10185935 -0.14356664
000150 50 86 df 3c 06 99 97 3c 45 3b 90 bd d8 e0 23 3d
       0.027285725 0.018505584 -0.07042555 0.04000935
000160 d8 0c ec 3d 4f 2b a0 3d e4 18 b5 bc 20 6a 49 bd
       0.11525887 0.078207605 -0.022106595 -0.049173474
000170 ba b3 b4 3d 71 ce 9c bd 33 28 27 bd 38 13 50 3d
       0.088233426 -0.07656563 -0.04080982 0.05079958
000180 18 6b a1 bd 51 0f aa bd 98 81 68 bd 5a 0f 82 bd
       -0.07881755 -0.083037026 -0.056764215 -0.06350584
000190 ae 52 12 3e 82 d6 a0 bd 3b 9e 50 be 54 40 09 3e
       0.14289352 -0.07853414 -0.2037286 0.13403445
0001a0 e4 90 53 3e 1d 5d 30 bd 7f 75 c7 be 92 42 06 3e
       0.2066074 -0.04305755 -0.3895683 0.13111332
0001b0 33 1c fd 3c 73 97 3b 3e c5 f2 4b be 82 63 8a bf
       0.030897235 0.18319492 -0.19916828 -1.0811617
0001c0 f1 0c 74 3d c3 d6 97 be 5a c5 45 3e b0 fe a5 3d
       0.059582654 -0.29656038 0.19313565 0.081052184
0001d0 ba 50 9d be b6 98 17 3e 0c a7 e3 3c 94 a3 09 3d
       -0.30725652 0.14804348 0.027789615 0.033603266
0001e0 ac c6 82 3e 46 42 6f 3e ca 26 a6 be 44 97 de 3d
       0.255422 0.23365125 -0.3245147 0.108686954
0001f0 e6 23 ef 3d b8 3b 22 3e 84 6c ca bd d6 0f e5 be
       0.11676769 0.15843093 -0.09883979 -0.44738644
000200 57 35 32 3c a7 8f b0 3e cd 90 19 be fe 04 07 3e
       0.010876975 0.34484598 -0.14996643 0.13185498
000210 5d 33 0f 3d ef 26 ba 3d 27 ae 7e 3d 77 e6 ba be
       0.034961093 0.09089457 0.062177803 -0.36503956
000220 85 4c f4 bf 91 31 90 3e 03 6e c5 3d 00 13 fc 3d
       -1.9085852 0.28162816 0.09640124 0.123083115
000230 f0 e1 e3 3c 8c 6c 1d 3e 28 03 5e bc 89 c8 23 be
       0.027817696 0.15373439 -0.013550557 -0.15994467
000240 61 e3 66 be 16 48 a7 3d 8c 03 67 bd 5f 7e 30 be
       -0.22547676 0.08168046 -0.056399867 -0.17235707
000250 96 e5 81 bd 30 f6 43 bd 4c f0 97 3c 15 18 19 3e
       -0.06342618 -0.047842205 0.0185472 0.14950593
000260 65 c2 ae 3e cb 80 76 bd a4 ea 1b 3e f4 74 c9 3d
       0.34132686 -0.06018142 0.15226227 0.0983676
000270 6d 14 21 3c f8 bf 8d bd 89 4f ee 3d f7 01 83 3e
       0.00983153 -0.06921381 0.11636264 0.25587437
000280 e3 2f 83 3d db a5 b5 bd 44 9f d7 3d 0a d3 7b 3d
       0.06405618 -0.08869525 0.105284244 0.06148056
000290 1b f3 25 3e 94 cb 74 3d d2 de 35 bf 2b 8b 7b bd
       0.16206019 0.05976446 -0.7104312 -0.061412018
0002a0 8b 7f b3 3d 88 4f 49 bd 67 ad 80 be b9 64 02 3e
       0.08764561 -0.049148113 -0.25132295 0.12733735
0002b0 d7 59 c0 be 64 a2 3e bf 54 20 28 3d c3 ec 4d bf
       -0.37568542 -0.7446654 0.041046456 -0.80439395
0002c0 52 ab a0 3d f6 5b 8b bd 43 e4 a0 3e ae 45 d1 3d
       0.07845177 -0.068046495 0.3142415 0.102183685
0002d0 5d 0c 03 be 5b c2 40 3e 28 bf ba 3c 38 30 a1 bd
       -0.12797685 0.1882414 0.022796229 -0.07870525
0002e0 2e ca 2f 3e 14 35 79 3e 06 8a 9f be 1a 72 37 3e
       0.17166969 0.24336654 -0.3115999 0.1791462
0002f0 68 57 8f bc 14 36 10 3e 1c 0d 8d bc a0 86 91 bf
       -0.017497733 0.14083129 -0.017218165 -1.1369209
000300 9d 4a 6d bc d1 d8 05 bf 84 9e 05 be 8f ce 89 3e
       -0.014483121 -0.5228396 -0.1304875 0.26915404
000310 19 e3 cc 3d fc da 48 3e 21 64 fd 3d 8d 45 d3 3e
       0.10004253 0.19614786 0.12372614 0.41264
000320 61 d7 9c bf 0c 78 60 3e ac 0f 91 3e 46 95 ee bd
       -1.2253228 0.21920794 0.2833227 -0.116495654
000330 cc a4 4b be 0c 8a 96 3c 50 72 f1 bd e7 4b 62 be
       -0.19887084 0.018376373 -0.117893815 -0.22099267
000340 4f 8e 75 bd 9c 5a 3d 3e 2d e5 6b 3e 65 4e bc be
       -0.05995017 0.18491596 0.23036642 -0.3677856
000350 e7 bc 22 bd 0a d0 87 3e 36 7b a6 be 92 53 3b 3e
       -0.039730933 0.2652591 -0.32515877 0.18293598
000360 73 65 00 c0 38 49 0d 3d ee 30 bd bd f9 e2 fb bd
       -2.006192 0.034493655 -0.09237848 -0.12299151
000370 1a 11 14 3f bb 64 02 be 87 eb 3d be 36 e2 70 3d
       0.57838595 -0.12733738 -0.18546878 0.05880948
000380 78 82 37 be d0 95 e3 bd 9a df f1 3d 5a 03 ae 3c
       -0.17920864 -0.11112559 0.11810227 0.021241833
000390 d3 ef a9 3e 70 de 8d bd a0 2a 1b c0 e3 b8 d5 bc
       0.33190784 -0.06927192 -2.4244766 -0.026089137
0003a0 4d 9d 9f 3e 35 13 29 3e ad 5e 9d be 40 57 85 be
       0.31174698 0.16511233 -0.30736294 -0.2604313
0003b0 0f fe b7 3d 79 31 09 c0 5b 95 4b be f7 68 b5 bf
       0.08984005 -2.1436446 -0.19881193 -1.4172658
0003c0 eb a6 8e be 4b 22 bd be 1b 12 95 3e 16 e9 a1 3d
       -0.27861723 -0.36940226 0.29115376 0.07905786
0003d0 89 d0 f9 bd e2 b9 d9 3e b0 2f 50 3e 88 56 9b bc
       -0.12197978 0.4252463 0.20330691 -0.01896216
0003e0 e1 37 5b 40 1c 8e f8 3d 62 e6 9c c0 74 6b 19 3f
       3.4252856 0.1213648 -4.903123 0.59929585
0003f0 c8 d6 7e bd 89 1c 29 3e 16 8b 2b be c3 ff 34 3e
       -0.06221655 0.16514792 -0.16752276 0.1767569

layers.2.bias f4 [64]
000000 cf f6 3c 3d cc ca 65 3d cb da 04 3e 1f 72 e8 bd
       0.046133813 0.056101605 0.12974088 -0.11349892
000010 d9 7a c1 3c 9b e8 09 be 45 f5 83 bd f7 66 75 bc
       0.023618149 -0.13467638 -0.06443266 -0.014978162
000020 cc ff 04 bd 92 15 f4 3c 97 f8 c1 bd 74 d9 8b 3d
       -0.03247051 0.029795442 -0.09471243 0.06828585
000030 7f 5e 5f 3c 3c 39 9b 3d 52 ed a2 bd c7 75 75 bd
       0.0136333695 0.07579276 -0.079554215 -0.059926774
000040 98 3c 9e bc 81 2b 0c bd a8 0c a1 3d fd b8 11 3e
       -0.019316003 -0.034221176 0.07863742 0.14230724
000050 72 18 11 be a3 b5 c5 bd 18 6a 36 bd 1f 68 75 bd
       -0.14169481 -0.09653785 -0.044534773 -0.05991375
000060 ab 26 3c bc 1c 16 a0 bc 65 8c 40 bd 8e 4a 82 bd
       -0.011483829 -0.019541793 -0.04700889 -0.063618764
000070 e3 73 43 bd fd 03 00 be 90 11 a3 3d 1f a9 02 bd
       -0.04771794 -0.12501521 0.07962334 -0.031899568
000080 ed 7f 66 3d 82 db fa 3c c2 d7 3e 3e f5 af 48 3e
       0.056274343 0.030622248 0.18636993 0.19598372
000090 68 55 f1 bc 13 ee 56 bd c7 11 8a bd 3e c8 c0 3d
       -0.02945967 -0.05247314 -0.06741672 0.09413193
0000a0 22 a6 82 3d af f7 87 bd ba 7a f9 b9 95 25 bf 3d
       0.063793436 -0.06639039 -0.0004758442 0.0933334
0000b0 cc 81 0a be 7a 34 da bd f3 03 0b bd a2 24 ae 3d
       -0.13526076 -0.1065454 -0.033939313 0.08503081
0000c0 bb cd 6a 3d 80 1a 50 bd b3 7d 57 bd c5 f1 45 bd
       0.057325106 -0.050806522 -0.05261011 -0.048326273
0000d0 7a de d9 3d a9 01 a8 bd b4 92 24 3e f4 b4 4f bd
       0.10638137 -0.08203442 0.16071588 -0.05070968
0000e0 30 79 f0 bd b3 da b7 bd ef 92 fb 3d e2 28 62 3b
       -0.11741865 -0.089772604 0.12283885 0.0034509231
0000f0 8b db 17 3d 91 a4 8b bd 9c 3d 7c bd e4 48 bc bc
       0.037074607 -0.06818498 -0.061582193 -0.022983976

layers.4.weight f4 [64, 64]
000000 99 54 75 3e d5 46 a6 3d a3 90 32 3d 31 6c c3 3e
       0.23958053 0.08118979 0.043594968 0.3816848
000010 06 e9 9d 3e 06 ea 9d 3f bd e5 fb bc 4e 5c d4 3d
       0.30841845 1.2337043 -0.030749196 0.10369168
000020 30 2b f2 3c 1f 76 60 3f 25 51 f7 3d d4 48 d2 3d
       0.029561609 0.8768024 0.12076024 0.10267797
000030 56 ec 07 3e a9 48 0e bd bc 24 ed 3d fb 0f b7 3d
       0.13273749 -0.034737263 0.11579272 0.08938595
000040 ee 89 4f be a0 8b 47 3f 3f 9e 44 3d 51 22 b4 3c
       -0.2026746 0.77947426 0.048002478 0.02198902
000050 1b 2f db 3e 33 14 b6 3e 76 16 5d 3c 84 bc 10 3e
       0.42809376 0.35562286 0.013494125 0.14134413
000060 c4 ff 46 3e 30 af f7 3d ca 71 69 3e 03 3c 1f 3e
       0.19433504 0.12093961 0.22797313 0.15550236
000070 df bf 11 3e 15 4a 2d 40 9d c2 29 bd 5c df 6a 3e
       0.1423335 2.7076466 -0.041445363 0.22936767
000080 48 24 d4 3c 2e 82 52 3e 57 d6 0e 3e 78 69 fa 3d
       0.025896206 0.20557472 0.13948952 0.12227148
000090 6c da 21 3d 45 3c b1 3d 2f 48 ea bb c8 d3 0f 3e
       0.039514944 0.086540736 -0.0071497182 0.14045632
0000a0 15 39 15 3f 07 25 79 3e ec 63 14 3e 69 36 ad 3d
       0.58290225 0.24330531 0.14491242 0.084576435
0000b0 08 d1 ab 3c 10 07 45 bc 57 dc 56 3e f6 a6 ae 3d
       0.020973697 -0.01202561 0.2098249 0.08527939
0000c0 d7 c0 fb bc ee 3d a3 bd 2b 45 f5 3e 93 9e 54 3e
       -0.030731602 -0.079707965 0.47904333 0.20763616
0000d0 af c5 02 3d 83 f7 1f 3e fd 46 1e 3d ba c6 f6 3e
       0.031926807 0.15621762 0.03864192 0.4819849
0000e0 28 84 56 bd 9a 65 3d 40 00 da cd 3d e3 d9 98 bc
       -0.052372128 2.9593263 0.10051346 -0.018658584
0000f0 03 d0 43 3e 86 32 1f 3f 40 df 33 bc 7e 77 2a 3e
       0.19122319 0.6218647 -0.01097852 0.16647145
000100 d5 74 c3 be 3b dd de bd 9d 9a 6e 3e 82 36 e6 be
       -0.38175073 -0.1088204 0.23301168 -0.4496346
000110 26 67 e3 bf db cd 9b c0 6c c3 37 bd 34 93 ae bd
       -1.7765853 -4.868879 -0.044864103 -0.085241705
000120 78 8a a0 bc 39 a2 f0 bf 14 d3 8c 3c 95 74 f9 3c
       -0.019597277 -1.8799506 0.017190494 0.030451098
000130 ec 12 47 bd a7 fb 17 3e 3f 7b 3a bf c4 80 45 bf
       -0.04860203 0.14842092 -0.7284431 -0.77149606
000140 5d 97 54 3c f3 ed a2 c0 05 12 d1 3d ef ff 50 3d
       0.012975541 -5.0915465 0.10208515 0.051025327
000150 e0 50 04 c0 e8 ec ff bd 81 03 b0 3c 34 21 73 bf
       -2.0674362 -0.12496358 0.021486046 -0.9497254
000160 20 51 64 3e 79 02 ce 3d 67 b2 ac be e1 c5 99 be
       0.22296572 0.10059065 -0.3372986 -0.30033782
000170 23 5e 3b 3e e4 d5 0f c1 1e ec aa bd 04 07 bb bf
       0.18297629 -8.989719 -0.08345817 -1.4611516
000180 4b ff 04 be 3c ca 8e 3c e9 d2 aa 3b 52 0e 7e 3e
       -0.12988012 0.017430417 0.0052131307 0.2481015
000190 52 83 9a bd cd 13 b8 bc eb 7e 45 3d 98 1e 34 3e
       -0.075445786 -0.02247038 0.04821674 0.17589796
0001a0 93 6e d8 bf 6f a7 59 bf 18 56 98 bf 4f b1 19 bf
       -1.6908745 -0.8502111 -1.1901274 -0.60036176
0001b0 dd 80 e9 3b 92 cb fc bd eb fe 6a 3d c8 35 43 3c
       0.0071259574 -0.123435155 0.057372015 0.011914678
0001c0 0f 89 bf bc 28 80 a6 3c e3 a7 63 c0 bd 1f 45 3e
       -0.023380784 0.020324782 -3.557122 0.19250388
0001d0 0e 83 fe 3d 44 4f 71 bd 4e 27 d0 3d 9f bb 4e c0
       0.124273404 -0.058913484 0.10163747 -3.2302015
0001e0 74 79 b9 bd 70 3e 28 c1 ee ad 2c bd a8 23 fc 3c
       -0.090563685 -10.515244 -0.04215806 0.030778721
0001f0 c7 a3 4b 3e d6 ed 36 c0 92 ff c5 3d 41 39 5e bf
       0.19886695 -2.8582664 0.09667887 -0.8680611
000200 21 fa 89 ba b9 70 24 bd d6 72 47 bc 8c c1 2c bd
       -0.0010526815 -0.040146563 -0.012173375 -0.04217677
000210 fb cf c7 bd 9a 31 a7 3c 08 b6 ce 3c 80 42 67 3d
       -0.09756466 0.020409394 0.025233284 0.056459904
000220 30 1e af 3c 50 82 41 bd 82 87 63 3d be dc 84 bd
       0.0213767 -0.047243416 0.055549152 -0.06487416
000230 97 73 07 be fc f8 78 3c b7 89 ae 3d 5e 7d 00 be
       -0.13227688 0.015196081 0.08522361 -0.12547824
000240 cc 2e df bd e0 00 6c 3c aa eb 03 bd f4 23 0a be
       -0.10897598 0.0144045055 -0.03220717 -0.13490278
000250 36 80 db bd f6 7e f7 bd 4e 93 99 bd a9 23 90 3c
       -0.10717814 -0.12084763 -0.07498799 0.01759513
000260 6f df ec 3b 3f 42 80 bd 4e 3d 9e 3d ae 1e d0 bc
       0.007228784 -0.062626354 0.07726537 -0.025405254
000270 9b 90 00 bc 3c 8d 3c 3d d4 04 47 bd 08 77 08 bd
       -0.007846977 0.04603313 -0.04858859 -0.033316642
000280 ac 10 84 3d 11 d8 73 bd 87 04 10 3d 02 14 85 bd
       0.064484924 -0.05953223 0.035160568 -0.06497957
000290 9e fd a4 bd 81 20 4f 3d 24 e6 81 3d 17 71 b1 bc
       -0.08056186 0.050568108 0.06342724 -0.02166037
0002a0 0e 9d ce 3d 9f 4e b3 bd 16 c0 03 3d f3 2b 9e bb
       0.100885496 -0.0875523 0.03216561 -0.0048270165
0002b0 e2 22 98 3d 3c c1 1a 3d a0 9c a5 3c 68 25 2f 3d
       0.07428528 0.03778194 0.020216286 0.042760283
0002c0 0a 46 49 3d c4 ff 3e 3d d7 51 5f 3d ee 47 af bd
       0.04913906 0.046630636 0.054521408 -0.085586414
0002d0 b8 82 ce bd 30 c7 92 3d ef e0 bd bd 2e 74 a8 3c
       -0.100835264 0.07166898 -0.09271418 0.020563211
0002e0 ee ed c0 bd bc 0f bd bd c0 0f a0 3d 0d 88 60 bd
       -0.094203815 -0.09231517 0.07815504 -0.054817248
0002f0 78 30 90 bc 7d 3f 89 bd 00 95 c1 bb a0 78 36 3d
       -0.017601237 -0.067015626 -0.0059076548 0.04454863
000300 ee a9 b5 3d 07 08 0e be ab 5e 8d bc 94 fb 08 be
       0.08870302 -0.1387025 -0.017257055 -0.1337722
000310 a1 3d 0f 3d 16 2d 36 bb e1 0a 9b bd 20 cd fb bb
       0.034970883 -0.002779787 -0.07570434 -0.007684365
000320 66 c9 cf bd b2 21 98 bd 06 12 1c bd 0e 56 8d bd
       -0.101458356 -0.07428302 -0.038103126 -0.06901179
000330 13 7b ac bd 47 7b c0 3c df d1 8d 3c 08 76 20 3d
       -0.08421912 0.023496283 0.017311988 0.039175063
000340 16 12 4d bd 45 45 76 3d 65 a9 e3 bc f6 d6 6a 3d
       -0.050066076 0.060124654 -0.027790735 0.05733391
000350 18 2d ab bd 4d 71 ce 3d fc 86 49 3d 26 bf 96 bd
       -0.0835821 0.10080204 0.049200997 -0.073606774
000360 23 b5 c5 3c ad b4 d5 3a e4 c9 ea bd 51 d7 81 3c
       0.024134224 0.0016304456 -0.11464289 0.015849741
000370 fa fc b8 3d 96 2c 2b bd 79 f4 e8 bd fe ab 08 be
       0.090326265 -0.041790567 -0.113747545 -0.1334686
000380 28 72 ad 3d 28 a8 78 bd 3e 6d 18 3d 59 2c 95 3c
       0.08469039 -0.06070724 0.037213556 0.018209623
000390 0e 85 c5 bb 8a 1e 25 3d d0 a1 8e 3d 30 07 d5 bd
       -0.0060278242 0.040312327 0.06964457 -0.104017615
0003a0 5d 1e 2a bc 63 88 40 bd 06 fe e7 bd eb 51 64 bd
       -0.010383216 -0.04700507 -0.11327748 -0.055742186
0003b0 b2 c3 e9 bd c8 6e 33 bd 4f 82 2c 3d 17 ac 88 3d
       -0.11414279 -0.04380682 0.04211646 0.066734485
0003c0 64 16 ad bd 86 4a ad bd a0 6b 1b 3d 86 ac 83 3d
       -0.08451536 -0.0846148 0.037944436 0.064293906
0003d0 4a fe 05 be c1 a7 b0 bd b7 c9 e2 bc 31 c3 92 bd
       -0.13085285 -0.086257465 -0.027684076 -0.07166136
0003e0 68 8d c6 bc e3 a7 3e 3d 04 fc e1 bc 62 a2 ee bb
       -0.02423735 0.046546828 -0.02758599 -0.007282541
0003f0 ab 0c d3 bc db 3d d9 bc 66 fe bc 3d 8c 57 12 3d
       -0.025762876 -0.026518753 0.0922821 0.035728022

layers.4.bias f4 [64]
000000 cc 62 2a bd c8 e8 6b be a1 d9 4e bc 8d cb bc 3d
       -0.041598126 -0.23038018 -0.012625129 0.09218512
000010 a6 58 8f 3d 6c aa 98 3d f1 d4 24 3c f7 86 59 bd
       0.0699933 0.074543804 0.010060535 -0.053107228
000020 2a 49 b4 bd 37 ed 13 bc 8d f2 91 3d 76 d7 20 3d
       -0.088030174 -0.009028724 0.07126341 0.03926798
000030 04 1c 81 bd b4 7b dd 3d 12 ff 84 bd 4e 76 ee bd
       -0.06304172 0.1081461 -0.06493963 -0.116436586
000040 ce 30 fa 3d ba 2d 1c 3e d9 9e 44 bd 70 67 6f bc
       0.1221634 0.15251818 -0.04800305 -0.014612064
000050 d8 32 38 be a8 12 03 3d c2 04 09 3e 51 75 0e 3e
       -0.17988145 0.032000214 0.13380721 0.1391194
000060 ac e1 80 bd 84 06 51 bd 97 6a 41 3d 00 a0 95 bd
       -0.062930435 -0.051031604 0.047220793 -0.07305908
000070 ff a2 07 be 74 cb e5 bd 8f 15 c4 bd db 3a 83 3d
       -0.13245772 -0.11220446 -0.095744245 0.0640771
000080 30 70 41 3c af d7 cd bc d3 c3 06 3e d4 62 cb 3d
       0.011806533 -0.02512726 0.13160639 0.09930959
000090 76 f0 28 bd 3b e1 c6 bd a3 80 c0 3b 73 0e 4f be
       -0.041244946 -0.09710928 0.0058747097 -0.20220356
0000a0 18 8e fa bd 03 33 23 3d d1 d3 7b 3d fa 96 a1 bd
       -0.122341335 0.03984357 0.0614813 -0.078901246
0000b0 e1 a9 ab 3c 09 8b 3e 3d bf 6d 71 3e 16 a0 10 bd
       0.020955028 0.046519313 0.23577021 -0.03530892
0000c0 70 af 9a bd d6 b5 72 bc ef f4 c9 3d f3 0b 38 bc
       -0.07552993 -0.014813861 0.098611705 -0.011233318
0000d0 cb 62 c1 bd 2e 19 b6 bd d6 58 1b 3d 2d a9 e0 3d
       -0.094426714 -0.088915214 0.037926517 0.10969768
0000e0 17 1f 04 3d da c2 19 3d dc c4 f9 3c be dd 0f 3d
       0.032256212 0.03753934 0.030489378 0.03512358
0000f0 c3 0b 12 3d ff 0d f3 3d af bf 7b be 37 1f 6f bd
       0.035655748 0.11867904 -0.2458484 -0.05837938

out.weight f4 [1, 64]
000000 7f ba 22 be 7b 9c 49 3f 88 ed d1 3d 4f a5 dd 3d
       -0.15891455 0.78754395 0.102503836 0.10822546
000010 3b 98 ce be 8e 2f 69 be d7 00 3e be 54 b2 83 bd
       -0.40350518 -0.22772047 -0.18555008 -0.06430498
000020 77 b1 ba be ba 5e 78 be c0 35 8e 3d 81 41 d1 3c
       -0.3646352 -0.24254885 0.06943846 0.02554393
000030 6e f9 20 40 db 4e 11 be b0 5b 25 40 66 82 c4 3e
       2.515224 -0.14190237 2.5837212 0.38380736
000040 32 01 29 be 52 94 4e be 28 8c ef 3a cc 28 ed 3d
       -0.16504362 -0.20173767 0.0018276023 0.11580047
000050 9b be e9 3f 29 f5 81 be 96 7c 31 be de 7f 52 be
       1.8261293 -0.25382355 -0.17332682 -0.2055659
000060 b8 69 1f 3d 09 d4 8a be 67 c4 c6 3d fb 80 f1 bc
       0.03891918 -0.27114895 0.097054295 -0.029480448
000070 28 cd 47 3f c4 73 e1 bd 81 09 1d 3f 99 cd 55 be
       0.7804742 -0.11008409 0.61342627 -0.2087921
000080 ec 88 86 bd 84 47 7d be 72 a0 4b be e9 76 44 be
       -0.065690845 -0.24734312 -0.19885424 -0.19185986
000090 a4 41 bc 3d 98 90 a1 bd 32 d7 5a 3d 89 17 43 3f
       0.091922075 -0.07888907 0.053427882 0.76207787
0000a0 2f dd 56 3d b2 7c ba 3c 9b 1a 20 be 29 26 a0 3d
       0.05245703 0.022764537 -0.15635149 0.078197785
0000b0 db 4a 38 3d 4e 11 6d be 6d 0d 67 be f7 8f 0e 3f
       0.044993263 -0.23151132 -0.22563715 0.5568842
0000c0 c0 52 1e 3c 91 65 1b bb e1 45 2c be 7b f8 66 be
       0.009663284 -0.0023711661 -0.16823532 -0.22555725
0000d0 db a8 3d bd 3f 4c a0 3b 4b ec 3a be e5 6d 5f be
       -0.04630361 0.0048919017 -0.18254201 -0.21819265
0000e0 ae 19 50 be cf 79 46 3d aa ba 47 be 69 19 64 3a
       -0.20322296 0.04845601 -0.195048 0.0008701296
0000f0 df 91 ae 3d a2 9f 66 be 0b 48 4d 3f 64 2b 72 be
       0.085239165 -0.22521833 0.80188054 -0.23649365
