models/model_1000000_train_19700_epoch_192_neurons_boxcox_scaler.pt (torch, 38057 bytes, 7 tensors)

layers.0.weight f4 [64, 5]
000000 ce bb 8b 3e cf 64 0a 3e c9 c2 f9 be dd bc 7b 3e
       0.2729172 0.13515018 -0.48781422 0.24583764
000010 b5 e1 87 3e 81 83 a9 bd de c2 35 3d 3c 10 d5 3d
       0.26539388 -0.082770355 0.044375293 0.10403487
000020 43 71 04 be b6 b8 e8 3e 40 89 da 3e f6 95 d4 3e
       -0.12933831 0.45453423 0.42682838 0.4152066
000030 44 6d 6a 3e ce 7d 81 3e 0f f1 9f 3e fb 9c af 3e
       0.22893244 0.25291294 0.312386 0.34299454
000040 31 ab c5 bd 90 d9 7b 3e e3 cb 3b be 7f 28 16 bf
       -0.09651793 0.24594712 -0.18339495 -0.5865554
000050 9e 62 62 3c fa 07 a7 be 3b 14 ee 3d 95 98 e7 3e
       0.0138174575 -0.32623273 0.116249524 0.45233598
000060 0f 2e 84 be a9 7d b0 3e ce 34 9d be 70 94 b3 be
       -0.2581639 0.3447087 -0.3070435 -0.35074186
000070 a1 d6 0f be df 1f 2d be 31 d3 8d 3e 30 0a a0 be
       -0.14046718 -0.16906689 0.2770019 -0.31257772
000080 aa bf a1 3b 09 95 8f be 84 7a 27 be fd 4b 62 bf
       0.004936178 -0.28043392 -0.1635533 -0.883972
000090 dd 65 83 3e a4 0a 63 bf fb 14 71 3d 87 f0 f8 3c
       0.25663653 -0.8868811 0.0588579 0.03038813
0000a0 78 b2 54 3b 99 e4 53 bc 73 82 8f c0 c9 ad ec bb
       0.0032455008 -0.01293292 -4.484674 -0.0072228652
0000b0 ae 40 9e bb 8e 5d bb 3e 44 aa 5a be f4 11 c7 be
       -0.0048294878 0.36594814 -0.21354014 -0.38880885
0000c0 ed f7 74 3e 85 4a af be 79 9d 0b 3e 45 8b 1b be
       0.23922701 -0.3423654 0.1363429 -0.15189846
0000d0 38 4f 43 3e 0f 03 6f 3e 50 75 10 bf ec be 01 bf
       0.19073188 0.2334101 -0.56429005 -0.5068195
0000e0 51 9f 9f bd f5 b8 d3 3e 2f cf 89 bd 17 1c 8e be
       -0.07794059 0.4135205 -0.0672897 -0.27755806
0000f0 4e 39 44 3e 35 12 bc 3e b0 68 b9 3e a6 a9 85 be
       0.19162485 0.3673264 0.36212683 -0.26105994
000100 35 45 f1 3e 8f 40 e8 3e c4 58 d9 be 61 17 42 3e
       0.47123113 0.45361754 -0.42450535 0.18954231
000110 3a 31 0d bd 04 e7 72 bc 9a ab 63 3e 86 be f5 be
       -0.034470774 -0.014825586 0.2223343 -0.4799692
000120 95 64 bb 3e 98 38 c3 bd 18 8e b0 3e 8f a8 0b be
       0.36600175 -0.09532279 0.3448341 -0.13638519
000130 73 5a 01 be ac 97 b1 3e d8 d0 d8 3e 7b 58 c4 3e
       -0.1263216 0.3468603 0.42346835 0.38348755
000140 a2 0d c9 be 7a 25 8e 3e c6 8b 06 bf d4 db 3e be
       -0.39268214 0.27762967 -0.5255703 -0.18638545
000150 68 09 b7 bd 47 57 73 be 26 3b 01 3e c2 54 5c 3e
       -0.08937341 -0.23763762 0.1262022 0.21516708
000160 b1 6f a6 3b 31 5b bc be f8 3e 26 3e 28 c1 5b 3c
       0.0050792326 -0.36788324 0.16234958 0.013412751
000170 d3 0e c7 3e 83 46 a5 3c e7 22 35 bf 50 0f a7 3e
       0.38878497 0.020175224 -0.7075638 0.3262887
000180 09 3b e5 bd 6a 47 dd 3e 94 3f 1a be af 12 eb 3e
       -0.11192901 0.43218547 -0.15063316 0.45912692
000190 3a ba eb 3d c5 c4 3d 3e b8 39 d5 be 31 f4 c0 39
       0.11510129 0.18532093 -0.41645598 0.0003680303
0001a0 2b 35 04 be 53 2e 4d be 95 aa 53 bd 45 e7 6c 3e
       -0.12910907 -0.20037203 -0.05167635 0.23135097
0001b0 dd de e6 3e 38 13 ae be 02 0e aa 3d 01 e5 97 bd
       0.45091906 -0.33999038 0.08303453 -0.07416726
0001c0 d3 5f 85 3e 86 e7 f2 3e 1e 72 28 3f 64 a8 10 3e
       0.2604967 0.47442263 0.6579913 0.14126736
0001d0 4c 02 82 3c 43 27 b7 3e 96 9d 9e 3c a0 40 b8 be
       0.015870236 0.35772142 0.019362252 -0.35986805
0001e0 16 18 2f be bc d3 87 3e 77 e0 62 bf b2 09 f8 bb
       -0.17099032 0.26528728 -0.88623756 -0.007569515
0001f0 04 c5 0a 3f fc f4 a4 3e 73 53 f8 3e 50 7f b6 be
       0.5420687 0.32218158 0.48501167 -0.35644007
000200 2a 74 77 3b f4 58 45 be 42 12 4f be 14 04 44 be
       0.0037758448 -0.19272214 -0.20221809 -0.1914218
000210 87 a6 05 bf 3a bf a0 3e 3b 81 a4 bc e8 93 d8 bc
       -0.52207226 0.31395894 -0.020081153 -0.026437715
000220 71 a6 cd 3e 3f 02 e7 3e 98 bf a9 3c aa fc e9 3e
       0.40166047 0.451189 0.020721242 0.4570058
000230 c7 86 34 bd 79 8f 01 3d b3 35 1b c0 81 66 f8 ba
       -0.044073846 0.031630967 -2.4251525 -0.0018951447
000240 0a 19 ed 3e ab 56 dd 3d 1a ef 99 3e e1 32 b8 3e
       0.46308166 0.10807546 0.30065233 0.35976318
000250 f2 fd 98 3e f2 95 ed 3e ab 21 2a be 88 3f d5 3e
       0.29881245 0.46403462 -0.16614406 0.41650033
000260 f1 9c cd bd 74 f7 d4 3e 8e fb 95 3e 45 e1 e9 3e
       -0.100397 0.41595042 0.29293483 0.4567968
000270 c3 a5 17 bf cc 50 25 3e cf 57 24 3e f8 78 a5 bd
       -0.5923731 0.16144103 0.16049121 -0.080797136
000280 59 76 e1 3d df 38 d0 3e 85 de 22 3e 92 03 c8 ba
       0.11008901 0.4066839 0.15905197 -0.0015259853
000290 35 3a 3c 3e 08 58 f0 3d 01 be 78 3d 3c 9d 39 3e
       0.18381579 0.11735541 0.060728077 0.18126386
0002a0 78 92 08 3e c1 1c 8a 3d eb 1a 98 bc 8e dc 51 3e
       0.13337123 0.067437656 -0.018567523 0.20494291
0002b0 70 5c 47 3e da 92 95 bb 46 3f df be ca e7 09 be
       0.19468856 -0.004564625 -0.4360296 -0.13467327
0002c0 f3 78 d2 3e c7 8c 77 3e 0e 2a f1 3d 11 59 a9 bd
       0.41107902 0.24174796 0.117755994 -0.08268941
0002d0 4c d5 52 bd 4a dc e6 be 25 8f 88 3d 69 4c 8d 3b
       -0.051472947 -0.45089942 0.06667928 0.0043120873
0002e0 28 d2 56 3e 62 2b 49 be 2d 46 a0 be 15 6d c2 bd
       0.20978606 -0.19645455 -0.3130354 -0.09493462
0002f0 c8 2d d5 be 29 ab ee 3d 5c 1e 44 3d fa d0 2f 3d
       -0.4163649 0.1165374 0.047880515 0.042923905
000300 38 36 c4 bf 74 03 23 3d 1d 5e c4 bc 80 51 0a 3e
       -1.5329046 0.039798215 -0.023970658 0.13507652
000310 31 26 62 be 06 7c 97 3e be bd f0 3d e1 46 87 3d
       -0.22084881 0.2958681 0.117549405 0.06605316
000320 b6 2c 8e bd 53 2c bb 3c 27 dd 15 3f 8a 01 bc 3c
       -0.06942122 0.022848284 0.58540577 0.022949953
000330 2b 36 1b bf 23 4f 53 be 00 a4 90 3e ad e7 83 3e
       -0.6062953 -0.20635657 0.28250122 0.25762692
000340 92 41 41 3c 2e 21 19 be ac 26 22 bf a1 71 80 3e
       0.011795418 -0.14954063 -0.6334026 0.25086692
000350 99 35 33 bd fd b2 bf bb ba 8e 6f bd ac 5b 44 3e
       -0.043752287 -0.0058501945 -0.058485724 0.19175595
000360 e8 56 5f be b9 7d 1c bf 50 4c 9b bd 0b 74 c1 3c
       -0.21810496 -0.6112934 -0.07582915 0.023614904
000370 c6 e0 22 3e 59 ae bc 3e 50 c1 f3 3d f4 73 d8 3c
       0.15906057 0.36851767 0.11902106 0.026422478
000380 b8 d7 a2 be bc 2d ac bc a9 b5 d2 3c 7c ec 0c c0
       -0.31805205 -0.021017902 0.025721388 -2.2019339
000390 40 ff c5 3a 25 06 4f 3e 2f 55 0b bf 9c e3 2a 3e
       0.0015105978 0.20217188 -0.54426855 0.16688389
0003a0 41 91 d1 bb cc c7 e4 39 62 fa 25 bd 80 d5 39 bf
       -0.0063954894 0.0004363641 -0.040521987 -0.725914
0003b0 86 7e ad 3e 6a d9 55 be 76 5c 92 b9 fd 37 3e be
       0.33885592 -0.20883718 -0.0002791618 -0.18576045
0003c0 2e 36 b0 3e db 9e ba be 30 c0 03 bf f1 56 db bd
       0.34416336 -0.36449322 -0.5146513 -0.10709942
0003d0 2d f3 44 3e 82 ed 3e bf b9 56 99 3e 4d 12 a4 bd
       0.19233389 -0.7458116 0.29948977 -0.08011303
0003e0 99 b6 97 bc d6 1b 3d be a1 0f 82 3e aa 11 cc 3e
       -0.018519687 -0.1846765 0.2540255 0.39857227
0003f0 80 48 ad be a4 90 18 3c 32 bf e7 be db ad c7 3e
       -0.33844376 0.009311829 -0.45263058 0.3899983

layers.0.bias f4 [64]
000000 40 d0 40 be ad d2 03 3f 59 49 5d be a9 7d af 3d
       -0.18829441 0.5149334 -0.21610011 0.0856889
000010 31 1a f4 3e 99 e8 df 3e 5d 4d ee 3e 7c a9 7a 3e
       0.47676232 0.43732145 0.46543398 0.24478716
000020 c2 dc 70 bb 41 f8 a4 3e 7c 05 15 3d 44 74 1a bc
       -0.0036752676 0.32220653 0.036382183 -0.009427134
000030 f7 72 c4 3e e0 89 53 bd 2b a2 b9 3e e3 cd 2d 3e
       0.3836896 -0.05164516 0.36256537 0.16973071
000040 43 1f c4 3e 9f d5 ef 3e 0a 1c 00 be fa 78 8b 3c
       0.383051 0.46842667 -0.12510696 0.01702546
000050 2d 45 a4 be 7a f1 02 3f 9d de 2a bd 29 33 ac bd
       -0.32084027 0.51149714 -0.041716207 -0.084081955
000060 fd 25 77 be be 7a 7f be 6e e5 c7 3e be 06 03 3e
       -0.24135585 -0.24949166 0.39042228 0.1279554
000070 ae b1 79 3c b3 31 5d be a4 2a ea 3e e7 25 49 be
       0.015240116 -0.2160099 0.45735657 -0.19643365
000080 f5 91 e7 3c 92 39 0b 3e 6e 9f d4 3e b7 ee d6 3e
       0.02826784 0.1359618 0.41527885 0.41979
000090 89 55 81 3b d7 35 14 be 44 39 c3 3c 72 57 65 bd
       0.003946964 -0.14473663 0.023831017 -0.055991597
0000a0 df 70 fb bb f1 7f 55 3e 15 cc a4 3e 98 0b 43 3e
       -0.0076733674 0.20849587 0.32186952 0.19047391
0000b0 a1 51 83 be 3b d2 62 bc 69 37 d4 3e ae 87 60 3e
       -0.25648215 -0.013844068 0.41448525 0.21926758
0000c0 59 d4 87 3e c7 62 ab 3e 14 f5 b8 3e d5 ac 14 3e
       0.26529196 0.334738 0.3612448 0.14519055
0000d0 0f ba 97 be f1 00 2f 3e c4 80 a7 3e ae 89 34 be
       -0.2963414 0.17090203 0.32715428 -0.17630646
0000e0 b9 a2 8c 3c b6 7e d7 3e de 37 91 3e 5e 02 45 3d
       0.017167436 0.4208886 0.28362936 0.04809796
0000f0 62 7d dc be cb ec 87 3e 41 cc 46 3e 32 a9 89 3e
       -0.4306441 0.26547846 0.19413854 0.26886898

layers.2.weight f4 [64, 64]
000000 a9 12 82 3d 50 c3 0c be a5 4f 78 bd 70 67 a4 bc
       0.063512154 -0.13746381 -0.06062283 -0.020068854
000010 59 7d 00 3e b7 b0 c8 3d ac fc a7 3d af c7 4c be
       0.12547816 0.09799331 0.0820249 -0.19998048
000020 c0 1f 13 3f 32 2a 95 3d ab 28 bf 3c 63 30 9c bc
       0.5747032 0.07283439 0.023334822 -0.019066041
000030 ec a8 b5 bc 6b c1 d5 bc a7 14 95 3d cf fe d6 3c
       -0.022175275 -0.026093205 0.0727933 0.02624455
000040 44 01 3b bd 99 54 a4 bd af 85 2d bc f0 a1 04 be
       -0.045655504 -0.08023948 -0.010590955 -0.12952399
000050 20 c8 ee 3d 7a 5f fa 3a 4f 55 12 be 38 a5 21 3e
       0.116592646 0.001910194 -0.14290355 0.15785682
000060 d1 72 9b bb ca 3c ca 3d 70 54 0e 3c 7a 43 ce bd
       -0.004743912 0.09874876 0.008687124 -0.10071464
000070 81 cd 85 3e 1e 62 18 be d7 d2 0d 3b 10 3f e6 3c
       0.2613335 -0.14881179 0.0021640563 0.028106242
000080 cb 4d c1 bb 75 96 c4 3d 5d 77 d8 3d 3c 46 18 3d
       -0.005899166 0.0959901 0.10569642 0.037176356
000090 ad a9 06 3d dc 41 e3 3d e4 e2 b7 bd ce 69 18 3d
       0.03287666 0.11096546 -0.08978823 0.03721028
0000a0 ed a7 5a 3e ec cc 13 be 66 df 9d be df 45 cf 3d
       0.21353121 -0.1443364 -0.30834502 0.10120749
0000b0 49 05 14 3d eb eb 7d bd c3 e9 7e be 29 02 7d bf
       0.036137853 -0.061992567 -0.2489386 -0.9883142
0000c0 24 58 6b 3d 8b 40 18 be 22 bc 6b 3e 7e d0 2c 3b
       0.057457104 -0.14868371 0.23020986 0.0026369388
0000d0 55 4d be bd 90 21 9d 3d f9 f5 30 bd 80 b8 a8 ba
       -0.09292094 0.07672417 -0.043203328 -0.0012872368
0000e0 f9 32 91 3e 96 bb c2 3d b3 d8 c5 be 67 17 59 bd
       0.28359202 0.095084354 -0.3864189 -0.053000834
0000f0 10 95 a8 bc 09 9b a0 bd 43 3f 2d bc 8c 0b 85 be
       -0.020578891 -0.078420706 -0.010574165 -0.25985372
000100 72 94 84 bc df 5a 92 3d da 83 0f be 10 6d 9e 3d
       -0.016184065 0.071462385 -0.14015141 0.07735646
000110 3f 45 1b 3d 4c 50 50 3e 70 e4 68 bc ad 64 44 be
       0.037907835 0.20343131 -0.01421462 -0.1917903
000120 64 f0 d2 be 96 ac 1e 3e 4c f6 a8 3d f8 26 90 bd
       -0.41199028 0.15495524 0.082501024 -0.07038683
000130 24 44 c7 3c 97 8e 56 bc 50 86 29 3d ce f0 22 3d
       0.024324484 -0.0130955195 0.041387856 0.03978043
000140 61 03 c0 bc 31 8b 88 bd 3a 4d 7a 3d db 45 0d be
       -0.023439111 -0.06667174 0.061108805 -0.13796179
000150 50 86 df 3c 04 dd f1 3c c8 c7 85 bd 2c 1e ee 3c
       0.027285725 0.029524334 -0.06532246 0.029067121
000160 a5 1c 5c 3e 93 a2 85 3d eb e3 7d bc c7 24 04 bd
       0.21495302 0.06525149 -0.015496234 -0.032261636
000170 bc 05 82 3c 03 be 9a bd 10 42 0e bd 2c 48 50 3d
       0.015871875 -0.07555773 -0.03473097 0.05085008
000180 26 ed 9a bd 14 f1 ae bd 01 1c 47 bd 91 c3 57 bd
       -0.07564764 -0.08542076 -0.04861069 -0.05267674
000190 e8 f0 fd 3d 82 d6 a0 bd 9c 87 1d be 4b 1f b8 3d
       0.12399465 -0.07853414 -0.15383762 0.08990344
0001a0 8b 13 4f 3e 8a 1e bb bc 5f ba a8 be 2f a2 62 3e
       0.20222299 -0.02284171 -0.3295469 0.2213218
0001b0 ee 77 ab 3d d2 9d b2 3e 66 ab a0 bd 45 18 6a bf
       0.08372484 0.34886032 -0.07845192 -0.9144328
0001c0 44 72 b5 3d 08 93 78 be aa db 2f 3e 08 e9 b9 3d
       0.08859685 -0.24274838 0.17173639 0.0907765
0001d0 95 59 6d be 2b c1 19 3e 5f 94 5f 3e 94 a3 09 3d
       -0.23178704 0.15015094 0.21833943 0.033603266
0001e0 df d3 ec 3d c2 07 50 3e bf 58 eb be 1b b8 b7 3e
       0.11563849 0.2031546 -0.45966145 0.3588265
0001f0 e6 23 ef 3d d5 bf 17 3e 99 9a 93 bd ba 2c 46 bf
       0.11676769 0.14819272 -0.072072215 -0.77412
000200 c5 95 c5 bd 4f c1 b1 3e 46 e2 1d be 63 17 23 3e
       -0.09647707 0.34717795 -0.15418348 0.1592689
000210 65 6b 38 3d ef a5 c7 3c 95 19 fe 3d 4b a6 91 be
       0.045024294 0.024371115 0.12407223 -0.28447184
000220 85 4c f4 bf f7 0f 2f 3e 53 03 ed 3d 79 fd 7d be
       -1.9085852 0.17095934 0.115729 -0.24803723
000230 c5 70 c0 3c 72 99 cc 3d c0 b5 ae 3c 2d 0e 10 be
       0.023491273 0.09990205 0.0213269 -0.14067908
000240 42 df 7d bd 83 40 e0 3d 02 a2 dc bd e2 38 19 be
       -0.061980493 0.10949805 -0.10773088 -0.14963105
000250 96 e5 81 bd 9a 96 5d bd 71 a3 3d 3d 48 1f 46 3e
       -0.06342618 -0.054098703 0.046298448 0.1934787
000260 0e b8 8c 3e 92 13 e5 bd 0f 2c 41 3e 92 b8 c2 3d
       0.27484173 -0.11185373 0.18864463 0.0950786
000270 5a 3c 97 3d 49 45 a7 bd f2 5d da 3d c8 78 9a 3d
       0.07384558 -0.08167512 0.1066245 0.075425684
000280 24 77 44 3d 12 eb b2 bd fc 49 97 3d 8f 8b 0b 3d
       0.047965184 -0.08736242 0.07387158 0.03406864
000290 41 99 02 3e 94 cb 74 3d ab 6a 15 bf e1 c7 ef bc
       0.12753774 0.05976446 -0.5836589 -0.029270114
0002a0 77 40 25 3d 46 85 a3 bd 02 31 90 bd d1 89 27 3e
       0.04034468 -0.07984404 -0.070405975 0.16361167
0002b0 a6 8e 26 bc a6 9b 1a bf a8 6c 21 3d 08 90 35 bf
       -0.010165846 -0.6039375 0.039410263 -0.709229
0002c0 14 e1 e6 3d fe 5b 11 be 98 f7 93 3e 94 4c 80 3d
       0.11273399 -0.14195248 0.28899837 0.06264606
0002d0 d3 62 7f be cd a9 58 3e 6b ab 0c 3d 38 30 a1 bd
       -0.24940042 0.21158524 0.034343164 -0.07870525
0002e0 3f 9a b2 3d f0 7b 0b 3e 16 89 b2 be 64 a3 2f bd
       0.08720826 0.13621497 -0.34870213 -0.04288043
0002f0 68 57 8f bc 77 08 eb 3d c6 a0 6e bc b9 3e 1c bf
       -0.017497733 0.11476224 -0.014564699 -0.6103321
000300 36 a5 ba bd a6 0b 01 bf 2c d3 12 be b0 9d 7e 3e
       -0.09113543 -0.504084 -0.14338368 0.2486484
000310 52 57 dd 3d 1b a5 6d 3e 90 cf 0f 3e 5a dc 75 bb
       0.10807671 0.23207514 0.14044023 -0.0037515373
000320 61 d7 9c bf 39 22 69 3e 3e bd 87 3e ad a1 5d be
       -1.2253228 0.22766961 0.26511568 -0.21643706
000330 6f a9 4a be 8f bc b7 3c ca 19 cc bd aa cc 56 be
       -0.19791196 0.022428779 -0.099658564 -0.2097651
000340 6d 19 ae be 2c 5b 37 3e 62 19 2d 3e be b9 b9 be
       -0.34003773 0.17905873 0.16904214 -0.36274523
000350 e7 bc 22 bd 84 f8 88 3e d3 7b 9e be 1a cc 1d 3e
       -0.039730933 0.26752102 -0.30953845 0.1540989
000360 17 57 19 be eb 23 50 3d 1f a6 d1 bd 76 21 01 be
       -0.14974628 0.050815504 -0.10236763 -0.1261042
000370 96 1c 5c 3f 37 1e 12 be 84 79 38 be f9 dd 5f 3d
       0.8598112 -0.14269339 -0.18015105 0.05465505
000380 e0 65 44 be 9c ef ec bd 04 e5 e4 3d 77 8e 54 3c
       -0.19179487 -0.11569139 0.11176494 0.012973419
000390 5c 51 ec 3e 70 de 8d bd 40 4a d3 bf db ab 48 bd
       0.46155822 -0.06927192 -1.6507034 -0.04899202
0003a0 c0 15 8c 3e 94 94 1b 3e 9f a6 a1 bc 82 9e c7 be
       0.27360344 0.15193397 -0.019732771 -0.3898812
0003b0 c5 94 3b 3e c2 1f ba 3e 5a ac 7c be 1c 44 f3 bf
       0.1831847 0.36352354 -0.24675122 -1.900516
0003c0 19 64 b7 be f3 44 0a bf 12 9f 8f 3e e9 39 2e 3e
       -0.35818556 -0.5401146 0.2805105 0.17014278
0003d0 2f d4 bc bd 31 16 d1 3e 34 fc b1 3e 88 56 9b bc
       -0.09220158 0.40837243 0.34762728 -0.01896216
0003e0 9a 33 2d 40 a1 d2 03 3e 21 94 b2 be 39 08 21 3f
       2.7062745 0.12873317 -0.34878638 0.6290317
0003f0 c8 d6 7e bd 4a a1 1c 3e db 70 28 be b7 54 27 bf
       -0.06221655 0.15295902 -0.16449301 -0.6536364

layers.2.bias f4 [64]
000000 8f 08 4f 3d 27 db 7f 3d 21 89 fa 3d 01 e1 d6 bd
       0.05054527 0.06246486 0.122331865 -0.10492135
000010 ab 56 e7 3c 6f b0 0b be ea a5 79 bd 39 0d 0a bc
       0.028239569 -0.13641523 -0.060949244 -0.008426004
000020 cc ff 04 bd 91 5d bf 3c ec 73 ab bd 13 e0 8d 3d
       -0.03247051 0.023360046 -0.0837172 0.069275044
000030 7f 5e 5f 3c 89 ba ad 3d 46 30 a1 bd cf 87 73 bd
       0.0136333695 0.084828444 -0.078705356 -0.05945569
000040 28 48 98 bc 36 cc 9c bc 0d 07 c0 3d 62 aa 23 3e
       -0.018589094 -0.019140344 0.09376345 0.15982965
000050 31 26 0a be 80 3e b7 bd 18 6a 36 bd 8a 6c 50 bd
       -0.13491131 -0.08947468 -0.044534773 -0.05088476
000060 61 84 36 bc 1c 16 a0 bc 07 fc 3b bd 43 9d 70 bd
       -0.01113996 -0.019541793 -0.04589465 -0.058743726
000070 34 10 49 bd d2 98 f7 bd e6 d3 b2 3d 83 c8 df bc
       -0.049087718 -0.12089695 0.08731823 -0.027317291
000080 ed 7f 66 3d 0a 65 76 3d c4 e5 2d 3e 13 08 56 3e
       0.056274343 0.060154952 0.1698218 0.20901518
000090 68 55 f1 bc 13 ee 56 bd 27 07 4f bd f5 0a d0 3d
       -0.02945967 -0.05247314 -0.05054393 0.1015834
0000a0 af ee 84 3d 81 dc 73 bd 59 49 94 3b 52 0f c6 3d
       0.06490838 -0.05953646 0.0045253453 0.09670891
0000b0 bf 53 03 be 7a 34 da bd 66 e0 04 bd a2 24 ae 3d
       -0.12824915 -0.1065454 -0.032440566 0.08503081
0000c0 a7 8c 81 3d 80 1a 50 bd bf e3 3d bd c7 93 db bc
       0.063256554 -0.050806522 -0.046359774 -0.026803864
0000d0 89 ce e4 3d af 4a 8f bd 64 27 4e 3e 7a e6 c8 bb
       0.11172206 -0.06996667 0.20132214 -0.0061309906
0000e0 30 79 f0 bd b7 84 ad bd e9 bc fd 3d b0 8d 13 3c
       -0.11741865 -0.08472579 0.123895474 0.009005949
0000f0 bb b4 04 3d 3c 10 85 bd 9c 3d 7c bd e9 23 82 bc
       0.03239892 -0.06497237 -0.061582193 -0.015886264

layers.4.weight f4 [64, 64]
000000 1a a2 6b 3e f2 47 8c 3d 38 e4 c4 3c 51 ac c0 3e
       0.23011056 0.0684966 0.024034604 0.37631467
000010 6d cf 16 3e 63 5f 47 3f 63 5e fe bc 31 68 d4 3d
       0.14727564 0.77879924 -0.031050866 0.103714354
000020 30 2b f2 3c 23 6d 49 3f f8 13 0f 3e 7c c8 d0 3d
       0.029561609 0.78682154 0.13972461 0.10194489
000030 56 ec 07 3e 22 28 84 bd db d8 e7 3d 7f 62 cb 3d
       0.13273749 -0.06452967 0.11320659 0.09930896
000040 b0 8c 61 be e7 93 be 3e 18 4f 22 3d 0f 6b a5 3b
       -0.22026324 0.37222216 0.03962621 0.005048163
000050 e1 d9 98 3e 91 5d bf 3e 76 16 5d 3c ed 61 d4 3d
       0.29853728 0.37376073 0.013494125 0.1037024
000060 f0 d3 31 3e 30 af f7 3d bf dd 5a 3e 4e 19 16 3e
       0.17366004 0.12093961 0.21373652 0.1465809
000070 c4 49 0c 3e 54 95 26 3f 3f c3 29 bd eb ea 60 3e
       0.13700014 0.65071607 -0.041445967 0.21964614
000080 48 24 d4 3c ff 86 40 3e 00 14 13 3e c8 7c c8 3d
       0.025896206 0.18801497 0.14363098 0.09789425
000090 6c da 21 3d 45 3c b1 3d 30 f7 8d 3d 46 b6 e7 3d
       0.039514944 0.086540736 0.06931913 0.11314063
0000a0 3b c8 71 3f a9 b1 60 3e 54 23 b4 3d be 32 c6 3d
       0.9444615 0.21942772 0.08795801 0.09677647
0000b0 4a a0 ae 3c 10 07 45 bc 60 86 52 3e f6 a6 ae 3d
       0.021316666 -0.01202561 0.20559072 0.08527939
0000c0 7b 82 1d bd ee 3d a3 bd f4 15 cd 3e 86 bb 3c 3e
       -0.038454514 -0.079707965 0.4005581 0.1843091
0000d0 4b 8e 16 3d 63 65 2d 3e f3 cf 07 3d eb 29 07 3f
       0.036756795 0.16933207 0.0331573 0.52798337
0000e0 28 84 56 bd 38 f0 a7 3f e3 ee cd 3d 9b b1 96 bc
       -0.052372128 1.3120184 0.1005533 -0.018395236
0000f0 ee 2c 36 3e ff ef f7 3e 40 df 33 bc d3 9b ec 3d
       0.17790577 0.4842529 -0.01097852 0.115531586
000100 12 74 d8 be 3f c8 00 be 9e 8e 74 3e 8e aa d0 be
       -0.42276055 -0.12576388 0.23882529 -0.40755123
000110 2d 2d a1 bf 8e eb 52 c0 d3 02 32 bd a3 22 af bd
       -1.2591912 -3.295627 -0.043459725 -0.08551528
000120 78 8a a0 bc 19 b3 ad bf 96 e8 2b 3c 40 18 dc 3c
       -0.019597277 -1.3570281 0.0104924645 0.026867032
000130 ec 12 47 bd 4e b0 22 3e 73 a7 43 bf 6a d4 4f bf
       -0.04860203 0.15887567 -0.7642738 -0.81183493
000140 67 7a 6a 3c 66 eb 1d c0 b3 c2 c5 3d 48 4f 5b 3d
       0.01431141 -2.4674926 0.096562766 0.053542405
000150 a8 e8 a0 bf d6 32 27 be 81 03 b0 3c 28 3d 79 bf
       -1.2571001 -0.16327986 0.021486046 -0.9735894
000160 ce 0c 71 3e 79 02 ce 3d 1a 5c b6 be d9 90 b4 be
       0.23540041 0.10059065 -0.35617143 -0.3526676
000170 cd 46 32 3e 16 e0 70 c0 84 ea aa bd e3 3e a0 bf
       0.17409821 -3.7636771 -0.083455116 -1.2519192
000180 4b ff 04 be 27 ae f5 3c ed 53 5c bc 44 80 82 3e
       -0.12988012 0.029990269 -0.013447744 0.25488484
000190 52 83 9a bd cd 13 b8 bc ab 01 8b bb 4a 23 3f 3e
       -0.075445786 -0.02247038 -0.004242142 0.18665805
0001a0 a1 73 d4 bf 89 87 4b bf dc 1f 9f bf 0f 24 2c bf
       -1.6597787 -0.79503685 -1.2431598 -0.6724252
0001b0 87 c1 bc 3b 92 cb fc bd b4 8c 4d 3d c8 35 43 3c
       0.005760375 -0.123435155 0.050183013 0.011914678
0001c0 ae 22 ed bc 28 80 a6 3c 89 66 d6 bf 65 81 4c 3e
       -0.0289472 0.020324782 -1.6750041 0.19971235
0001d0 b3 8e e3 3d 34 05 ab bd 79 1a d9 3d 9f bb 4e c0
       0.11111202 -0.08350602 0.106007524 -3.2302015
0001e0 74 79 b9 bd 3c 76 d6 c0 9c c8 58 bd 1e 19 84 3c
       -0.090563685 -6.701933 -0.05292569 0.016125258
0001f0 da 66 4c 3e 77 0b 13 c0 92 ff c5 3d 9f 4c 18 bf
       0.1996111 -2.2975748 0.09667887 -0.59491915
000200 21 fa 89 ba b9 70 24 bd 28 fe b1 3a 8c c1 2c bd
       -0.0010526815 -0.040146563 0.0013579773 -0.04217677
000210 fb cf c7 bd 9a 31 a7 3c 08 b6 ce 3c 80 42 67 3d
       -0.09756466 0.020409394 0.025233284 0.056459904
000220 30 1e af 3c 50 82 41 bd 75 af 8e 3d 3b 03 46 bd
       0.0213767 -0.047243416 0.069670595 -0.048342925
000230 97 73 07 be 30 59 ce 3c b7 89 ae 3d 5e 7d 00 be
       -0.13227688 0.025189012 0.08522361 -0.12547824
000240 da 6e ba bd e0 00 6c 3c 87 d7 93 bc 09 8e 03 be
       -0.091031745 0.0144045055 -0.018047107 -0.12847151
000250 36 80 db bd f6 7e f7 bd 4e 93 99 bd a9 23 90 3c
       -0.10717814 -0.12084763 -0.07498799 0.01759513
000260 3d 69 3f 3c 3f 42 80 bd 4e 3d 9e 3d ae 1e d0 bc
       0.011682806 -0.062626354 0.07726537 -0.025405254
000270 c5 d0 f8 3b 3c 8d 3c 3d d4 04 47 bd 08 77 08 bd
       0.0075932466 0.04603313 -0.04858859 -0.033316642
000280 ac 10 84 3d 11 d8 73 bd 4b b7 2a 3d 02 14 85 bd
       0.064484924 -0.05953223 0.041678708 -0.06497957
000290 9e fd a4 bd 81 20 4f 3d 24 e6 81 3d 18 d7 55 bc
       -0.08056186 0.050568108 0.06342724 -0.013051771
0002a0 0e 9d ce 3d 9f 4e b3 bd 16 c0 03 3d f3 2b 9e bb
       0.100885496 -0.0875523 0.03216561 -0.0048270165
0002b0 e2 22 98 3d 3c c1 1a 3d d3 96 0d 3d 68 25 2f 3d
       0.07428528 0.03778194 0.034567665 0.042760283
0002c0 06 17 8a 3d c4 ff 3e 3d d7 51 5f 3d 45 67 a9 bd
       0.067426726 0.046630636 0.054521408 -0.0827165
0002d0 8a d0 b2 bd 94 3c ad 3d fc 3c bd bd 2e 74 a8 3c
       -0.08731182 0.0845882 -0.092401475 0.020563211
0002e0 ee ed c0 bd bc 0f bd bd c7 68 bb 3d 10 77 36 bd
       -0.094203815 -0.09231517 0.09150844 -0.04454714
0002f0 5b 96 3e bc 7d 3f 89 bd 00 95 c1 bb a0 78 36 3d
       -0.011632527 -0.067015626 -0.0059076548 0.04454863
000300 ee a9 b5 3d 07 08 0e be a4 b6 76 bc 94 fb 08 be
       0.08870302 -0.1387025 -0.015058193 -0.1337722
000310 a1 3d 0f 3d 16 2d 36 bb e1 0a 9b bd 20 cd fb bb
       0.034970883 -0.002779787 -0.07570434 -0.007684365
000320 66 c9 cf bd b2 21 98 bd bd ce 1a bd b9 65 8b bd
       -0.101458356 -0.07428302 -0.037794817 -0.068065114
000330 13 7b ac bd 3d fe dc 3c df d1 8d 3c 08 76 20 3d
       -0.08421912 0.026976699 0.017311988 0.039175063
000340 ba ea 33 bd 45 45 76 3d 65 a9 e3 bc f6 d6 6a 3d
       -0.043925025 0.060124654 -0.027790735 0.05733391
000350 18 2d ab bd 4d 71 ce 3d fc 86 49 3d 26 bf 96 bd
       -0.0835821 0.10080204 0.049200997 -0.073606774
000360 bc 32 d0 3c ad b4 d5 3a e4 c9 ea bd 51 d7 81 3c
       0.025414817 0.0016304456 -0.11464289 0.015849741
000370 23 66 bc 3d 96 2c 2b bd 79 f4 e8 bd fe ab 08 be
       0.091991685 -0.041790567 -0.113747545 -0.1334686
000380 28 72 ad 3d 77 75 78 bd b5 a6 1c 3d 08 79 a8 3c
       0.08469039 -0.0606589 0.03824492 0.020565525
000390 0e 85 c5 bb 8a 1e 25 3d d0 a1 8e 3d 69 34 cf bd
       -0.0060278242 0.040312327 0.06964457 -0.10117418
0003a0 5d 1e 2a bc 63 88 40 bd 06 fe e7 bd eb 51 64 bd
       -0.010383216 -0.04700507 -0.11327748 -0.055742186
0003b0 b2 c3 e9 bd c8 6e 33 bd 49 ec 32 3d 17 ac 88 3d
       -0.11414279 -0.04380682 0.04368237 0.066734485
0003c0 ff d9 a7 bd 86 4a ad bd a0 6b 1b 3d 86 ac 83 3d
       -0.08195876 -0.0846148 0.037944436 0.064293906
0003d0 0a fb 05 be c1 a7 b0 bd 5f 01 c8 bc 31 c3 92 bd
       -0.13084045 -0.086257465 -0.024414716 -0.07166136
0003e0 68 8d c6 bc e3 a7 3e 3d a0 33 dc bc 13 69 dd bb
       -0.02423735 0.046546828 -0.026880085 -0.0067569106
0003f0 ab 0c d3 bc db 3d d9 bc 66 fe bc 3d 8c 57 12 3d
       -0.025762876 -0.026518753 0.0922821 0.035728022

layers.4.bias f4 [64]
000000 56 1a 82 bd d9 d7 68 be 66 db c1 3b 25 63 c8 3d
       -0.063526794 -0.2273859 0.005916047 0.09784535
000010 aa 5f 85 3d 5c 53 80 3d f9 fe 96 ba f7 86 59 bd
       0.06512387 0.062658995 -0.001152008 -0.053107228
000020 1c dd a1 bd 4a f4 11 bd 8d f2 91 3d 76 d7 20 3d
       -0.079035014 -0.035633363 0.07126341 0.03926798
000030 43 82 5d bd 82 b4 c8 3d 7c d0 48 bd 1b 6a e9 bd
       -0.054079305 0.09800054 -0.04902695 -0.11397191
000040 f9 0e e4 3d d6 73 10 3e d9 9e 44 bd 70 67 6f bc
       0.11135668 0.14106688 -0.04800305 -0.014612064
000050 ab e7 24 be e5 b7 9e 3c 7a 90 fb 3d e3 a7 02 3e
       -0.16104 0.019374797 0.12283416 0.12759356
000060 ac e1 80 bd 66 dd 67 bd b0 a6 96 3d 00 a0 95 bd
       -0.062930435 -0.056607626 0.07356012 -0.07305908
000070 5d df 04 be 74 cb e5 bd e7 de ce bd 57 f0 3e 3d
       -0.12975831 -0.11220446 -0.10101109 0.046615925
000080 30 70 41 3c 5e 6f 24 bd 77 04 f6 3d c4 19 b4 3d
       0.011806533 -0.04014527 0.1201257 0.08793977
000090 85 a1 00 bd a3 70 bd bd ea 63 05 3c 20 ed 4b be
       -0.031404037 -0.092499994 0.008141497 -0.19914675
0000a0 18 8e fa bd 03 33 23 3d f0 8c 34 3d 88 50 74 bd
       -0.122341335 0.03984357 0.04407972 -0.059647113
0000b0 e1 a9 ab 3c 22 e0 0d 3d dc 4f 65 3e ba 84 15 bd
       0.020955028 0.034637578 0.22393745 -0.03650353
0000c0 70 af 9a bd d6 b5 72 bc 59 a4 b3 3d 96 01 0e bd
       -0.07552993 -0.014813861 0.08771581 -0.03466948
0000d0 cb 62 c1 bd 2e 19 b6 bd cd ae 7b 3c 28 18 c5 3d
       -0.094426714 -0.088915214 0.0153615 0.09623748
0000e0 0b ee 9d 3c da c2 19 3d 93 35 9c 3c be dd 0f 3d
       0.019278547 0.03753934 0.019068515 0.03512358
0000f0 c3 0b 12 3d fb ca cc 3d 92 c4 78 be c4 99 9d bd
       0.035655748 0.09999653 -0.24293736 -0.07695344

out.weight f4 [1, 64]
000000 1c 53 1c be 8d 1e 3e 3f 6b f7 d2 3d db ae dd 3d
       -0.15266079 0.74265367 0.103010975 0.10824367
000010 23 48 ae be f6 b9 5d be 56 ce 32 be 54 b2 83 bd
       -0.3403941 -0.2165297 -0.17461523 -0.06430498
000020 ad a9 9f be 3e 58 6f be c0 35 8e 3d 81 41 d1 3c
       -0.3118414 -0.23373505 0.06943846 0.02554393
000030 8b 2a b3 3f 5f 2c 05 be c0 47 f4 3e b9 ad a0 3e
       1.3997358 -0.13005207 0.4771099 0.3138254
000040 77 4d 1f be 8a db 45 be 28 8c ef 3a cc 28 ed 3d
       -0.15556894 -0.19322029 0.0018276023 0.11580047
000050 a1 46 b7 3f ec f2 7a be 60 d1 25 be 37 d1 47 be
       1.4318429 -0.2450673 -0.16193151 -0.19513403
000060 b8 69 1f 3d 61 7f 82 be 58 d9 ca 3d fb 80 f1 bc
       0.03891918 -0.25487807 0.09904736 -0.029480448
000070 aa f8 3c 3f c4 73 e1 bd b1 30 10 3f 7b 36 50 be
       0.7381693 -0.11008409 0.563243 -0.20333283
000080 ec 88 86 bd 2a 32 6e be d5 f0 3d be f0 35 37 be
       -0.065690845 -0.23261324 -0.18548901 -0.1789167
000090 47 69 bc 3d ee bb a1 bd 3a ed 5a 3d de 1a 39 3f
       0.091997676 -0.07897173 0.053448893 0.7230662
0000a0 2f dd 56 3d b2 7c ba 3c f2 4b 12 be 4f 6a a2 3d
       0.05245703 0.022764537 -0.14286783 0.07930433
0000b0 db 4a 38 3d 3a bb 60 be 57 83 5b be 0a fc f1 3e
       0.044993263 -0.21946421 -0.21436821 0.47262603
0000c0 c0 52 1e 3c 91 65 1b bb 71 a3 1f be d2 01 5d be
       0.009663284 -0.0023711661 -0.15589692 -0.21582726
0000d0 db a8 3d bd 3f 4c a0 3b eb 07 31 be d0 37 54 be
       -0.04630361 0.0048919017 -0.17288177 -0.20724416
0000e0 11 9d 45 be cf 79 46 3d 5a 86 40 be 69 19 64 3a
       -0.19298197 0.04845601 -0.18801251 0.0008701296
0000f0 df 91 ae 3d f0 8a 5d be aa 51 43 3f 76 a0 71 be
       0.085239165 -0.21635032 0.76296484 -0.23596367
