models/model_1000000_train_10000_epoch_192_neurons_range_scaler.pt (torch, 37499 bytes, 7 tensors)

layers.0.weight f4 [64, 5]
000000 6c 47 0c 3d 09 c5 56 3e f4 c7 a4 be d1 09 c5 3c
       0.0342478 0.209736 -0.32183802 0.024052532
000010 1e 30 d3 be ed 21 dd 3e d5 48 bd 3e 37 3f e0 3e
       -0.41247648 0.43189946 0.3696963 0.4379823
000020 f6 ae b4 3e 05 bf 99 be cf ea 01 bd ec b5 c6 be
       0.35289735 -0.3002855 -0.03171807 -0.3881067
000030 6f ef e2 bd 8a 67 7a 3e 75 46 cb bb b5 e6 28 bd
       -0.110808246 0.2445356 -0.0062034675 -0.041235644
000040 03 03 45 3e 5b 45 27 3e d7 70 09 bc 9f 30 2e 3e
       0.1923943 0.16335051 -0.0083887195 0.17010735
000050 fa 4d 62 3e e4 38 31 be 57 a2 c9 3d 1d 86 8c bc
       0.22100058 -0.17306858 0.09845417 -0.017153794
000060 1a a6 a5 3c f4 f6 80 3e 4d 13 98 be 5f 37 fe 3e
       0.020220805 0.2518841 -0.29702225 0.4965162
000070 52 b1 2b bc dd 62 c4 be d2 6a c5 3e 39 84 90 bd
       -0.010479288 -0.38356677 0.3855806 -0.070564695
000080 60 ac 93 3e 62 54 54 3e 0c b6 d5 be c9 86 af be
       0.2884245 0.20735314 -0.41740453 -0.3428252
000090 1f a7 58 be 41 71 9e be 18 98 90 3c 7a 22 1f bb
       -0.21157502 -0.3094578 0.017650649 -0.0024282024
0000a0 87 ef f4 3e 77 f1 96 bd 14 84 d1 3e c0 8b c7 bc
       0.47838995 -0.073702745 0.4092108 -0.02435863
0000b0 9e a7 0e 3d a3 7a 82 be c7 8c cf 3e 22 7a 5e 3e
       0.03482782 -0.2548419 0.40537092 0.21726277
0000c0 e9 b2 44 be 99 90 fb bd 6b 88 ba be c6 da 2a bd
       -0.19208874 -0.12283439 -0.36432204 -0.041712545
0000d0 49 f3 e4 3b 6f 8c 98 3e fa ca 7d be d4 72 01 be
       0.0069870097 0.29794642 -0.2478446 -0.1264146
0000e0 cd 97 98 3e b2 a4 50 3d a4 d0 03 be ef f0 e5 3e
       0.29803315 0.050938316 -0.12872559 0.4491038
0000f0 da 90 bc 3d 0e 91 86 3d b6 cb fc be c0 23 89 3e
       0.09207316 0.06570636 -0.4937417 0.26785088
000100 d4 1f 81 3e 63 e8 f1 bd 45 dd a1 3d 97 b3 b7 3e
       0.25219595 -0.118119024 0.07903532 0.35879204
000110 32 1c e8 bd b1 99 aa 3e 6b 78 8c be 49 4d f2 3e
       -0.11333503 0.33320382 -0.27435622 0.4732459
000120 aa 8e 71 3e 77 4c c5 3e 30 e3 4d be e8 3a da be
       0.23589578 0.385349 -0.20106196 -0.42623067
000130 46 da ae 3e cb 0f 99 bd 21 4b 79 3e c7 9c 31 be
       0.34150904 -0.074737154 0.24345066 -0.17344962
000140 6e f5 cc 3e 09 9a 48 be c7 bc 8e be 06 6e cd bd
       0.40030998 -0.1959001 -0.278784 -0.10030751
000150 5b 47 de 3d 19 1b aa 3e 16 43 52 bd 66 49 3f bf
       0.10853454 0.332238 -0.05133351 -0.7472137
000160 e8 cd 7c 3e 2a 9d 61 3e 5a 79 b9 3e c2 41 f6 be
       0.24687922 0.2203261 0.36225396 -0.48097044
000170 95 a1 23 3d 97 ea 85 be d0 d5 21 3e ec 81 ba 3e
       0.03994902 -0.2615554 0.15804219 0.36427248
000180 32 45 84 bd e4 3b 92 3e 7f 0f f7 3d d1 45 c7 be
       -0.064585105 0.28561318 0.120635025 -0.38920453
000190 c9 ad a1 be 76 54 bd be b9 e2 a4 3e d1 d7 9f 3e
       -0.315779 -0.369785 0.32204226 0.31219342
0001a0 89 9e e5 3d 55 23 06 3f 37 58 52 be ae e0 45 3e
       0.11211879 0.5239766 -0.20541464 0.1932399
0001b0 38 3f 81 3d df 43 99 3e d6 a2 33 be 51 84 8c 3e
       0.06310886 0.29934594 -0.17542586 0.274447
0001c0 79 3b ef be 14 aa 04 be 43 71 95 3d 50 cc e8 be
       -0.46725062 -0.12955505 0.072969936 -0.45468378
0001d0 b5 8c 18 3d 2d f5 03 bd c5 43 fa bd 65 37 e5 3e
       0.037243564 -0.03221624 -0.12219957 0.44768825
0001e0 e4 56 3b 3e b4 79 3a bd 6b 24 7d be 7a 05 b2 3e
       0.18294865 -0.04552622 -0.24720924 0.34769803
0001f0 9a 57 99 3d 8d 43 9b 3e fa cf 9b be 79 4b fb 3e
       0.07487412 0.30324975 -0.3043211 0.4908102
000200 11 73 68 3e c3 f5 8f bd 62 2a c8 3e 93 83 a5 3e
       0.22700144 -0.07029297 0.39094836 0.32326946
000210 d0 f9 94 be 12 95 50 3e fe 48 be be 65 05 b6 3e
       -0.29096842 0.20369366 -0.37165064 0.3555099
000220 74 94 71 bb 11 f0 11 3e d7 e2 54 bc a5 1a 3d 3e
       -0.0036862167 0.14251734 -0.012993536 0.18467195
000230 62 7e cc be 29 6d dc 3d 9f e7 2b be f2 15 9f be
       -0.39940172 0.10763008 -0.16787575 -0.3107143
000240 4b 0b b7 bd d0 ff 73 3d c7 3e c8 3e 45 8e f7 3d
       -0.08937701 0.059570134 0.39110395 0.12087683
000250 65 e6 a4 3e e9 46 67 3e 94 e6 af 3e b3 28 8c 3d
       0.32207027 0.22585644 0.34355605 0.068437
000260 c9 29 a4 3e d7 39 a1 be 5c 52 84 be 3a c0 cd be
       0.3206313 -0.3148944 -0.25844085 -0.4018572
000270 b8 40 7c be cd 03 be 3e 8d 8f 1c be d3 7e 08 3d
       -0.24634063 0.37112275 -0.15289135 0.033324074
000280 7c 6a fb be 32 8d cd 3e 4f c3 0b 3c 46 58 45 bd
       -0.4910468 0.40146786 0.008530452 -0.048179887
000290 46 86 b4 bd 6e 5f 94 3e 6b 63 8b bc 9a 7d 1c 3e
       -0.08814673 0.28979057 -0.01701518 0.15282288
0002a0 5b e0 c9 be 98 8e cc be 00 0b b4 3e 61 1b df 3d
       -0.39428982 -0.3995254 0.35164642 0.10893894
0002b0 c3 d0 34 bd 44 e8 5a bd e6 43 1d bf 95 8a a8 bd
       -0.044144403 -0.053444162 -0.6143173 -0.082295574
0002c0 5a ad 2a be 22 3d f8 3e ed 9d 43 3e 7e 43 df bd
       -0.16667691 0.4848414 0.19103213 -0.10901545
0002d0 3f 62 72 3d 79 d4 73 be e6 fc c8 3e c9 08 21 3e
       0.059175726 -0.2381152 0.39255446 0.15726008
0002e0 dd 1f e8 3e 17 0b a3 3d 49 b9 70 be a0 1f a0 3e
       0.4533681 0.079610996 -0.2350818 0.31274128
0002f0 c8 b7 a4 3e 39 de e2 3e fe 6c ee 3d 49 88 8d be
       0.32171464 0.44310167 0.11641882 -0.2764304
000300 d3 ac 06 be a9 0b e4 bb 34 b7 df 3e c8 d1 d9 bd
       -0.13151865 -0.006959398 0.4369446 -0.10635716
000310 28 60 74 be e4 a2 84 3d 0a 8c 6e 3a 24 39 de 3e
       -0.23864806 0.064763814 0.0009099847 0.4340297
000320 23 e8 e2 3e 99 f2 a5 bd 64 ad 8a bd 19 93 35 be
       0.4431773 -0.081029125 -0.06771353 -0.17731895
000330 66 fc cd 3e 02 21 49 bd fb 45 c7 be b8 74 e5 bc
       0.40231627 -0.049103744 -0.38920578 -0.028009757
000340 8c a8 88 3e bc 7e 99 3e 60 58 a9 bd eb 2d 22 be
       0.2669109 0.29979503 -0.08268809 -0.15837829
000350 ee 43 af 3e 8b 12 9c 3d 79 d1 25 3e a4 2f ef be
       0.34231514 0.07620724 0.16193189 -0.46716034
000360 44 a4 cc 3e d1 d0 d0 3e 49 4d e1 be 03 52 5c 3e
       0.39969075 0.40784314 -0.44004276 0.2151566
000370 31 93 e2 3c 3e 9c 54 be c1 67 af 3e a2 91 99 be
       0.027658077 -0.20762727 0.34258845 -0.29993922
000380 79 13 36 3e 40 a9 17 be f0 05 12 3e fa 86 a3 be
       0.17780866 -0.14810658 0.14260077 -0.31938916
000390 04 1f a9 3e ba dc 96 be a5 1c 47 be ef a9 e5 bd
       0.33031476 -0.29465276 -0.19444521 -0.11214053
0003a0 b0 9a 54 be 77 e8 59 3e 3e 46 f4 bd af 0d 13 3e
       -0.20762134 0.21280085 -0.1192746 0.14360689
0003b0 ed 7e a4 3e dc ce 0f 3b 18 66 8a be e1 bb 82 3e
       0.32128087 0.0021943366 -0.27031016 0.25533965
0003c0 f6 0e f6 be 3b cf 6d bc 27 82 1c be f7 4f 12 3d
       -0.4805829 -0.01451474 -0.15284024 0.03572079
0003d0 51 68 74 be 76 65 a4 bd 80 2d b0 3e 4e 26 19 be
       -0.23867919 -0.08027165 0.34409714 -0.14956018
0003e0 a5 eb 28 3d 6d 4c c1 3e 32 67 f3 3e 3e 51 56 be
       0.041240353 0.3775362 0.4753967 -0.20929429
0003f0 ba dd c6 be 42 85 22 bd 55 9e 82 3c 91 14 2c be
       -0.3884104 -0.039677866 0.01594464 -0.1680472

layers.0.bias f4 [64]
000000 9e ec 8d 3e fa de b0 3e 75 3c e4 3c 21 44 76 be
       0.27719587 0.34545118 0.02786086 -0.24049427
000010 1d 0f 25 3e eb be 7f be c7 da 78 be 03 18 21 be
       0.16119047 -0.24975173 -0.24302207 -0.15731816
000020 21 36 33 be 53 40 02 bd af 5d 81 3e 83 94 23 bd
       -0.17501117 -0.031799626 0.25266787 -0.039936554
000030 5c cc d4 bd df aa 2f be e8 e7 80 3e 5a e2 04 be
       -0.10390541 -0.17155026 0.2517693 -0.12976971
000040 2e 1e 31 3e d6 ba 58 be 65 83 8b 3e 07 b0 28 3e
       0.17296669 -0.21165022 0.27248684 0.16473399
000050 79 5f c5 3e 96 2b cb be a7 af a2 3d 1c 24 2c be
       0.38549402 -0.3968169 0.07943659 -0.1681065
000060 9b dc 52 be 43 0d e7 bd 4d 43 f2 3d 18 f5 cc be
       -0.20591967 -0.11281826 0.11829243 -0.40030742
000070 74 ec ad be 69 40 96 3e 91 1b cc 3e cd 6c db 3e
       -0.33969462 0.29346016 0.39864781 0.42856446
000080 31 d2 e9 3d dd e1 de be d2 ce a7 3d fa 7f 11 be
       0.11417044 -0.43531695 0.08193745 -0.14208975
000090 6a b1 87 3d 26 ac a2 3e 77 f2 a6 bd 34 46 10 be
       0.06625636 0.31771964 -0.08151715 -0.1408928
0000a0 10 3c 66 3d b6 7d a3 3d 97 9e 43 be df 86 e2 3e
       0.056209624 0.07982962 -0.19103466 0.44243523
0000b0 05 3b b1 3e 40 17 a1 3e 5f 9a 84 3e b8 32 88 be
       0.3461534 0.3146305 0.25899026 -0.26601195
0000c0 3b 40 cb 3e 5d cf 30 be 4f 68 ec bd c2 c1 40 3e
       0.3969744 -0.17266603 -0.11543333 0.18823913
0000d0 b8 09 f4 3e 90 9e 4a 3d 04 f4 03 3e e7 0a 27 3d
       0.47663665 0.049467623 0.12886053 0.04078188
0000e0 cd 9f 3d 3e dd 49 c7 3e 24 de 23 be 41 25 e4 3e
       0.1851799 0.3892354 -0.16002709 0.44559672
0000f0 c1 80 1c 3e dc 14 8d 3e e2 cc cc be 35 92 89 3d
       0.1528349 0.27554977 -0.40000063 0.0671734

layers.2.weight f4 [64, 64]
000000 ea 2c f1 3b 1d 79 2f bd 76 87 28 be 95 35 f7 bc
       0.0073600905 -0.042840112 -0.16457924 -0.030176917
000010 0c 78 ca bd 6a e3 86 3d 04 38 78 be 3c 7c d3 3d
       -0.098861784 0.065863445 -0.24240118 0.1032643
000020 a5 e1 d7 bd ab 5f 40 3e a0 6e 10 bd 68 f7 30 3d
       -0.10541085 0.18786494 -0.03526175 0.043204695
000030 8e 3b 25 be c1 01 e1 3d 42 f4 d3 bc 20 f6 c8 3d
       -0.16136 0.10986663 -0.025873307 0.098125696
000040 8d 20 fb 3d 15 14 5a 3d 33 9b 8d 3d 54 b9 d1 3d
       0.12262068 0.053241808 0.069143675 0.10240427
000050 6e b1 14 3d 20 8c ac bc 54 fb 41 3e 00 4e 39 be
       0.036302023 -0.02106291 0.1894353 -0.18096161
000060 b3 60 26 bd 94 1d cf bd 7f 14 29 3d e4 f6 73 3d
       -0.040619563 -0.101130635 0.041279312 0.059561625
000070 00 77 33 ba 0e d5 8b bc 14 5e a5 bd ab 47 f3 3c
       -0.00068460405 -0.017069366 -0.080745846 0.02969726
000080 91 8b b7 3d 54 a8 1c bb de ef 80 be fd 84 ed bc
       0.08962167 -0.0023904042 -0.25183004 -0.028994078
000090 c5 a5 cd 3c 0a ca 65 3d b8 b5 33 3e 2f 26 f5 bc
       0.02510346 0.056100883 0.17549789 -0.029925434
0000a0 f3 dd 96 bc cd 0a 02 be a6 3c c6 3d 7d 62 68 bd
       -0.01841638 -0.12699433 0.096795365 -0.05673455
0000b0 d0 50 05 bd 61 8f 17 3e 67 24 c3 bd fe e1 ef 3d
       -0.032547772 0.14800788 -0.095284276 0.117130265
0000c0 a9 a7 66 3b e1 78 1d 3e 63 1d d2 bc 51 fc a5 3d
       0.0035195148 0.15378143 -0.025648778 0.08104766
0000d0 78 cb e2 3b 6c 16 fa 3a a4 ec 71 3d d3 e9 74 bd
       0.006921228 0.0019080169 0.05906357 -0.059793305
0000e0 1d 7a 77 3d 29 64 bd 3d 2f 4a 5f 3b cd 46 a3 3d
       0.06041919 0.0924762 0.0034071316 0.079724886
0000f0 4f 2c c8 bd 5b 8a 45 3c f0 c3 04 bc 66 4f 1d bd
       -0.09774076 0.012056912 -0.008103356 -0.0384058
000100 2d 21 fa 3c 27 75 da bd 38 6f a5 3c 96 b2 e1 bd
       0.030533398 -0.10666876 0.020194635 -0.11020391
000110 1e 11 df bc ac c9 2c 3d b4 ff 58 bd 5c 38 4d 3d
       -0.027229842 0.042184517 -0.052978233 0.050102577
000120 14 8b 24 bd 66 bc 22 3d 9f ef 6d 3d 85 b2 72 bd
       -0.040171698 0.039730452 0.05808985 -0.05925228
000130 58 16 2e 3d 08 15 4e 3d 16 4b c7 ba 64 52 80 3d
       0.042501777 0.050313026 -0.0015204872 0.06265715
000140 22 0b b3 3d b8 45 61 bd c6 8d 01 bc ee 6b 38 3c
       0.08742358 -0.05499813 -0.007907337 0.011256201
000150 3f 9a de bd b0 c0 7f bd 7d ca 0c 3d 41 01 93 bd
       -0.10869264 -0.06243962 0.034372795 -0.071779735
000160 80 05 66 bb 4a 29 b1 bb dc 9c 84 bd b9 f0 9a bc
       -0.0035098493 -0.0054065334 -0.06475231 -0.018913614
000170 a0 5c 6c 3c 25 e6 f0 ba b5 90 3f bd 25 85 c2 bd
       0.01442638 -0.0018379135 -0.046768863 -0.094980516
000180 be 3f 4d bc 40 28 e0 3d 02 43 80 3d 90 b3 1e 3d
       -0.012527404 0.10945177 0.06262781 0.038745463
000190 60 c3 4e bd 6a bf ac bd 00 96 ed 3b 98 ef f1 3c
       -0.050479293 -0.08434947 0.0072505474 0.029533193
0001a0 91 b9 d4 3c 60 88 b2 bb 1a 3b e6 bd 45 f4 7d 3d
       0.025967391 -0.005448386 -0.112417415 0.06200053
0001b0 19 24 4b 3c bb 38 11 3d 0f ae e8 bd 9a d1 cd 3d
       0.012398743 0.035454493 -0.11361324 0.10049744
0001c0 8b 57 22 3b b9 0f b1 bd 80 95 a9 bd 2a b7 e5 bd
       0.0024771418 -0.08645577 -0.08280468 -0.112165764
0001d0 12 69 68 3d 40 a2 8a bb 43 9a 96 3d 88 e6 1b bd
       0.056740828 -0.0042307675 0.07353642 -0.03806165
0001e0 b1 ea c4 bd f2 a6 b3 bd a4 ea 76 bb 4a 10 e1 bd
       -0.09615076 -0.08772077 -0.0037676478 -0.10989435
0001f0 e0 2c da bb 97 38 ad 3d 4a 70 e1 bd d0 bb ba bd
       -0.0066581815 0.08458059 -0.110077456 -0.09117854
000200 1e 1c e1 bd dc d2 59 bd a8 5f 24 bd 00 e8 be 3a
       -0.10991691 -0.053179607 -0.040130287 0.0014564991
000210 00 51 84 bd e0 aa e4 3c 40 99 08 3b f0 e6 76 3c
       -0.06460762 0.02791351 0.0020843297 0.015069708
000220 1c 60 19 3d 0a c0 a4 bd 20 28 d0 bd 0c e4 db bd
       0.037445173 -0.08044441 -0.10163903 -0.10736856
000230 c0 fe 35 bb 86 bc d7 bd a8 30 ba bc 12 de c6 3d
       -0.002777025 -0.10534005 -0.02272828 0.09710325
000240 02 b8 ea bd 38 bc 10 bd f8 55 ea 3c 60 84 fb bc
       -0.11460878 -0.03533575 0.028605446 -0.03070277
000250 b0 99 35 bd 70 42 45 bc 2a 9a d2 bd 00 4e 06 3b
       -0.04433602 -0.012039766 -0.10283311 0.002049327
000260 80 a2 c1 bd a8 45 d7 bd 68 a7 7d bd 34 01 85 bd
       -0.094548225 -0.10511333 -0.06192723 -0.0649437
000270 a0 8a 6b 3c 98 79 00 3d 24 8c d0 bd 74 b2 be bd
       0.0143763125 0.03136596 -0.1018298 -0.09311381
000280 54 d0 0a 3d ce 23 e0 bd aa 47 d4 3d 4e fe 8e bd
       0.033890083 -0.10944329 0.10365231 -0.069820985
000290 ee 60 ab bd 3c b2 c2 bd 04 ad e1 bd 68 3e a5 3c
       -0.08368097 -0.09506652 -0.11019328 0.02017136
0002a0 1e 8a c2 3d 8c cb ea 3d de e2 cb 3d 7e 03 b1 bd
       0.09499 0.11464605 0.09955381 -0.08643244
0002b0 e0 83 d8 3b e6 0e f2 bd 48 5f ec bd 84 7a 93 3d
       0.0066075176 -0.11819248 -0.11541611 0.072011024
0002c0 3c f1 77 bd 4c 5e 0e bd b6 c7 82 3d a0 5d b7 3b
       -0.060532793 -0.034757897 0.06385748 0.0055958778
0002d0 e4 bc dc 3d 30 df f3 bc cc c4 50 bd d0 79 46 bd
       0.107782155 -0.02976951 -0.05096893 -0.048456013
0002e0 6e 1c ec bd 6e ba 91 bd 48 03 a5 3d 60 c4 75 bc
       -0.1152886 -0.07115637 0.080572665 -0.015000433
0002f0 96 5c 98 bd 6c 39 53 bd 2c 44 22 3d 30 48 83 3d
       -0.07439534 -0.051568434 0.039615795 0.06410253
000300 1d c0 d1 3c 79 9c a1 3c 78 3c ae 3c 37 99 ec 3d
       0.025604302 0.019727932 0.021269068 0.11552661
000310 e8 4d a2 3c 3a f6 00 be b5 ae 8e 3c 24 45 e6 3d
       0.01981254 -0.12593928 0.017417291 0.11243656
000320 25 7b 05 3e fa 8a ab 3c 6d bd b1 3d 1c 7a 30 bc
       0.13035257 0.020940293 0.08678708 -0.010771301
000330 52 dd db bd 8b 94 de bb e3 07 49 bd 79 be b8 bd
       -0.10735573 -0.00679261 -0.049079787 -0.09020705
000340 3b a9 18 be ba a8 ad bc a3 5f 09 3d 35 0b 8b bd
       -0.14908306 -0.02119862 0.033538472 -0.06789247
000350 ab d1 46 bd 41 08 10 3e 1a 30 a1 3d e6 b3 46 3d
       -0.0485398 0.14065649 0.07870503 0.04851141
000360 bc 40 e5 bc a3 2b a3 bd ce 40 89 3c 9c 5d fb 3d
       -0.02798497 -0.079673074 0.016754534 0.12273714
000370 4c 98 05 bd 25 cd 9c bd c8 92 4f bd b6 11 44 bd
       -0.032615945 -0.07656316 -0.05067709 -0.047868453
000380 36 34 a7 3c c1 3e f7 3d ba 4c 09 be ec b2 f7 bd
       0.020410638 0.12072516 -0.13408175 -0.120946735
000390 4c 90 0c bd 61 7b e9 3d 65 68 35 be 18 1c 13 be
       -0.0343173 0.11400486 -0.17715605 -0.14366186
0003a0 1c 8e 44 3d 42 58 7f bd 24 9b 55 bd 54 a2 84 3a
       0.04798709 -0.06234003 -0.052149907 0.0010119178
0003b0 84 36 e0 3d 7d 41 85 3c 3a 5b c0 bc 14 f8 5d bd
       0.10947898 0.016266579 -0.023481 -0.054191664
0003c0 7e 00 7f 3e b0 41 00 3e e1 6b ce bc 88 f7 a2 3d
       0.24902532 0.12525058 -0.025197925 0.07957369
0003d0 15 54 53 be 2b 7d 47 bd 18 31 f2 3d ea e1 09 3d
       -0.20637543 -0.048703354 0.1182577 0.033662714
0003e0 10 1b bd 3b e6 dd ff bd d7 0e 3b bd 98 09 0b bd
       0.0057710484 -0.12493496 -0.04566845 -0.033944696
0003f0 ff fe 3e be b2 b5 70 3e f8 49 15 bd cf bb 08 3e
       -0.18651961 0.23506811 -0.036447495 0.13352893

layers.2.bias f4 [64]
000000 9e b6 35 3d 2d 14 9d 3d 80 13 9e bd d3 ea d3 3d
       0.04436361 0.07669864 -0.07718563 0.103475235
000010 3d 57 5c 3b 0c 9b df 3d ae c5 11 be 8e e1 c6 bd
       0.0033621334 0.10918245 -0.14235565 -0.0971099
000020 8d c7 87 3d 25 9e 97 3d 66 84 ec 3d 83 d6 a9 3d
       0.06629858 0.074032106 0.115486905 0.08292868
000030 5b 2a 19 bc bf cc 09 bc 51 42 3d bd d9 33 87 3d
       -0.009348477 -0.008410632 -0.046205822 0.06601686
000040 5f 2c b0 bd c1 1c 56 3d 67 ec 95 3c 2a 98 50 3d
       -0.08602213 0.052273516 0.018301202 0.050926365
000050 65 79 d8 3d bd 99 2f bd 01 72 4d bd 94 a8 eb bd
       0.10570029 -0.042871226 -0.05015755 -0.11506763
000060 44 6f c7 bd 95 1b 80 3d 76 e5 8f 3c 5a bc 0e bd
       -0.09738019 0.06255261 0.01756547 -0.034847595
000070 e3 34 5a bd de 03 e4 bd a7 fd bf 3c 72 1c c1 3d
       -0.053273093 -0.1113355 0.02343638 0.09429254
000080 9d 7c aa bd d7 09 c0 bd b8 b7 87 3d fa e7 83 3d
       -0.08324549 -0.09376877 0.066268384 0.064407304
000090 71 7b 3c bc 94 96 2e 3d f0 a6 ec bd 14 bd e3 bd
       -0.01150404 0.04262407 -0.11555278 -0.11120048
0000a0 40 1b 94 bd ce ce 15 3d d0 43 49 3c 3a ab f9 bd
       -0.0723176 0.036574177 0.012284234 -0.12190862
0000b0 c4 ff e6 3d 36 dd 31 bd a2 db bb 3d 67 ff f2 bd
       0.11279252 -0.043423854 0.09172751 -0.118651204
0000c0 5a 54 d2 3d cc 2f 20 3d c8 b8 b4 3d 44 18 a1 bd
       0.10269995 0.039108083 0.08824307 -0.078659564
0000d0 c2 4d e6 bd 60 3e 8b bd d2 1b 08 3e 52 64 a1 bc
       -0.112453 -0.067990065 0.13291863 -0.019701157
0000e0 01 16 1e 3d bc 82 d4 3d f7 1c f8 3d f3 d4 14 3d
       0.038595203 0.10376498 0.121148996 0.036335897
0000f0 f8 2a df bd 4c 9f 61 bd fb d9 de 3d 0e f0 f6 3d
       -0.108968675 -0.055083558 0.1088142 0.120575055

layers.4.weight f4 [64, 64]
000000 9f 34 25 3d c6 50 af bc d0 da 4f bc 0c 71 42 bc
       0.040333387 -0.02140082 -0.012686446 -0.011867773
000010 84 90 19 bd 6e 4c 49 bc bd 31 1f 3d 02 cd b9 3d
       -0.037491336 -0.012286289 0.038865793 0.09072305
000020 a4 ad 32 3d 1f e9 81 3d 15 57 fa 3c ee 4b 76 3d
       0.043622628 0.063432924 0.030559102 0.060131006
000030 46 6a 5f 3a f6 d8 00 bd f4 c6 4c be fe 87 4a bd
       0.0008522611 -0.03145691 -0.1999777 -0.0494461
000040 d0 c2 4d bc 63 dd a4 3d b3 30 f2 3b 91 14 bd 3d
       -0.012558654 0.08050039 0.0073910593 0.09232438
000050 66 30 03 be bf 2f c3 bc 8e a2 a9 bd f4 d2 2f 3d
       -0.12811431 -0.023826478 -0.08282958 0.04292579
000060 01 b2 83 bd 24 d7 db 3d 45 e4 23 3d 1f 8e 84 3d
       -0.06430436 0.10734394 0.040012617 0.0647242
000070 99 64 b1 bd 35 bb de bd de eb 15 ba 9b a2 9b bd
       -0.086617656 -0.10875551 -0.0005719046 -0.07599374
000080 3c 59 bd 3d 96 2c 07 3c d5 0c 8c bc d8 bb e2 3d
       0.09245536 0.008250376 -0.017095963 0.110709846
000090 c5 0f e7 3e 04 ea 7c 3d 6c 52 a1 3d 6a d2 a7 bc
       0.4512922 0.061746612 0.07877049 -0.020486075
0000a0 29 a5 15 bd 54 b5 8e bd c0 76 2b 3b 21 76 0f bd
       -0.036534462 -0.06968179 0.002616331 -0.035024766
0000b0 b3 3d 79 bc e4 18 ab bd d2 26 26 3d 97 77 19 3d
       -0.015212464 -0.08354357 0.040564366 0.037467565
0000c0 e2 5f 96 3d 5e 6e e4 bd c7 66 e6 bd 28 47 bf bd
       0.07342507 -0.11153863 -0.11250072 -0.09339744
0000d0 80 98 0f be 98 57 ec bd 53 c6 96 bd 47 e0 a1 3d
       -0.14023018 -0.11540145 -0.07362046 0.07904106
0000e0 d9 57 2c bd 72 2e b1 3d f9 65 ea bd 5e ce bc 3d
       -0.042075966 0.08651437 -0.11445231 0.09219049
0000f0 1f c1 93 bd e0 20 ce 3d 3b fa d5 3d ab e6 30 bd
       -0.07214569 0.10064864 0.10448118 -0.043188732
000100 bf 1a fa 3d 1b 66 a1 bd f4 fb 35 3d e6 56 08 be
       0.12212133 -0.07880803 0.044429734 -0.13314399
000110 26 f3 55 3d ac 48 42 bc 31 38 7e bd 52 2e 54 3e
       0.052233838 -0.011858147 -0.062065307 0.20720795
000120 d1 31 9c 3d 5a f1 23 3d da 82 13 bd 51 cc 12 3c
       0.07626689 0.040025093 -0.03601346 0.008959846
000130 a2 66 3b 3c fa 43 4e be 42 03 4e be b7 22 71 be
       0.011438044 -0.20143119 -0.2011843 -0.23548399
000140 60 f4 0a 3c 7f f7 93 3e 98 e5 dd bc be b9 75 3c
       0.008481115 0.28899762 -0.027087018 0.014997898
000150 98 7a 88 bd 90 ba 47 bd 09 77 d5 3d cf 76 c1 3d
       -0.06664008 -0.048761904 0.10423095 0.09446489
000160 cf 7a 1a 3e 5c 81 12 bd 9b e0 c3 3d 18 f3 97 39
       0.1508591 -0.035767898 0.095643245 0.00028982083
000170 51 9e 19 be 59 9d 84 bd 50 2c 60 bd 9e e3 03 bd
       -0.15001799 -0.06475324 -0.05472976 -0.032199495
000180 96 3b a7 bc 58 76 a8 3c 1c 4f 63 3d 09 8a fe 3a
       -0.020414155 0.020564243 0.055495366 0.00194198
000190 83 4e 0f 3f f2 93 fa bd 34 9d 47 3d e3 ca b2 bd
       0.55979174 -0.122352496 0.048733905 -0.08730104
0001a0 00 cc 34 3d 52 93 32 bd 1a 37 8a 3d ec d4 f9 bd
       0.044139862 -0.043597527 0.06748791 -0.12198815
0001b0 40 6f 77 3d 0f 6b 08 3e 40 23 8b bc 89 11 56 3d
       0.06040883 0.1332209 -0.016984582 0.052262817
0001c0 f8 61 a8 bc ef 6f c5 3d ea 98 d1 be 10 0d a1 bd
       -0.020554528 0.0964049 -0.40936977 -0.078638196
0001d0 69 85 25 3e 13 2d b2 bd ac 50 91 bd b0 ed 34 3e
       0.16164173 -0.087000035 -0.07095465 0.17668796
0001e0 5b 80 ab bd 5c 7c 84 3d 7a c5 b5 bb 88 c5 88 3c
       -0.08374091 0.06469032 -0.0055472227 0.016695753
0001f0 ef 61 b7 bc b4 99 08 bd 07 09 19 3e 2a 1f 48 3d
       -0.022385566 -0.033349708 0.1494485 0.048857845
000200 a0 e5 c8 bd 65 1d 2c 3d 48 f2 c1 3d 25 20 54 bd
       -0.098094225 0.04202022 0.094700396 -0.051788468
000210 2f 50 89 3b 34 4b 66 3d 95 11 c3 3c 31 e1 4c 3d
       0.004190467 0.056224063 0.023812095 0.050019447
000220 c0 dc 9d bd ca dc 67 bc 89 d9 47 bd 67 94 ae bd
       -0.0770812 -0.014151761 -0.048791442 -0.08524399
000230 fb 11 ab 3d 21 19 9c bb 98 0d 57 bd 33 70 55 be
       0.08353039 -0.004763738 -0.0525032 -0.20843582
000240 67 2c b4 3d 7e 7a 08 bd 6e 56 84 3d 1a a3 85 3d
       0.087975316 -0.033319943 0.06461798 0.0652525
000250 4b f6 01 3d c1 01 85 bd 40 e6 ab 3d 67 4c 86 3d
       0.031729024 -0.06494475 0.08393526 0.06557541
000260 c5 a8 5a 3d 91 35 a5 3d 97 8b 31 be 78 8c 10 bd
       0.053383607 0.080668576 -0.17338406 -0.03529021
000270 fb c4 32 be 02 1e aa 3d 50 46 5d bd c1 6d 54 bd
       -0.17457955 0.08306505 -0.054022133 -0.051862482
000280 2d cc b1 3d d4 3d a2 bc 44 33 44 bc 90 2b be 3d
       0.086815216 -0.019804873 -0.011975113 0.09285653
000290 b1 3c f7 3e 78 28 f4 3d 66 52 01 be 12 9d c4 bb
       0.4828849 0.11921781 -0.12629089 -0.0060001696
0002a0 16 ba a8 3d 05 fc b0 3d c2 62 80 bd bf 49 df bd
       0.08238618 0.08641819 -0.062688366 -0.10902738
0002b0 b4 7d 6b 3d 80 2d d1 bb 81 e8 e2 bd 2a 57 a6 bd
       0.057492927 -0.006383598 -0.11079503 -0.08122094
0002c0 79 08 ea bc c6 d8 66 bd cd 67 b5 3d b4 d6 a1 3d
       -0.028568493 -0.056359075 0.08857689 0.079022795
0002d0 b9 21 72 3d 42 08 f6 39 ea 70 4c bc 1f 20 23 3e
       0.05911419 0.0004692693 -0.012478093 0.15930222
0002e0 14 fd 5f 3d 22 26 bf bc 71 9e 2d 3d 9d 81 9c 3c
       0.054684713 -0.023333613 0.04238743 0.019104773
0002f0 eb 5a fb 3b 56 2d b6 3c 88 b9 a4 bd 4d 54 e9 bc
       0.0076707504 0.022238415 -0.080432 -0.02848258
000300 c9 91 0f bd eb e3 80 3c 1e 64 df bd c0 90 ac bd
       -0.03505114 0.01573368 -0.10907768 -0.08426046
000310 c0 a8 1a bc e5 da 44 bd 95 cf 27 bd 92 07 0b bd
       -0.009439647 -0.048060317 -0.04096945 -0.033942766
000320 c9 75 86 3d 69 79 eb 3d a7 dc 5b bd 2d 2a a5 bc
       0.065654345 0.114977665 -0.053677227 -0.020161713
000330 47 6f 43 b9 05 67 1a bd 41 fd 37 3e e1 5f 19 3e
       -0.00018638103 -0.037695903 0.17967702 0.14977981
000340 83 0a a5 bd 0d 9b 97 bc 45 88 c7 bc 66 9c d1 bd
       -0.080586456 -0.018506551 -0.02435697 -0.10234909
000350 ed b1 d3 bc 33 d6 d6 bc dc ea 38 bd d5 26 2c 3d
       -0.025841678 -0.026225185 -0.045145854 0.04202922
000360 c6 1d 81 3d ef 65 ba bd ec 4d 6b bc 1e 9e 68 3d
       0.06304507 -0.091014735 -0.01436184 0.056791417
000370 ce e4 24 3e 1e 65 f2 3d 1e c4 f9 3c d3 18 9e 3c
       0.16102907 0.11835693 0.030489024 0.019298946
000380 08 f2 43 3d 07 ef a6 bd 29 6b ed 3d d3 f1 25 3d
       0.04783824 -0.081510596 0.11592705 0.040513825
000390 75 2e df 3d fc a1 17 3d 27 f1 aa bc cb 3b e1 3b
       0.10897533 0.037019715 -0.020866944 0.006873583
0003a0 3f 7c b6 3d 11 c3 94 3d 24 0d 3a 3d ab 77 26 bb
       0.08910417 0.072637685 0.045422688 -0.0025400918
0003b0 47 1e a8 3d d4 b0 75 bc 1b eb 1f bd 52 2b 16 3e
       0.082089 -0.014995772 -0.039042573 0.14664963
0003c0 5e 5b 93 bd cb 8e c5 bd ea 02 b4 3c 72 35 ac bd
       -0.07195161 -0.09646376 0.021974046 -0.084086314
0003d0 0e 96 fe 3b d1 fe 8a bd 56 e2 b9 3d 5b c0 7a be
       0.0077693528 -0.067868836 0.09076373 -0.2448744
0003e0 91 10 c5 3c b4 fe 83 bd 89 73 04 3d c4 50 15 3b
       0.024055751 -0.06445065 0.032336745 0.0022783736
0003f0 72 23 58 bd f0 4d 91 bd 00 07 8e bd 77 1f 8c 3d
       -0.05276818 -0.070949435 -0.06934929 0.06841939

layers.4.bias f4 [64]
000000 e9 34 ce 3d c8 b2 47 3c 58 9c 38 3d df 33 d3 3d
       0.100686856 0.012188621 0.045070976 0.10312628
000010 63 54 e1 bc d8 5b c8 3d e8 47 13 3c 6e f1 30 3b
       -0.027506059 0.09783143 0.008989312 0.0026999372
000020 1c 6c f0 3b f4 f5 a8 bd a6 b4 97 bd 1c 75 db bd
       0.0073371064 -0.08250037 -0.07407503 -0.10715696
000030 38 43 d1 bd 8a 06 80 bd 61 8d a3 bd d5 f8 a2 bd
       -0.10217899 -0.06251247 -0.0798595 -0.07957617
000040 61 57 4b bc 8e 11 49 bd 11 4d 8f 3d dd fa a2 3d
       -0.0124109695 -0.049089007 0.06997121 0.079580046
000050 96 4e 8f bd b8 ca 71 3d de 96 e9 3c 21 67 dc bc
       -0.06997411 0.05903122 0.028514322 -0.026904644
000060 ee 79 bc bb 6c f4 a1 bd 83 bd 50 3d 96 7e 2b 3d
       -0.00575184 -0.07907948 0.050961982 0.04186877
000070 f2 9b f2 bd 38 86 d9 bc 45 fd f9 3d 96 26 a6 bd
       -0.118461505 -0.026553258 0.122065105 -0.081128284
000080 45 c7 76 bd ec 03 d2 bd f4 6f e9 bd b1 9a 82 bc
       -0.060248632 -0.10254654 -0.113983065 -0.015942903
000090 2c 9d b3 3d c3 88 a7 3d 5c cf 53 3d 2e 29 6f bd
       0.087702125 0.08180382 0.051711425 -0.05838888
0000a0 ec 91 f0 3c df bd c3 bd 3d e7 9c bd 87 c1 07 3d
       0.029366456 -0.095576994 -0.07661293 0.033143546
0000b0 ae a5 a3 3d 45 6f 9b 3a d4 f8 a7 bd 1b 49 6c 3d
       0.07990585 0.0011858722 -0.08201757 0.057686906
0000c0 c6 ad da bd e2 be 03 3d 18 3d 9e 3d 1e c4 9c 3c
       -0.10677676 0.032164462 0.077264965 0.019136485
0000d0 34 34 cb bd ab 7c a5 3d c0 7b b6 bd 12 8e af 3d
       -0.09922066 0.08080419 -0.08910322 0.0857202
0000e0 bc a5 de 3c 27 78 6e bd 09 7f 1f bc 52 2e 43 3d
       0.027178638 -0.058220055 -0.009734877 0.047651596
0000f0 8e 65 26 bd 62 03 f4 3c b4 57 7e bd fe 46 08 3e
       -0.040624194 0.02978677 -0.06209536 0.13308331

out.weight f4 [1, 64]
000000 82 42 1c bd 79 24 15 be 8c bf 27 bd 20 03 cf 3c
       -0.038149364 -0.14564694 -0.040954158 0.025270045
000010 ac f7 b2 bd 60 5d 56 bd 8e a3 86 3d 2a 86 54 3b
       -0.08738646 -0.052335143 0.06574164 0.00324286
000020 6a d5 47 bc 1d 3e 85 3b ce 10 8b bd 44 9c 6e bd
       -0.012196878 0.0040662424 -0.067903146 -0.058254495
000030 78 c2 a3 3d fd f0 16 3e 39 32 67 bd a1 09 59 bd
       0.07996076 0.14740367 -0.05644438 -0.0529877
000040 d8 60 41 3d 5d 8e e7 3d 2d 93 ef 3d ae 75 4e bd
       0.047211498 0.113064505 0.116979934 -0.050405197
000050 b8 78 ed bc ae d8 9f 3d 3e e6 db 3d e1 df d2 bd
       -0.028988227 0.07805 0.107372746 -0.10296608
000060 83 9c a3 3d 38 54 8b bd 26 40 83 3e db 1b 7e bd
       0.079888366 -0.06803173 0.2563488 -0.062038284
000070 63 d6 d7 be 8c ed ca bc e8 ba ee 3d 36 21 15 3e
       -0.42155752 -0.024771474 0.11656743 0.1456345
000080 f8 13 c7 bd ba 59 4a bc e8 10 52 bd e5 47 80 be
       -0.097206056 -0.012350494 -0.051285654 -0.2505485
000090 39 5b b6 bd de b8 4c 3d 96 4b b7 3d 81 68 a2 3d
       -0.08904118 0.04998099 0.08949964 0.07930089
0000a0 bc 92 89 bc a7 1e b7 bd 19 e1 e6 bd db c4 2c be
       -0.016793601 -0.08941393 -0.11273403 -0.1687197
0000b0 33 00 f5 bd 24 75 c1 bd 7b 84 1c 3e 44 8e b0 bd
       -0.119629286 -0.09446171 0.15284912 -0.08620885
0000c0 00 04 89 b9 57 67 20 3d e5 38 c7 3c 15 2d d2 bd
       -0.00026133657 0.039161053 0.024319122 -0.10262505
0000d0 04 8c 08 bd 22 34 43 bd 0c ff df 3d 3d ce ae 3d
       -0.033336654 -0.04765714 0.10937318 0.085354306
0000e0 a3 03 06 be d9 10 3b 3d 17 91 eb bd 8b af f5 3c
       -0.13087325 0.045670364 -0.11502283 0.029990932
0000f0 0b 2e c3 bd af c2 bb 3e c0 b2 60 bc 87 cd 8d 3d
       -0.095302664 0.3667197 -0.013714492 0.06923967
